checkpoints/reduce_construction/graph_encoder.pth (torch, 131562 bytes, 20 tensors)

local_head.gconv.convs.<stroke___ordered_next___stroke>.nn.0.weight f4 [16, 12]
000000 90 90 78 3e 90 04 3e be 2f 81 01 be 00 17 6d bc
       0.24273896 -0.18556428 -0.12646936 -0.014470816
000010 00 80 3a bc 40 36 f2 bb f0 d5 2f 3e f8 06 27 3d
       -0.011383057 -0.007391721 0.17171454 0.04077813
000020 06 54 57 be c0 93 f1 bb c6 eb 80 3e a0 68 68 bd
       -0.21028146 -0.0073723495 0.2517988 -0.056740403
000030 d6 a6 6e be f4 2a 46 3e f0 e5 a8 3d 20 1d 36 3e
       -0.2330583 0.19352323 0.08246982 0.17784548
000040 88 de 15 3e 38 21 77 bd 26 82 c3 bd 82 dd 1e 3e
       0.1463567 -0.060334414 -0.09546308 0.15514186
000050 b4 2a 7d bd f1 97 71 be c7 85 03 be 4e 5b 5b be
       -0.061808303 -0.23593117 -0.12844001 -0.21421549
000060 38 6c f8 3e ba bd fd 3d 6b cb 97 3b cc e1 43 3f
       0.48520064 0.12389703 0.0046324036 0.76516414
000070 e6 32 7d bd 7b 38 38 bf bd f8 1f be 9a 57 90 3e
       -0.06181612 -0.7196118 -0.1562223 0.28191835
000080 6f 8e 04 3f ad e1 0b bf 78 61 05 3c ab 27 a4 3e
       0.51779836 -0.5464123 0.008140914 0.32061514
000090 f4 c3 07 3e ce cd 36 be 40 48 91 3d 8a 20 40 3e
       0.13258344 -0.17851946 0.07093859 0.18762413
0000a0 38 67 c5 3d 6a a8 18 be a4 26 15 3e 28 32 ab 3d
       0.09638828 -0.14907995 0.14565521 0.08359176
0000b0 8a 5f d3 bd 96 32 7a be fe cc aa bd 9c fc 7c 3e
       -0.10320957 -0.2443336 -0.083398804 0.24705738
0000c0 a6 40 53 be 10 d8 31 3d a2 6c c6 bd e1 ce 15 be
       -0.2063013 0.043418944 -0.09688689 -0.146297
0000d0 b0 ef 89 3c 1c c4 8b 3d a0 55 04 be 3c 8f f9 bd
       0.016837925 0.06824514 -0.12923288 -0.12185523
0000e0 12 64 19 be e0 b8 47 bc 28 95 11 3d 51 02 80 be
       -0.1497958 -0.012190074 0.035542637 -0.25001767
0000f0 aa 3a 3f 3f 31 53 6b bd ed 7f 41 3f 27 49 0d 3c
       0.7469889 -0.057452384 0.75585824 0.008623398
000100 32 63 8e 3d af 53 06 bf e3 50 54 be 42 f8 94 3e
       0.06952514 -0.5247144 -0.20733981 0.29095656
000110 f6 73 10 3f 46 c7 0b bf 8c 86 64 3e 3d c8 30 3f
       0.5642694 -0.5460094 0.2231695 0.6905554
000120 e8 27 e6 bd 2f 39 eb be 60 2d 00 3f bc 0c f8 3e
       -0.1123808 -0.45942065 0.50069237 0.48447216
000130 f5 5a 87 3c c8 fe 75 3c ac 96 c5 3e 7b a1 e8 3e
       0.016522864 0.015014358 0.38591516 0.454357
000140 85 9f 9f 3e 56 9e 02 bf 27 38 6b bd 3a 8d 3d 3f
       0.3117639 -0.5102285 -0.057426598 0.7404362
000150 c2 1b a2 3e 97 2e 19 bf 48 33 8c be a8 28 39 bf
       0.31661803 -0.59836715 -0.27382874 -0.7232766
000160 b3 3b 03 3e 2b b7 d3 be 52 63 14 bf 7f c3 06 3f
       0.12815742 -0.41350684 -0.5796405 0.52642053
000170 5f b6 83 3e a8 2b ba 3e 3b 82 41 3e a1 1f 1e bc
       0.25725076 0.36361432 0.18897335 -0.009651096
000180 56 e1 21 be 36 f9 de bd 6a 0f eb bd 06 98 86 3e
       -0.15808615 -0.10887377 -0.114775494 0.2628786
000190 90 ca 49 3d b0 6e 9a 3d 74 55 d6 bd 20 4a 55 be
       0.049265444 0.07540643 -0.10465518 -0.20829058
0001a0 fc c4 ed 3d 3e 75 07 3e 00 73 e8 3c b2 72 55 be
       0.116098374 0.13228318 0.028375149 -0.20844534
0001b0 2b d4 31 be b2 78 0d 3e ca f9 d8 bd e2 4f 87 3e
       -0.17366092 0.13815573 -0.105945185 0.26428133
0001c0 2e 5d 7f be 96 9d cf bd 4e 55 8d be f0 d3 8a 3c
       -0.24937889 -0.10137479 -0.27604145 0.016946763
0001d0 28 a8 fd 3d 08 82 75 3e 90 fc ef bc 5c 45 99 3d
       0.12385589 0.23975384 -0.029295236 0.074839324
0001e0 dc 60 0a 3e 46 85 90 3e 3a aa c4 bd c0 75 4a be
       0.13513511 0.2822668 -0.09602781 -0.1977148
0001f0 11 96 25 be 00 a1 87 3c 9c f1 4d bd d8 13 c3 3d
       -0.16170527 0.016556263 -0.050279245 0.09525269
000200 fc 55 5c 3e b7 12 10 be 38 53 d2 bd 90 7a 01 3e
       0.21517175 -0.14069639 -0.10269779 0.1264441
000210 91 a1 0f bd 54 0f 5f be a0 f1 38 be a9 f1 89 3c
       -0.03506619 -0.21783191 -0.18060923 0.016838865
000220 20 cf 40 3d 49 89 20 be ff 83 d3 3d 48 da 17 3e
       0.04707253 -0.1567737 0.10327911 0.14829361
000230 8d af 72 3d 62 67 33 3e f8 41 b0 bd 49 1e 78 be
       0.05924945 0.17519906 -0.086063325 -0.24230303
000240 b9 f0 ac 3e 94 24 ef be fb 1d 32 3f eb 12 ac 3f
       0.33777407 -0.46707594 0.69576997 1.3443273
000250 b1 19 76 bf 11 1a ad 3f a7 3c 56 be f7 b7 d5 3c
       -0.9613295 1.352358 -0.20921575 0.026088698
000260 2a 97 2b bf ad 39 96 bf 7e 1f 36 3d 6b ff 9b bf
       -0.67027533 -1.1736351 0.044463627 -1.2187322
000270 4a f2 11 3e cc 88 fa 3d 00 98 7c 3c b4 c9 90 3e
       0.14252582 0.12233123 0.015417099 0.28278887
000280 b0 79 b6 3c ae 88 09 3e e0 73 bb 3d 1a b0 8f bd
       0.022274822 0.13431045 0.09152961 -0.070160106
000290 74 44 4d 3e e0 98 3d 3c f0 4e e3 bc 30 82 98 bc
       0.20045644 0.011572093 -0.027747601 -0.018616766
0002a0 4d a2 13 3e 9f 2a 1f bf 43 18 40 3f da b3 5b 3c
       0.14417382 -0.6217441 0.7503702 0.013409579
0002b0 58 72 cc bd f4 85 1c bf da 3f ae 3e 41 70 86 3d
       -0.09982747 -0.61141896 0.3403309 0.065643795
0002c0 cf 18 61 3f 7f 75 14 3e c9 17 f9 3d c4 89 a5 3f
       0.8792848 0.14497946 0.1216274 1.2932668
0002d0 f6 fa 00 3f e6 0e 4a bd 51 42 81 3d 1d 7a e7 3e
       0.50382936 -0.049330615 0.06311477 0.45210353
0002e0 8e 04 5f bd f4 90 83 bd c1 74 29 bf 7e 90 72 be
       -0.054447703 -0.06424132 -0.6619378 -0.23687932
0002f0 b1 71 e5 be a6 ea c8 be 15 68 16 3e d3 53 02 bf
       -0.44813302 -0.39241523 0.14688142 -0.50909156

local_head.gconv.convs.<stroke___ordered_next___stroke>.nn.0.bias f4 [16]
000000 c2 3d 8c be 5a 4c 86 be 3d f5 98 3d 4c de 7c be
       -0.27390867 -0.26230127 0.074686505 -0.24694175
000010 2c c1 54 bd 04 c6 a4 3c 46 7b ee 3e b6 9b a6 3c
       -0.051942036 0.020113952 0.46578425 0.02033792
000020 71 f4 22 be c8 d6 9e bd ce 8a 1e be 7a cd 50 bc
       -0.1591356 -0.0775581 -0.15482637 -0.012744302
000030 38 e9 d5 3e fe 49 71 be ce 8f f1 3e 59 d0 61 3d
       0.41779494 -0.23563382 0.47180027 0.055130336

local_head.gconv.convs.<stroke___connected_to___stroke>.nn.0.weight f4 [16, 12]
000000 86 81 3c 3f e5 73 20 3d 7e d0 0b 3f 33 c0 27 bf
       0.7363514 0.039173026 0.5461501 -0.6552765
000010 ba 7e e9 3d 2b 13 17 3e b9 ee 40 bf 57 2e 9b 3e
       0.11401124 0.14753406 -0.7536426 0.30308792
000020 bc 65 b0 bc 9c d4 50 3f ab 12 ef 3e ee ba 28 be
       -0.021532886 0.81574416 0.4669393 -0.16477558
000030 80 9c 00 be 98 37 50 be b0 9d 48 be a0 75 07 bc
       -0.125597 -0.20333707 -0.19591403 -0.00826779
000040 10 54 15 3e 66 de 4e be 90 8a 94 3d 53 47 77 be
       0.14582849 -0.20202026 0.07252991 -0.24148302
000050 87 8a 63 be 50 a5 17 be 58 6e c2 3d 74 a7 8b 3e
       -0.22220813 -0.14809155 0.09493703 0.27276194
000060 a6 e7 1d be c7 99 42 be b5 4c e0 bc 42 b5 35 3f
       -0.15420398 -0.19003974 -0.027380327 0.709797
000070 70 85 05 be 91 bf b8 bd 45 79 66 3e 2f 0b 18 3f
       -0.13039184 -0.090209134 0.22507198 0.59392065
000080 c4 c9 20 bf 09 eb f0 be e9 00 a7 3e a5 2c 14 3f
       -0.6280787 -0.47054318 0.32617882 0.5788062
000090 89 be 81 be 1c 72 6c 3e 54 e8 9d 3d 16 fa 28 be
       -0.2534068 0.23090404 0.07710329 -0.1650165
0000a0 0c ec 49 bd 54 59 ab 3d 59 88 68 be 20 f8 58 3d
       -0.049297377 0.08366647 -0.22708263 0.052971005
0000b0 70 43 c3 3c c8 bf f3 3d e8 dd af 3d b0 e7 48 3d
       0.023835868 0.11901814 0.08587247 0.04904908
0000c0 f6 99 fa 3d f3 b2 8b be 7a ee bc be 58 71 60 3d
       0.12236397 -0.27284965 -0.36900693 0.054795593
0000d0 83 08 a5 3d cb 13 5b bd ae 87 1b 3e 7b 49 ef be
       0.08058264 -0.053485673 0.15188476 -0.4673575
0000e0 79 3f e2 3e c4 49 d7 3d 4c 88 bd be 0c c5 04 bf
       0.4418905 0.105121166 -0.3701805 -0.5186317
0000f0 d8 5a 6f 3e 23 a2 88 be d9 c9 59 3f f1 e4 5d 3e
       0.23374498 -0.266862 0.8507362 0.21669365
000100 7f 4c 8e 3e b6 82 94 3e 98 b6 bf be 83 64 8c 3e
       0.27792737 0.29005975 -0.37443995 0.27420434
000110 3f 32 ec be d5 51 fa bd fd f5 a7 3d 73 87 62 3f
       -0.46132085 -0.122226395 0.082012154 0.8848793
000120 2e c8 e4 bd ba d4 8f be 74 a8 03 3e 5c c5 65 3e
       -0.11170994 -0.28091985 0.12857229 0.22438568
000130 66 45 33 3e b0 3f 2f 3e 2c db 63 3e 29 93 21 be
       0.17506942 0.17114139 0.22251576 -0.15778793
000140 18 6d dc 3d 88 55 8d be 3c cc 81 3e 8a b2 0c 3e
       0.107629955 -0.27604318 0.2535113 0.13739982
000150 6a d9 8c be 57 34 8d be b2 37 12 be 89 70 0d bf
       -0.27509624 -0.27578995 -0.14279059 -0.5524984
000160 19 52 2f be 2c f8 28 3f 8a 91 59 3e 61 1f e5 3e
       -0.17121162 0.6600368 0.21246925 0.44750503
000170 fd 98 75 3f 7f cf 80 3e 3c 58 88 be e7 f2 a0 3d
       0.95936567 0.25158307 -0.26629817 0.0785883
000180 72 5d f1 bd 77 4b 1c be 40 32 e1 3e 8e 84 9a 3e
       -0.117854014 -0.15263163 0.4398365 0.30179256
000190 7d 44 1b be 4c cd 90 3e 72 23 8a 3e 06 8c 9a 3e
       -0.15162845 0.2828163 0.26980168 0.30184954
0001a0 33 4b ec be bb fc bb bb a5 d7 cb 3d ac d7 54 3e
       -0.46151122 -0.005736915 0.0995324 0.20785397
0001b0 4a 17 87 3e cc 60 54 be b8 da 17 3e b8 eb 55 be
       0.26384956 -0.2074005 0.14829528 -0.20890701
0001c0 9f 22 48 be b4 15 64 3e 34 54 b3 bd 00 a0 fb ba
       -0.19544457 0.22273904 -0.08756295 -0.0019197464
0001d0 60 01 b3 bd 80 9f 3a bb 68 64 68 be ec 55 b3 bd
       -0.08740497 -0.0028476417 -0.22694552 -0.08756623
0001e0 0b c7 0e be 20 3f 49 3c 04 11 43 be 40 2a 06 3c
       -0.13943116 0.012283117 -0.1904946 0.008188784
0001f0 e0 87 6c 3e 00 41 84 3e 10 a8 05 3e e8 71 57 3e
       0.23098707 0.2583084 0.13052392 0.21039546
000200 5d 9e 55 be d0 1a bf bc 00 b8 59 3d b4 4d 8d be
       -0.20861192 -0.023328215 0.05315399 -0.27598345
000210 b6 34 40 be 72 84 4b be 23 d6 67 be 56 4a 59 be
       -0.18770108 -0.19874743 -0.2264028 -0.21219763
000220 72 d1 0e 3e d8 e6 5d 3e 89 5f 18 be f8 05 f2 3d
       0.13947085 0.21670091 -0.14880194 0.11817545
000230 70 07 99 bd d0 81 6c 3e 20 2f 0a bd 78 3e 6f 3d
       -0.07472122 0.23096395 -0.03373635 0.058409184
000240 6f e0 b9 be 29 48 67 be 10 1c 5c 3f 03 12 a7 3f
       -0.36304042 -0.2258612 0.8598032 1.3052372
000250 27 64 40 3d b9 6f 43 3f ee a0 49 3f c4 30 72 3e
       0.046970513 0.7634235 0.78761184 0.23651415
000260 ab 58 6a bf 25 6a 0c bf 32 bb 7b bc b3 60 06 bf
       -0.91541547 -0.54849464 -0.015364455 -0.524913
000270 7b b1 00 be f7 8e cf be eb 63 18 be 43 e6 3f be
       -0.12567703 -0.4053876 -0.14881866 -0.18740182
000280 e3 6f a2 be 0e 35 ec 3d df 4d f4 3d 35 61 02 3f
       -0.31725988 0.11533557 0.11928915 0.50929576
000290 50 3b 78 3e 61 88 0c 3e 9a b9 b1 3d ed 96 7f 3d
       0.24241376 0.137239 0.08677979 0.062399793
0002a0 ca 70 71 3e 61 82 30 be 60 69 3e bd 53 75 89 3e
       0.23578182 -0.17237236 -0.046487212 0.26847324
0002b0 a0 5c ba bd 7e 66 3f 3e 10 66 7b be e9 7a 6f 3e
       -0.09099698 0.18691441 -0.24550653 0.2338673
0002c0 b6 38 9f 3e b5 04 6a 3d 36 10 4c be b4 cd 25 3e
       0.31097955 0.057133395 -0.19928059 0.16191751
0002d0 3d ea aa 3e 02 d0 64 be 0e ee 9b 3e 07 df 93 3f
       0.33381835 -0.22344974 0.3045506 1.1552438
0002e0 52 3a bc be 35 14 6b 3d 78 e3 4a be fa 23 56 bf
       -0.36763245 0.057392318 -0.19813335 -0.83648646
0002f0 b8 15 c4 be 23 76 ab be bc 2c 1c 3f 48 c1 e1 be
       -0.3829782 -0.3348857 0.6100576 -0.44092774

local_head.gconv.convs.<stroke___connected_to___stroke>.nn.0.bias f4 [16]
000000 19 22 b2 3e 7e 30 af bd 43 dd 7e 3e ba fd 19 be
       0.3479164 -0.08554171 0.24889092 -0.15038195
000010 88 9a 10 3e dc e5 6a 3e 30 08 c9 bd 50 32 b4 3e
       0.14121449 0.22939247 -0.09816015 0.35194635
000020 c8 57 a1 3e 58 8e bf bd 42 42 8e be a0 ff d4 bc
       0.31512284 -0.09353322 -0.27784926 -0.026000798
000030 3c 60 cb 3c 90 02 b3 3e 0a 15 89 bc 31 6d 53 3e
       0.024826162 0.34962893 -0.016733665 0.20647122

layers.0.mlp_edge_conv.gconv.convs.<stroke___ordered_next___stroke>.nn.0.weight f4 [32, 32]
000000 e1 62 b6 bd d2 7f 61 bd f9 7d e0 3d fa d2 f0 3d
       -0.089055784 -0.05505354 0.109615274 0.117589906
000010 4a cd 28 3c 00 ef 4b bd 29 ed 5c 3e 62 3c a8 3d
       0.010302851 -0.049788475 0.21574844 0.08214642
000020 b8 89 07 be 26 e9 82 bd 88 05 d3 bd 76 a1 35 3c
       -0.1323613 -0.06392126 -0.103037894 0.011085859
000030 9c f1 e8 3d c6 2f 7a bc 5f 2b 88 3b 0c c3 0c 3e
       0.11374208 -0.015270179 0.004155561 0.1374628
000040 b2 c9 9a 3d 58 3f 3e 3d 8c 71 dc bc d3 07 14 3e
       0.075580016 0.046447128 -0.026909612 0.1445611
000050 f1 46 00 3e 0a 06 c3 39 ea 53 0b 3f 35 7e a4 3d
       0.12527062 0.00037197798 0.5442492 0.080318846
000060 2d af ef 3d 26 6d d8 3d b1 e9 09 3e 81 38 85 bd
       0.11703334 0.105676934 0.13468052 -0.06504918
000070 13 52 a8 bd 59 f7 3b 3e cd 5b 55 3f 4e e8 9b 3d
       -0.082187794 0.18356074 0.833432 0.07612668
000080 9c 4e 15 3d 10 20 02 bc e6 3c 28 be de cc b0 bd
       0.03645192 -0.007942215 -0.16429481 -0.08632825
000090 33 c5 36 bd 18 a9 0a be f5 58 cc bd 87 e8 cb bc
       -0.044621658 -0.13541067 -0.09977905 -0.024891151
0000a0 91 d9 f2 3d 02 a9 22 be 08 02 87 3d e4 d9 d3 bd
       0.11857904 -0.15884784 0.06592184 -0.10344294
0000b0 77 dc 2a be 9c 9b aa 3c 3d eb 61 3d 56 ae 9b bd
       -0.16685663 0.020826153 0.05515598 -0.07601611
0000c0 aa 6d 0e 3e 4e dd 1e be 6a dd 35 bd 1c 08 0c 3d
       0.13909021 -0.15514109 -0.04440061 0.03418742
0000d0 54 dd 71 3d dc 86 b3 3c 7c 43 45 bf 43 a5 4b 3d
       0.059048966 0.021914892 -0.770561 0.049718153
0000e0 10 76 83 3d 0b e3 e4 bd 65 fa 2d 3e 06 c1 08 bc
       0.06419003 -0.111761175 0.16990049 -0.008346802
0000f0 12 b1 a9 3d 8c 5b 83 bd 57 2e 31 bf d4 96 7d 3d
       0.082857266 -0.064139456 -0.69211334 0.06191142
000100 8f 9c 12 be 3a 94 0e be f6 3b 6a 3d 9e 51 c5 3d
       -0.14317535 -0.13923731 0.05718609 0.09634708
000110 e6 7d 4f 3d d5 8c cf 3d 5a ef 5c 3e 8a 47 8e bd
       0.050657175 0.101342835 0.2157568 -0.06947239
000120 44 af 17 be 42 2c c2 bd 80 cb d7 ba 7c 3f 26 be
       -0.14812952 -0.09481098 -0.0016463846 -0.16235155
000130 2b 20 67 3e 5c 63 c0 bd 23 f4 ed 3d 4e 46 3f bc
       0.22570865 -0.09393951 0.11618831 -0.011674477
000140 67 5f e2 bd 55 d2 c8 bd 21 95 73 bb 48 36 50 bd
       -0.11053353 -0.09805743 -0.0037167745 -0.050833017
000150 f0 82 8c 3d 6f b2 bf bd a0 49 c9 3e 3c 83 ac 3b
       0.06860912 -0.093602054 0.39313984 0.005264668
000160 c0 35 35 3d 6f 0a 21 be 94 75 0f be a4 b4 cb bd
       0.044240713 -0.15726636 -0.14009696 -0.09946564
000170 24 e2 87 bf d6 9f 5b be 71 ef 95 3f 75 93 79 be
       -1.0615888 -0.21447691 1.1713697 -0.24372657
000180 bc d0 17 3e 07 c7 9c bd 00 3c 0d be 16 69 21 be
       0.1482572 -0.07655149 -0.1379242 -0.15762743
000190 f8 6f d4 bd 95 6f 40 3c af 0e aa 3d ac ed 54 3a
       -0.10372919 0.011745353 0.08303582 0.0008122574
0001a0 ce 83 01 3e 7c e9 26 be b8 e0 69 3d 39 e4 2d be
       0.12647936 -0.16300005 0.057099074 -0.16981591
0001b0 c5 4d e2 3d 0e 1b 58 bc b1 34 9e 3e 3e 62 cc bd
       0.110499896 -0.013190044 0.30899575 -0.09979676
0001c0 ed 72 de 3e 2b a8 33 be c8 60 df 3e e4 f1 37 bd
       0.43447056 -0.1754462 0.43628526 -0.04490842
0001d0 82 80 a9 3e 94 b1 ee 3e 55 c4 7a 3e 54 32 84 3e
       0.33105856 0.46619856 0.24488957 0.25819647
0001e0 87 96 de 3e 0c ab 30 be 48 3c 08 be 8c 52 1e 3e
       0.43474218 -0.17252749 -0.13304245 0.15461177
0001f0 a4 d7 36 3f 2f 6a da 3e 79 1a 9b 3e 9b 37 11 3f
       0.7142279 0.42659137 0.30293635 0.5672547
000200 a2 b8 75 3d 88 90 5c bd 81 1f 9b bd 40 8d 91 3c
       0.059990533 -0.053848773 -0.07574368 0.017767549
000210 be 61 7c bd df fe c5 bd 4e 13 a3 3d bc ec 63 3c
       -0.06161665 -0.096677534 0.079626665 0.013911422
000220 c8 db 45 be 97 85 99 bd fd a8 ce bd 29 67 88 bd
       -0.19322121 -0.07496183 -0.10090826 -0.06660301
000230 1c f1 bf 3e bf 99 bb bd 71 3b 50 3e bc d3 a5 bd
       0.3748864 -0.09160184 0.20335175 -0.08097026
000240 05 1d 91 bd a7 94 00 3e 08 63 8d bd f2 1f c4 3d
       -0.07085613 0.12556706 -0.06903654 0.095764056
000250 12 86 09 be be 82 d3 bc 28 e1 f0 3e 47 bf 51 be
       -0.1343005 -0.025819179 0.4704678 -0.20483123
000260 cd fd 90 be 16 77 bb 3d 74 4e 11 3d 43 94 49 3d
       -0.28318635 0.09153573 0.03547521 0.04921366
000270 42 76 05 bf 17 44 8c be b0 48 75 3f fc 21 bd be
       -0.5213357 -0.27395698 0.9581404 -0.3693999
000280 30 ac f6 bd 68 0c 19 bd 1e ae 4b be 17 f0 e0 bd
       -0.12044561 -0.037365347 -0.19890639 -0.109832935
000290 41 f1 7d be a5 33 cf bc 8c 25 fe 3d de b5 83 be
       -0.24799062 -0.02529318 0.12409505 -0.2572469
0002a0 75 c9 55 3c f4 e6 e2 bd b3 0f 33 be 37 31 29 be
       0.013048519 -0.11079207 -0.17486458 -0.1652268
0002b0 b4 fb ac bd 79 b8 2b be 2a 42 c7 bd 8d 46 72 be
       -0.08446446 -0.1676959 -0.09729417 -0.23659725
0002c0 5f 0a 81 3d b0 c3 36 bc bf a0 07 bd 1c e1 06 3d
       0.06300806 -0.011155054 -0.033112284 0.032929525
0002d0 24 d9 32 3e ac 3d 20 3e f1 94 00 3f b5 e7 7d 3e
       0.17465645 0.15648526 0.50227267 0.2479542
0002e0 53 b6 1e 3e 80 e7 59 bc dd 5c 2e 3e 9f 97 ee bb
       0.15499239 -0.013299823 0.17027612 -0.0072812582
0002f0 32 8b 6a 3e 1c cc 1e 3e d4 6a ae 3e 6c 7c 7d 3e
       0.22904661 0.15507549 0.34065878 0.24754494
000300 38 fd 34 bd 8a 67 eb bd 6d 79 b0 bd 57 1b 15 be
       -0.0441868 -0.11494358 -0.0861691 -0.1456121
000310 f0 0f 5f 3c ea 22 de 3d 20 2c 6e bc 57 ee 12 3e
       0.01361464 0.10846503 -0.014536887 0.14348732
000320 d0 3a 10 bd 78 07 82 3d b8 54 ec bc 39 38 11 3e
       -0.035212338 0.06349081 -0.02884899 0.14181603
000330 02 94 e5 bd 75 eb 2f be b9 67 13 3e d6 3a 9c 3d
       -0.11209871 -0.17179663 0.14395036 0.076284096
000340 bc 5d 1b 3d 80 08 2f be 42 1b 84 3d 70 a3 0f 3d
       0.03793119 -0.17093086 0.064505115 0.035067976
000350 92 39 fc 3d 6b e7 25 be 08 8c d4 bd 80 c4 bd 3a
       0.12315668 -0.1620156 -0.10378271 0.0014478117
000360 2c 79 bb bd f0 be c0 bd 66 ff 10 be 12 dc 77 bd
       -0.09153971 -0.094114184 -0.14159927 -0.06051261
000370 31 55 14 be 88 c9 ef 3c d7 38 08 3e 7e 66 e8 3d
       -0.14485623 0.029270902 0.13302933 0.11347674
000380 df 55 47 3e f8 12 a3 3c 6c 72 46 3e 78 8f 05 3d
       0.19466351 0.019906506 0.19379586 0.032607526
000390 86 58 2b bd 35 95 f3 bd 6c 88 96 bd cf b8 c8 3d
       -0.04183247 -0.11893693 -0.07350239 0.098008744
0003a0 28 03 4a bd 01 56 2e 3e 00 7b ae bb fb e3 e4 bd
       -0.049319416 0.17024995 -0.0053247213 -0.11176296
0003b0 4c 9a 33 be 10 df a0 3a 40 57 b7 3b 9f 80 30 3d
       -0.17539328 0.0012273509 0.005595118 0.043091413
0003c0 82 fa bf bd 80 8d 55 bb 09 a0 ce 3d 15 a9 2b 3e
       -0.093739524 -0.0032585561 0.10089118 0.16763718
0003d0 37 4d 1b 3e 21 f3 05 be 0a f0 cf be 7d a7 aa bd
       0.15166174 -0.13081028 -0.40612823 -0.08332727
0003e0 3b c6 20 3e 00 5c 3e ba 02 96 b0 3d 21 9e 2c 3e
       0.15700619 -0.0007261634 0.08622362 0.16857196
0003f0 f8 61 be 3d 1e 5c 28 be c3 96 18 bf fe 85 9e 3d
       0.0929603 -0.1644139 -0.59605044 0.07740401

layers.0.mlp_edge_conv.gconv.convs.<stroke___ordered_next___stroke>.nn.0.bias f4 [32]
000000 0d a0 3f 3e 8a c3 06 be 4c e5 85 3e 49 c5 8e 3e
       0.18713398 -0.1316053 0.26151502 0.27884892
000010 44 70 83 3e cb cd 89 3c 03 f1 34 be be 67 a4 3d
       0.2567159 0.016821763 -0.17670064 0.080276
000020 63 ef 78 bd 9a db dc 3d 16 28 67 3e 5c 3b 85 be
       -0.060775172 0.10784073 0.22573885 -0.2602185
000030 ec a9 c4 3e 44 fd 33 be 6c 8f f3 3c ce 70 8c bd
       0.3841089 -0.17577082 0.029731475 -0.06857453
000040 2b 29 42 be ef e1 95 3d a4 bd bf 3c d0 cb 89 3d
       -0.18961017 0.07318484 0.023405857 0.06728327
000050 9e 72 a6 3e bf 26 bc 3e 3d 55 21 bd 45 8d 36 3e
       0.3250932 0.3674831 -0.03938793 0.17827328
000060 f4 bb 0b bd 47 46 45 3e 4d 32 46 bd e3 c8 6d be
       -0.034114793 0.1926509 -0.048387814 -0.23221163
000070 e0 81 36 be 37 cd 9b 3e 4d 61 6e 3e 6c fe 4f 3d
       -0.17822981 0.30430004 0.23279305 0.050779745

layers.0.mlp_edge_conv.gconv.convs.<stroke___connected_to___stroke>.nn.0.weight f4 [32, 32]
000000 2e ae b8 be 6e 0c a1 3d 20 eb a7 bd 20 91 46 bc
       -0.3607039 0.07863699 -0.081991434 -0.012119561
000010 26 cc b0 be 04 f7 b5 be 2c a9 f8 bd 17 38 60 be
       -0.34530753 -0.3554002 -0.12141642 -0.21896397
000020 c0 d4 fd bd 71 ab 06 3e 8a 7a ae 3d 80 66 a1 3a
       -0.123940945 0.13151337 0.08519466 0.0012313873
000030 89 75 49 be c8 a4 81 be c4 da e2 bc 49 32 74 be
       -0.19673742 -0.2532103 -0.027692206 -0.23847307
000040 65 85 29 3e 80 46 df bd 84 64 17 3d 52 dc e4 3d
       0.16554792 -0.10902119 0.036961094 0.11174835
000050 bd dd 53 3d 0c 4a 82 3d 73 11 74 be 03 57 93 bb
       0.051725138 0.063617796 -0.23834781 -0.0044964566
000060 79 a3 5a 3e b2 2f fb bd de 9f 00 be e6 3d 78 bd
       0.21351422 -0.122649565 -0.12560984 -0.060605906
000070 57 18 08 be 00 d3 24 3e 66 26 4b bf 1f 73 b1 bd
       -0.13290535 0.16096115 -0.79355466 -0.08664536
000080 67 61 05 3e 88 40 e8 bd e2 ee c9 3d 30 66 44 3d
       0.13025437 -0.11340433 0.098600164 0.047949016
000090 78 9a 3a 3e 07 e9 d8 bd 2c 14 e0 bd a6 e1 d3 bb
       0.18222988 -0.105913214 -0.109413475 -0.0064661084
0000a0 a8 2d e5 3d 64 87 68 3d 53 38 9c bd 9a e6 0a 3e
       0.11190349 0.056769744 -0.076279305 0.1356453
0000b0 1e cc 65 3a b8 50 02 3e 94 9b 4a bd f1 77 52 3e
       0.00087660726 0.12726104 -0.049464777 0.20553567
0000c0 8e 21 1d 3e 07 2e 9e bd 99 bf df 3d 8b 75 11 3e
       0.15344831 -0.07723623 0.10925216 0.14204995
0000d0 4d 52 a6 bd a4 f5 63 3e 89 e0 6a 3f 8a 82 b6 bc
       -0.081211664 0.22261673 0.91748863 -0.022279043
0000e0 60 b4 11 3d b8 5e cd bc de 96 33 be b7 14 a6 bd
       0.03557241 -0.02506958 -0.1753802 -0.0810942
0000f0 9c 8c 71 3d 24 6a 13 3e e3 fb 81 3f c1 b1 73 3e
       0.058971986 0.14395958 1.0154995 0.23798276
000100 47 ee 2f be 32 1c ff bd 05 fb c5 3d b0 24 26 bd
       -0.1718074 -0.1245655 0.09667019 -0.04056233
000110 d6 44 10 3e e7 ab f2 3d 1e 4b db bd d0 66 80 3d
       0.14088759 0.11849194 -0.10707687 0.0626961
000120 d4 a7 14 bc 5a 2c a0 3d 5e b9 e3 3d 3a a1 4f 3d
       -0.0090732165 0.078209594 0.1111934 0.050690867
000130 3f f3 6c 3d a2 aa d5 3d c0 64 1f be c6 57 e7 bd
       0.057849165 0.10432936 -0.15565777 -0.11296038
000140 c4 12 b6 3c dc d7 2d be 7a 57 09 bd 30 66 79 3d
       0.022225745 -0.16976875 -0.03353069 0.06088847
000150 2a d3 a7 bd a0 7c 06 3e 21 64 c1 be 07 fa e9 bd
       -0.08194573 0.13133478 -0.37771705 -0.11424642
000160 9f fb 3e 3d e8 77 4c bd af de 06 3e e5 1a 64 bd
       0.046626683 -0.04991904 0.13170885 -0.05568971
000170 82 9a f0 be 07 e1 27 3d 53 05 b0 3c 68 3a 16 be
       -0.4699288 0.040986087 0.021486914 -0.14670718
000180 5c 95 50 bb c8 62 93 bc 4e 7f 4f bd d8 ae 1e be
       -0.0031827306 -0.017991439 -0.050658517 -0.15496385
000190 a6 2e 23 bd ed 74 fe bd af 2d d2 bd 04 50 0e be
       -0.03983941 -0.124246456 -0.1026262 -0.13897711
0001a0 cf 02 d3 3d 3c 4a 1d 3d de 29 b4 bd 04 10 17 be
       0.1030327 0.038400874 -0.08797048 -0.14752203
0001b0 0d b1 a3 3c a1 4b 42 bd 8b b3 b8 3d e3 81 5d bd
       0.019981885 -0.047435407 0.0901862 -0.054078948
0001c0 f7 b8 9f 3c 68 92 c7 3c 06 e0 4b be ab 8b 0d 3e
       0.019497378 0.024361804 -0.19909677 0.1382281
0001d0 4f 39 9a 3d b1 3b 23 be 54 2e 29 bf 19 ff 56 be
       0.07530462 -0.15940739 -0.66086316 -0.2099575
0001e0 0d 81 b5 bd 8c e3 3c bd 12 f3 e4 3d 07 9d 0a bd
       -0.08862505 -0.046115443 0.111791745 -0.03384116
0001f0 c1 7a 66 3c c5 df 41 be bd 2c 61 bf f3 6c 96 3d
       0.014067353 -0.18933018 -0.8795889 0.07344999
000200 ae be 28 be bd 33 12 3e 8e 13 4b 3d 15 41 2c 3e
       -0.16478989 0.14277549 0.049579196 0.16821702
000210 da 5a 08 be 6b 2d 6d bd 51 c0 0c 3e 7f 7e 18 3d
       -0.13315907 -0.057904642 0.13745238 0.03723001
000220 59 7b ae bd db 17 1c 3e 9d 36 2a 3e 1c e0 7c bd
       -0.085196204 0.15243475 0.16622396 -0.061737165
000230 8c 3f f3 bc 8c 07 34 be 31 49 d8 bd 44 3c bf bd
       -0.029693387 -0.17581004 -0.10560835 -0.09337667
000240 16 21 05 bd 49 8b 23 3e 4c 7a 88 3d 60 85 3e bd
       -0.032502256 0.15971102 0.06663951 -0.046513915
000250 6b 39 27 3e 24 6f 35 be 67 63 01 3e d0 4b a9 3d
       0.16330497 -0.17718178 0.12635575 0.08266413
000260 24 f6 83 bd 97 ef 04 3e 10 e7 18 bd c1 09 18 3e
       -0.06443432 0.12982021 -0.037329733 0.14847471
000270 d8 3b ca bd a0 b4 a3 bd 69 49 75 3d 7f 9c de 3d
       -0.098746955 -0.07993436 0.059884463 0.10869693
000280 20 e1 08 be e8 93 91 3d 72 16 ea 3d 00 c6 6b bc
       -0.13367128 0.07108289 0.11430062 -0.014390469
000290 e1 c2 74 3d bd e5 51 3d 69 a9 17 be 0f a7 d8 bc
       0.059756164 0.051244486 -0.14810719 -0.026446847
0002a0 b4 04 66 3d 98 f0 79 3d c7 48 e5 bd f8 db a6 bd
       0.05615683 0.061020464 -0.11195522 -0.081474245
0002b0 8e b9 42 3d 47 5b 01 3e 3e 10 c0 3d ca 7b cf bd
       0.04754024 0.12632476 0.09378098 -0.10131033
0002c0 21 51 1d be e0 c1 0c bc ca 5c 1c be 9c 57 de bd
       -0.1536298 -0.008591145 -0.15269771 -0.10856554
0002d0 2d f2 7c 3d 28 fd c5 bd a2 36 3f bf b6 7e 07 bc
       0.061754394 -0.09667426 -0.7469274 -0.008269956
0002e0 e8 52 08 bd 99 b3 12 3e ec cb 72 bd 98 9f 1b be
       -0.03328219 0.14326324 -0.059276506 -0.15197599
0002f0 e1 2e 6d be 3e a6 4b 3d 70 ad fd be a5 0a 83 bc
       -0.23162414 0.049719088 -0.49546385 -0.015996287
000300 7a 2e 17 3e e4 51 0e be 6d 11 8f 3d ae 24 d8 3d
       0.14763823 -0.13898426 0.069857456 0.10553871
000310 20 f3 75 bd 69 93 7a 3d 56 6c d4 3d 9d 7e 00 3e
       -0.060046315 0.061175738 0.10372226 0.12548299
000320 58 98 cb bb cf b1 d6 bd a0 18 a5 3b 53 f8 14 be
       -0.006213229 -0.10483133 0.005038336 -0.14547853
000330 63 e7 fa 3c 65 90 25 be 8b 69 6f bc c3 91 63 3d
       0.030627912 -0.16168363 -0.014612566 0.05555893
000340 7d 1a 26 be 80 bc 37 3c f8 69 24 be b0 fe c8 3c
       -0.16221042 0.0112143755 -0.16056049 0.024535507
000350 a4 fa e5 3d 3e 1d be 3d 9d c4 27 bf b3 80 09 3e
       0.112294465 0.09282921 -0.65534383 0.13428001
000360 86 67 87 3d 70 b1 27 bc 40 93 48 bc e1 cc 32 be
       0.066115424 -0.0102351755 -0.012242138 -0.17460968
000370 71 7d 2e be c1 23 18 be f0 9f 3c bf 05 9f 60 bd
       -0.1704004 -0.14857389 -0.73681545 -0.054839153
000380 92 17 e5 bd fb d6 09 be 32 0f 7d bc 21 26 26 be
       -0.11186136 -0.13460915 -0.015445517 -0.16225483
000390 00 d3 ac bb 10 e0 2c 3b 24 3e 49 3e 6d 06 a6 3d
       -0.0052741766 0.002637867 0.19652611 0.08106694
0003a0 5d 8d 9b 3d c0 1a 46 bc fe d7 79 bd e7 aa ff 3d
       0.07595322 -0.012091339 -0.060997 0.12483769
0003b0 a2 67 64 3e 7b 5c ba 3d 37 d1 3d 3d d3 f1 72 bd
       0.22305158 0.090996705 0.0463421 -0.059312653
0003c0 67 7a 2b 3d ea 65 d6 3d 05 87 0c 3e 2e c6 97 3d
       0.04186478 0.10468657 0.13723381 0.07410847
0003d0 74 33 c1 bb d9 94 a4 3d 41 e6 74 3e 49 7a b1 bd
       -0.0058960263 0.08036203 0.2391596 -0.08665902
0003e0 d4 5a 32 3e da dd de 3d fc 0c ae bd 0b f0 01 be
       0.1741746 0.108821586 -0.0849857 -0.12689225
0003f0 5e 10 20 be 23 11 ee bc 2a 37 9d 3e 69 de 1d 3e
       -0.15631244 -0.029060906 0.3070615 0.15416874

layers.0.mlp_edge_conv.gconv.convs.<stroke___connected_to___stroke>.nn.0.bias f4 [32]
000000 6b 80 08 be c4 4f cb 3d 86 20 0c bb b0 64 1d be
       -0.13330238 0.099273235 -0.002138169 -0.1537044
000010 88 8b 80 3c 4d c6 63 be f0 4d b6 bd 4c 4d 56 3d
       0.015691534 -0.22243614 -0.08901584 0.05231981
000020 db 04 21 3e 99 89 33 be 1c d3 f5 bd 9a b9 7f 3d
       0.15724508 -0.17532958 -0.120031565 0.062432863
000030 19 ce 2d be d7 5d 9d 3d 0e ad 49 be 24 a7 f2 3d
       -0.16973151 0.07683914 -0.19694921 0.11848286
000040 44 fb 30 bd c9 a6 89 3d cf 38 a8 3e 62 16 f1 bc
       -0.043208376 0.06721265 0.32855842 -0.029429618
000050 89 2a 4b bd 1b 4b 4b be cc 95 3b 3e 72 8e d5 bd
       -0.04960111 -0.19852869 0.18318862 -0.1042756
000060 49 84 14 3d e1 e7 17 be 12 bf 37 3e 6b 73 f5 3d
       0.03625897 -0.14834549 0.17943981 0.11984905
000070 ca be a7 3d c5 e9 49 3d ff 60 1a be 3d 9e 57 bd
       0.08190687 0.049295206 -0.15076064 -0.052641142

layers.0.projection.weight f4 [32, 16]
000000 be 9d 7a be 70 42 ba bd 31 93 1b be d0 9d e1 bc
       -0.24474236 -0.09094703 -0.15192868 -0.027541071
000010 7e c2 39 3d e4 61 1b be 75 79 e0 bd 74 fd f6 bd
       0.045351498 -0.15174061 -0.10960666 -0.12060061
000020 90 63 25 3e e0 f7 10 bc 8e d8 7b be 38 0e 52 3d
       0.16151261 -0.0088481605 -0.24594328 0.05128309
000030 71 98 ad 3e 8f fb 61 bd 25 62 ff bd ee f8 b6 3b
       0.33905366 -0.055171546 -0.124698915 0.005583874
000040 45 be 67 be e6 6b 4e be ce 4e 8a bd 6c c2 34 be
       -0.22631176 -0.20158347 -0.06753312 -0.17652291
000050 1f c7 03 be 55 16 13 be 84 37 15 bc f6 30 22 bd
       -0.12868927 -0.14363988 -0.009107474 -0.039597474
000060 8a 01 ca bc 40 bf 6f bd da f7 10 be d6 41 e8 bd
       -0.024658937 -0.058532 -0.14157048 -0.11340682
000070 e4 03 25 3e 2a f7 95 3c c1 32 82 be ae 5d 57 be
       0.16114765 0.018306334 -0.25429347 -0.2103183
000080 07 8a 97 be 68 8e 61 bd 4e 60 70 be fe 9e 46 be
       -0.29597494 -0.05506745 -0.23474237 -0.19396588
000090 9d 4e 00 bd 30 be 08 3e 8c 89 26 3e 16 fa 95 bd
       -0.03132497 0.13353801 0.16263407 -0.07323091
0000a0 35 dd 8e bd 02 e0 7c be e0 b7 cc 3c 9f f6 9c bd
       -0.06975786 -0.24694827 0.024990022 -0.07664227
0000b0 37 5c b2 bd 33 28 2b 3e 04 23 25 bd 7a 77 d6 bd
       -0.08708995 0.16714554 -0.040316597 -0.10472007
0000c0 99 35 52 be 10 15 7a 3e 6e 59 81 3d 4c 7a 0a be
       -0.20528258 0.24422097 0.063158855 -0.13523215
0000d0 7a 78 98 be d8 7d f5 3d 81 40 e4 bd 64 f7 0a 3d
       -0.29779416 0.119868934 -0.11145116 0.033927336
0000e0 f1 27 c7 3d 08 ad 5f bd 2a 4c 20 be 5f 80 21 3d
       0.09724415 -0.054608375 -0.15654054 0.039429065
0000f0 27 bc 3a 3e 4d e7 9e bd 1e 66 49 be 11 fa 2e be
       0.18235837 -0.07758961 -0.19667861 -0.1708758
000100 b2 bc 3b 3e 20 3a 27 3e 10 fb f0 3d 30 de 30 be
       0.183337 0.16330767 0.11766636 -0.17272258
000110 9f 92 46 be 31 46 57 be df e6 fd bc c3 bf ce bd
       -0.19391869 -0.2102287 -0.030993877 -0.100951694
000120 3e 78 6d be 50 64 c6 3c 6e a5 71 3e f3 9a 0a be
       -0.231904 0.024217755 0.23598263 -0.13535671
000130 20 df ba 3d a5 8f d3 3d 03 32 0d bd 12 9f 9d 3d
       0.09124589 0.103301324 -0.034471523 0.07696356
000140 99 38 21 be 7e 4d 73 3e 08 9b bc 3b e8 5f e6 bd
       -0.15744247 0.2376003 0.005755786 -0.112487614
000150 a6 03 4d bc 39 ae 62 be bd 3c 00 be 78 f4 8b be
       -0.012513077 -0.22136773 -0.1252317 -0.27334952
000160 90 bc 8c be 98 3c 89 bd 84 96 b3 3d db 31 43 bc
       -0.27487612 -0.067010105 0.08768943 -0.011913742
000170 64 4e 40 3e 0c d3 39 be 7e bb e8 bd 9d ce 70 be
       0.18779904 -0.18146914 -0.11363886 -0.23516317
000180 2b de 3b 3d 88 89 1c be 71 bf 13 3e d0 d0 40 bd
       0.045866173 -0.15286839 0.14428498 -0.04707414
000190 55 d9 36 be d5 a1 9a 3d bd 89 7c bc 7b 2c 4d 3e
       -0.17856343 0.07550398 -0.015413699 0.20036499
0001a0 10 1a 35 be da 58 08 3e 52 01 58 3e 0c d2 b5 bd
       -0.17685723 0.13315144 0.21094254 -0.08877954
0001b0 d8 45 9e bd 23 bf 3a 3d c4 39 31 bd 6f ca 8b 3d
       -0.077281654 0.04559244 -0.04326798 0.068257205
0001c0 41 c4 76 3e c0 37 be 3b 97 2d 4c 3e 96 85 14 be
       0.24098302 0.0058049858 0.19939266 -0.14504084
0001d0 ef 90 4e 3e 95 ed 41 3e 5d 33 00 be 1a 74 86 3d
       0.20172475 0.18938287 -0.12519594 0.06565113
0001e0 c0 11 41 3e a0 1d f3 bc 80 6f e0 3d 3f 7a 08 3e
       0.18854427 -0.029677212 0.10958767 0.13327883
0001f0 25 3f 66 be 7e e0 2d 3e 93 47 8a be a7 4b 3a be
       -0.22485025 0.16980168 -0.27007732 -0.18192922
000200 5d 30 b8 3e b4 d3 2d be 2f c4 a2 3e 68 cb 29 3d
       0.35974398 -0.1697529 0.317903 0.04145375
000210 8a 51 35 3e cd 56 7b 3e 7c 72 d3 3c 6b 87 47 3e
       0.17706886 0.2454483 0.025811426 0.19485252
000220 f3 15 11 3e ee 1c 6f 3e 38 47 44 3d 07 a7 7c 3d
       0.14168529 0.2335088 0.047919482 0.061682727
000230 69 85 85 3c 55 1a 12 3e b2 ce 82 bc 02 b8 17 3e
       0.016298966 0.14267857 -0.0159677 0.14816287
000240 5c 36 54 3e 90 c2 59 3d 83 55 eb bd 00 fb 19 bd
       0.20723861 0.053164065 -0.114909194 -0.037592888
000250 29 88 3f be 2e 9b 37 be be 6b 16 3e e7 32 53 bb
       -0.18704285 -0.1793029 0.14689538 -0.0032226385
000260 6e f6 f3 3c f8 8c 56 3e 1e d6 43 3e e1 bf 00 be
       0.029780593 0.20952213 0.19124648 -0.12573196
000270 ca ce 50 be 0d 18 13 3e c6 92 21 3e 35 8c 0c 3e
       -0.20391384 0.14364643 0.15778646 0.1372536
000280 9a 50 e5 bd e0 51 44 3e b6 ed 8d bd 1c ee 2c 3e
       -0.11197014 0.19171858 -0.069301054 0.16887707
000290 a3 dc 91 be 93 30 d8 bd 13 3e 5a 3e 26 b1 8c be
       -0.28488645 -0.1055614 0.21312742 -0.27478904
0002a0 05 93 5b bd 70 21 88 3d 04 55 19 be a1 fd 72 3d
       -0.053607006 0.06647003 -0.14973837 0.05932391
0002b0 bb 0d 80 3e 92 83 65 bd 6b 39 86 bd 07 00 b6 bd
       0.25010476 -0.05603368 -0.0655392 -0.08886724
0002c0 08 09 4d 3e 66 33 39 3e 67 7e 89 3c 82 bd 34 be
       0.20022976 0.18086013 0.016783906 -0.17650416
0002d0 82 a8 5c 3e 83 a5 30 3e 7c 89 05 be b4 16 0d be
       0.21548656 0.17250638 -0.13040727 -0.13778192
0002e0 f4 2a 07 3e 76 47 4d be 50 79 54 3e 55 a0 ab bd
       0.13199979 -0.20046791 0.20749402 -0.0838019
0002f0 30 bc 9f be 2c f3 09 bd 14 bb 68 3d a2 dc 09 3e
       -0.31198263 -0.033679172 0.056819037 0.13463071
000300 b3 78 8e be 60 94 aa bc d4 35 39 3d 04 bb b4 bd
       -0.2782646 -0.020822704 0.04521735 -0.08824733
000310 90 7d b2 3d f1 e5 a1 3d 20 0b bd 3e 33 0c dd bd
       0.087153554 0.07905186 0.3692255 -0.107933424
000320 61 b3 4b be a8 17 37 3d 00 6d da ba 2b f4 01 be
       -0.19892646 0.044700295 -0.0016664565 -0.12690799
000330 51 d1 24 bb 30 5d e9 bd bc 93 b4 3e f6 0b 9b bc
       -0.0025149176 -0.11394727 0.35268962 -0.018926602
000340 8a 1a 69 be 9c 8f 04 be ec b9 89 3e 38 35 cc 3d
       -0.2276403 -0.12945408 0.2689966 0.09971088
000350 a2 91 40 bc 20 ff 30 3e a0 b1 dc 3d 7f 2e bd 3d
       -0.011753472 0.17284822 0.10776067 0.09237384
000360 b5 15 15 3e 80 44 a3 3b f4 f1 23 3e a6 61 0c be
       0.14559062 0.004982531 0.16010267 -0.13709125
000370 3c 25 69 bd ee 83 8a bc 25 0e 48 be d5 6b 76 3e
       -0.056920275 -0.016908612 -0.19536646 0.24064572
000380 09 4a 1b be 1c e7 2b 3e 34 49 da bc f0 77 e5 3d
       -0.15164961 0.1678738 -0.026646234 0.11204517
000390 e4 2b 62 be ff e4 54 bd ab 23 3d 3c 44 38 f3 3d
       -0.22087055 -0.0519762 0.011544148 0.11875966
0003a0 cc ed 6a be c0 fb 8c 3c 90 85 45 be ee 1a b5 bc
       -0.22942275 0.017209888 -0.19289231 -0.022107568
0003b0 cb 34 0a be 8b 11 08 3e fb 9e a4 bd 9c 95 fe 3d
       -0.13496701 0.13287942 -0.080381356 0.124308795
0003c0 ab dd b3 bd 20 7b 16 bd a3 7f 00 be 3c e3 12 3e
       -0.08782514 -0.036738515 -0.1254869 0.14344496
0003d0 93 5b 3c bd 3f 31 e4 3d 4d 74 8c 3c b1 be 27 3e
       -0.04598577 0.111422054 0.0171453 0.16381337
0003e0 b1 19 97 3d 68 5c 35 bd a2 41 51 3e 07 d3 11 bc
       0.07377947 -0.04427758 0.20435193 -0.0089004105
0003f0 b9 42 86 3e ad b5 61 bd ca de 0d 3e e9 8d 73 3d
       0.2622278 -0.0551049 0.13854519 0.059461508

layers.0.projection.bias f4 [32]
000000 25 07 96 3e b8 eb 27 be 63 ab 60 3d 5f 15 60 3d
       0.29302326 -0.16398513 0.054850947 0.05470788
000010 74 7c 7a 3e b3 c9 92 be 4e e6 a9 be 60 01 e8 bd
       0.24461538 -0.2866951 -0.3318352 -0.11328387
000020 0a d5 56 be 54 18 7c bb a7 2a 39 be 8b c0 e7 bd
       -0.20979705 -0.003846665 -0.18082677 -0.113160215
000030 47 bb 99 3e 2f ed e7 bd bd 2a b7 be b4 ca 1e 3e
       0.30025694 -0.11324536 -0.35774794 0.15507013
000040 85 57 e7 bc e2 95 94 be 6a 2a 3a be 30 97 74 bd
       -0.028239975 -0.29020602 -0.18180242 -0.059714496
000050 80 91 1e bd e5 e4 c2 3c b7 9d 03 3e 00 72 18 be
       -0.03871298 0.023790786 0.12853132 -0.14887238
000060 55 50 91 be 1f 86 15 3e 55 58 89 be dd aa dc 3c
       -0.283816 0.14601944 -0.26825204 0.026936943
000070 6f e9 42 be d1 77 74 bc 55 a6 b8 3e 13 2c a5 bd
       -0.1903436 -0.014921145 0.360644 -0.08065047

layers.1.mlp_edge_conv.gconv.convs.<stroke___ordered_next___stroke>.nn.0.weight f4 [64, 64]
000000 fa 45 99 be 1b e9 85 3d d4 8a 04 3d fa 9c bf 3c
       -0.299362 0.06538602 0.03235896 0.023390282
000010 03 c1 49 3d 1e 1c b1 3c 59 d9 19 3d af a7 32 3e
       0.049256336 0.021619853 0.037560795 0.17446779
000020 43 16 b0 3d 86 dc 81 bd 5f 85 48 be a4 b6 bf 3d
       0.08597996 -0.0634089 -0.19582127 0.09361008
000030 d9 6f 50 bd bf f3 e4 3d e1 7b f8 bd d6 91 8c 3d
       -0.050887916 0.111793034 -0.12133003 0.068637535
000040 8c 61 dc 3d 9e 9b 80 3e c7 cb f5 3d 2d 90 4c 3d
       0.10760793 0.25118726 0.12001758 0.049942184
000050 25 af d2 bd 15 37 96 3c 7e ea 33 3e 26 01 03 3e
       -0.102873124 0.018336812 0.1756992 0.12793407
000060 20 39 ed 3d 3f 06 b1 3d a5 02 24 3d 13 ed 5a 3e
       0.11583161 0.086437695 0.040041585 0.21379499
000070 40 d9 0a 3d 72 71 41 3b 51 e1 c0 be 23 82 95 3c
       0.033898592 0.0029517082 -0.37671903 0.01825053
000080 bb 9c 73 3e 17 9d 91 be 6e 77 a1 3c 26 3c d6 bd
       0.23790257 -0.28440163 0.019710269 -0.10460691
000090 c6 79 85 3e 5c b5 0d 3c e9 18 97 bc 72 e5 1f be
       0.26069468 0.0086491965 -0.018444495 -0.1561487
0000a0 c3 a0 b2 be 56 25 f4 bd de 37 53 3e ee e3 8d be
       -0.34888276 -0.11921184 0.2062678 -0.2771296
0000b0 51 fb 95 3d ad 98 09 be 45 39 ab 3d f1 14 c0 3c
       0.073233254 -0.13437147 0.08360533 0.023447486
0000c0 29 f4 cd 3e 2a 7f be 3d 13 89 96 be 90 e0 82 be
       0.40225342 0.09301598 -0.29401454 -0.25561953
0000d0 e1 1d 8b 3d 5f e6 ac 3d 94 01 d8 bd ff a4 ae bd
       0.06792808 0.08442377 -0.10547176 -0.08527564
0000e0 25 92 d6 bd bc 0b 0b be 27 b8 8a be b9 00 a2 bd
       -0.104770936 -0.13578695 -0.27093622 -0.07910294
0000f0 f7 6b 08 be b6 97 60 3e 58 ae 91 3e b3 68 2b be
       -0.13322435 0.21932873 0.28453326 -0.16739158
000100 58 d9 27 3e 13 64 b0 be 2a 06 9e 3d 16 bd 0b 3e
       0.16391504 -0.3445135 0.077160195 0.1364635
000110 2b 63 35 3e d1 49 aa bd 64 a3 5b be e6 21 a9 3d
       0.17713611 -0.083148606 -0.21449047 0.08258419
000120 42 9c 80 bd 3c 7b 0e 3e 7c b7 bb bd 2e f3 ae bd
       -0.06279804 0.13914198 -0.09165856 -0.085424766
000130 85 67 37 3e 05 0c 3b 3c 4e 77 e8 bd 30 c6 bb 3d
       0.17910583 0.01141644 -0.113508806 0.09168661
000140 2b 62 9e bd 29 4e 6d bd 0c 77 c4 bd 65 95 66 3e
       -0.07733568 -0.057935867 -0.09593019 0.22517927
000150 83 72 50 3c cb 9a 1e 3e 4f 36 94 3c e2 79 a9 be
       0.012722614 0.15488736 0.018092303 -0.33100802
000160 ab 91 3a be 43 69 96 bd 78 5a 21 be d6 df 17 be
       -0.1821963 -0.07344296 -0.15757167 -0.1483148
000170 dd 8f 2b 3e 62 e2 98 3d 16 cd 8d 3e 9b df 85 bd
       0.16754098 0.07465054 0.2769553 -0.0653679
000180 07 bc be 3d 5b 0b 1a 3d 79 fb 42 be 8a 06 7f 3e
       0.09313207 0.037608486 -0.19041242 0.24904838
000190 33 99 ab be ac 75 2a bd 53 67 96 3d 0d f6 00 be
       -0.3351532 -0.041616127 0.07343926 -0.12593861
0001a0 9c ad 6a be c7 ad 86 3e ce ac 79 3d f2 2c 90 3d
       -0.22917789 0.26304457 0.060955815 0.07039823
0001b0 9d b2 87 bd 51 4c 4d 3c 9e 64 1c 3d a8 51 c9 bd
       -0.06625865 0.012530402 0.038181894 -0.09830028
0001c0 c1 95 85 be 89 c4 6d be ed aa e6 3c 90 51 43 3e
       -0.26090816 -0.23219503 0.028157676 0.19074082
0001d0 2d 2c 9e be ed a1 ff be 9f 04 c0 3d d5 fe b7 3d
       -0.30893078 -0.49928227 0.093758814 0.08984152
0001e0 b0 3d d4 3d c9 d7 e3 3d b0 d1 6c 3d d9 bb ef 3c
       0.103633285 0.11125142 0.05781716 0.029264377
0001f0 af 83 48 3e e4 9a 8e be 75 c6 03 3e 1d f1 fb 3d
       0.19581483 -0.27852547 0.12868674 0.12301848
000200 b0 61 cd 3d a5 d9 f0 3d 1d b4 6c bd 3f 4e b4 3c
       0.10028398 0.117602624 -0.057788957 0.022009967
000210 d3 ad 94 bc 1d 8f 45 3e fc 83 a3 bc 37 e2 d9 bd
       -0.018149292 0.19292875 -0.019960396 -0.1063885
000220 0b 32 22 3c 63 7c 93 bc c2 ef fd 3d 72 d8 66 bd
       0.0098996265 -0.018003648 0.12399246 -0.056358762
000230 4d 9b f6 bd 0c f7 fe bd ac ec 89 3c 71 dc 03 bd
       -0.1204134 -0.12449464 0.016836487 -0.03219265
000240 40 2a 1d be 49 7a 1c 3e f2 a7 20 bb ae e9 41 3c
       -0.15348148 0.15281023 -0.0024514166 0.011835499
000250 31 78 0c 3d a4 22 62 be f6 d8 b0 bd 27 5e 26 3e
       0.03429431 -0.22083527 -0.08635132 0.16246854
000260 0d 75 47 3c d9 b1 43 3d 9b 7f 47 3e 6c 1a 2c 3d
       0.012173903 0.04777703 0.19482271 0.042017385
000270 a2 9d 45 3e 75 dc 7b 3c fb 77 0d be 0a 64 50 bd
       0.19298413 0.015372385 -0.138153 -0.050876655
000280 7d ac 0b be e2 62 a1 bc 34 6b 4b 3e f5 ab 00 bd
       -0.13640018 -0.019700471 0.19865113 -0.03141399
000290 fc 4c 7f 3c 28 92 3f be 7e 15 ce 3d 07 81 9d 3d
       0.015582319 -0.18708098 0.10062693 0.07690626
0002a0 9c 8d 51 3e 87 8f 9f 3e 07 88 89 be 54 0e 8b 3e
       0.20464176 0.3116419 -0.26861593 0.2715937
0002b0 30 ca ea bc f2 18 71 3e b4 f1 28 3e 4f c3 53 3e
       -0.028660864 0.23544672 0.16498452 0.20679973
0002c0 91 11 d0 3e 7b 86 09 3d c7 fb e8 3e dc 9c c8 3e
       0.40638402 0.033575516 0.4550459 0.39182174
0002d0 0c a0 1c be 89 87 af 3e 79 44 7e 3e 49 d9 51 3e
       -0.15295428 0.34283093 0.24830808 0.20493044
0002e0 b3 ee 0e 3e 54 42 1f 3e 5a 0a 7a 3d b2 64 52 3e
       0.13958244 0.15552646 0.06104503 0.20546225
0002f0 51 70 b8 3c 58 47 b7 bd 51 ec 8a bd 7d ca 19 3e
       0.022514494 -0.089491546 -0.06783355 0.1501865
000300 65 41 07 bd fc 2d 14 3d 3e 72 07 be e6 8d 2d 3e
       -0.03302135 0.036176667 -0.13227174 0.16948661
000310 0b c3 a2 3c 43 61 8c 3d ef 3b ef bc 47 e6 94 bd
       0.019868394 0.06854489 -0.029203383 -0.072704844
000320 5c 39 8e 3d 6f 1e 21 3e 1c 03 ba 3d bf 43 0c 3d
       0.06944534 0.15734266 0.09082624 0.034244295
000330 f5 94 19 be ce 1d 5a bc 50 3e 32 bd 09 b7 e3 3d
       -0.14998229 -0.01331277 -0.043516457 0.111188956
000340 63 f1 85 bd ad 45 95 39 22 e3 7c bb 5d 6d 31 3e
       -0.065401815 0.00028471407 -0.003858753 0.17326875
000350 7f 8a e3 bd b0 b2 1a bd db e5 ab 3d 22 e8 ba 3d
       -0.111104004 -0.037768066 0.08393451 0.09126307
000360 13 5b 42 3e 23 e6 a5 3d b0 38 55 3d 65 8b cb 3d
       0.18980055 0.08100536 0.052056015 0.09938697
000370 a9 4a 57 3c a0 b7 54 be 41 e0 09 3e 65 28 82 bd
       0.013140359 -0.20773172 0.13464452 -0.06355361
000380 03 9e b6 bd 53 df 2c 3e f9 49 38 bd c5 e1 80 bd
       -0.08916857 0.16882066 -0.04499242 -0.06293062
000390 a1 b6 4b be fb 7a 10 be 22 a5 0d 3d 04 f4 5b 3d
       -0.19893886 -0.14109413 0.03458131 0.05369951
0003a0 d0 a2 ba 3e 27 57 0f 3d 31 97 cc bd 29 9e 1c 3e
       0.3645234 0.034995224 -0.09989775 0.15294708
0003b0 2f a4 ce bd 60 08 e8 bd 1c 3d 7b bd 69 ff 16 bd
       -0.10089909 -0.113297224 -0.061337575 -0.03686467
0003c0 f1 c9 e4 3d cd 4e c5 bd e0 2d 51 3e d7 e3 9c 3d
       0.1117133 -0.09634171 0.20427656 0.076606445
0003d0 9c b7 b4 be 6f 86 a5 3d 72 7d f1 3d 36 c6 c1 3d
       -0.35296333 0.08082282 0.11791505 0.09461634
0003e0 76 15 94 3d 93 9d 9f 3e 78 12 14 bc fa b9 54 3e
       0.07230656 0.31174907 -0.009037606 0.2077407
0003f0 ab b5 24 3d a5 0a b8 be f2 5d 34 bd 28 0f 26 3c
       0.040212315 -0.3594562 -0.044034906 0.0101354495

layers.1.mlp_edge_conv.gconv.convs.<stroke___ordered_next___stroke>.nn.0.bias f4 [64]
000000 2c 52 a6 bd 2b 21 2a 3e 2a c7 81 bd b3 34 38 3e
       -0.08121142 0.16614215 -0.06336816 0.17988853
000010 b6 34 a2 3d 57 aa 4b bd 78 51 01 3a 9d 06 78 3e
       0.0792021 -0.049722996 0.0004933099 0.24221273
000020 80 71 9e bd b1 d0 08 be 45 70 f3 bd 0d b4 b8 3d
       -0.07736492 -0.1336086 -0.11886648 0.09018717
000030 40 bf 55 3e 10 ea 3f 3e 53 1b 06 bc a9 92 57 be
       0.20873737 0.18741632 -0.008185226 -0.2105204
000040 20 87 10 3e 8f fa f0 bd 68 29 68 be 3b 97 a9 3c
       0.14114046 -0.1176654 -0.22672045 0.020701995
000050 95 d0 b8 3d fa 67 c7 3d c0 64 39 3e f2 7c 8a bd
       0.09024159 0.09736629 0.1810484 -0.06762113
000060 88 8f a4 3c f6 b5 64 3d 56 c5 43 bd 00 f0 9c bd
       0.020087972 0.055837594 -0.047795616 -0.07662964
000070 89 11 04 be 21 a5 83 3e e6 82 87 bd 53 5c 4d 3c
       -0.12897314 0.2571192 -0.06616764 0.012534219
000080 2f e0 39 be a4 d5 5f bc d6 99 29 bd 84 76 2e 3c
       -0.18151926 -0.013661776 -0.041406475 0.0106483735
000090 ba b6 36 bd b8 37 05 be 51 82 b3 bd 8f 64 81 bd
       -0.044607855 -0.13009536 -0.0876509 -0.06318008
0000a0 81 05 c1 bd 11 16 03 be 0b f2 be 3a c6 82 87 bd
       -0.09424878 -0.12801386 0.0014567984 -0.0661674
0000b0 82 9e 18 3e 5b a3 2d be 6d 77 8f bd 68 0e 58 3d
       0.14904216 -0.16956846 -0.070052005 0.052748114
0000c0 e6 3f 82 bc 0d 8c 49 3e c1 e1 93 be 0a 0e 87 3e
       -0.01589961 0.19682331 -0.28883174 0.26377898
0000d0 df 8e d3 bd 13 5a f0 3d 93 ec 4e be 92 e5 12 3e
       -0.10329985 0.1173593 -0.20207433 0.14345387
0000e0 16 8c fb bc 6e 38 26 be 98 16 51 be 9f 43 e7 bd
       -0.030706447 -0.16232464 -0.20418775 -0.112921946
0000f0 53 47 38 be 90 12 39 3d 91 a9 10 be 25 23 64 3d
       -0.17995958 0.04518372 -0.14127184 0.05569758
