checkpoints/reduce_construction/graph_encoder.pth (torch, 131562 bytes, 20 tensors)

local_head.gconv.convs.<stroke___ordered_next___stroke>.nn.0.weight f4 [16, 12]
00000000: 9090 783e 9004 3ebe 2f81 01be 0017 6dbc
00000010: 0080 3abc 4036 f2bb f0d5 2f3e f806 273d
00000020: 0654 57be c093 f1bb c6eb 803e a068 68bd
00000030: d6a6 6ebe f42a 463e f0e5 a83d 201d 363e
00000040: 88de 153e 3821 77bd 2682 c3bd 82dd 1e3e
00000050: b42a 7dbd f197 71be c785 03be 4e5b 5bbe
00000060: 080c ed3e e7b9 0c3d 2c47 6a3e ee3d 783f
00000070: 0808 fb3c 2ceb 6abf b451 8fbe db9a 113f
00000080: 0a4c e73e e7ef 6ebf e99c 163e e579 df3e
00000090: f4c3 073e cecd 36be 4048 913d 8a20 403e
000000a0: 3867 c53d 6aa8 18be a426 153e 2832 ab3d
000000b0: 8a5f d3bd 9632 7abe fecc aabd 9cfc 7c3e
000000c0: a640 53be 10d8 313d a26c c6bd e1ce 15be
000000d0: b0ef 893c 1cc4 8b3d a055 04be 3c8f f9bd
000000e0: 1264 19be e0b8 47bc 2895 113d 5102 80be
000000f0: 5aab 743f 74cc e4bd 77c9 953f 018d 873d
00000100: 4c48 5c3e db24 11bf 7da5 d8be dd79 f13e
00000110: 4ff1 0c3f 93e4 39bf 7b28 c13e 1142 533f
00000120: 9fc8 efbc 7101 41bf 7907 063f d646 043f
00000130: a776 6abe dda9 96bd a600 743e 9ff0 203f
00000140: 90cf f53e 2aec 2cbf a479 cdbd a0a5 5c3f
00000150: e0db ad3e ca7a 4abf 31d0 2abe 2054 42bf
00000160: afc1 563e 7b24 0bbf f568 41bf 00a0 393f
00000170: 9737 553e 1b01 7f3e 45a9 a43e 8f34 ba3d
00000180: 56e1 21be 36f9 debd 6a0f ebbd 0698 863e
00000190: 90ca 493d b06e 9a3d 7455 d6bd 204a 55be
000001a0: fcc4 ed3d 3e75 073e 0073 e83c b272 55be
000001b0: 2bd4 31be b278 0d3e caf9 d8bd e24f 873e
000001c0: 2e5d 7fbe 969d cfbd 4e55 8dbe f0d3 8a3c
000001d0: 28a8 fd3d 0882 753e 90fc efbc 5c45 993d
000001e0: dc60 0a3e 4685 903e 3aaa c4bd c075 4abe
000001f0: 1196 25be 00a1 873c 9cf1 4dbd d813 c33d
00000200: fc55 5c3e b712 10be 3853 d2bd 907a 013e
00000210: 91a1 0fbd 540f 5fbe a0f1 38be a9f1 893c
00000220: 20cf 403d 4989 20be ff83 d33d 48da 173e
00000230: 8daf 723d 6267 333e f841 b0bd 491e 78be
00000240: cb43 103f 9038 f5be 8c89 7f3f 2fea d53f
00000250: 2583 90bf 7fed ce3f 0d4a b2be 75e0 b8bc
00000260: e3dc 53bf f4cc c0bf ffb5 063d a345 b0bf
00000270: 4af2 113e cc88 fa3d 0098 7c3c b4c9 903e
00000280: b079 b63c ae88 093e e073 bb3d 1ab0 8fbd
00000290: 7444 4d3e e098 3d3c f04e e3bc 3082 98bc
000002a0: 09f1 6f3e 65f6 6cbf aa0c 373f f956 41bd
000002b0: 8bb7 a5be 7ca3 53bf 8d53 3a3e 445a 813e
000002c0: f151 8f3f 5e79 bc3d 1c77 303e 2abd bf3f
000002d0: bde1 353f ee19 fb3c 9a1e 533e 2be2 363f
000002e0: 23c3 15be beac e7bc 0210 30bf c242 80be
000002f0: ca72 32bf fb37 1cbf c8e6 943e b242 17bf
0.24273896 -0.18556428 -0.12646936 -0.014470816 -0.011383057 -0.007391721 0.17171454 0.04077813
-0.21028146 -0.0073723495 0.2517988 -0.056740403 -0.2330583 0.19352323 0.08246982 0.17784548
0.1463567 -0.060334414 -0.09546308 0.15514186 -0.061808303 -0.23593117 -0.12844001 -0.21421549
0.46298242 0.034356978 0.22878712 0.969695 0.030643478 -0.91765094 -0.27992022 0.56876916
0.451752 -0.9333481 0.14708294 0.43647686 0.13258344 -0.17851946 0.07093859 0.18762413
0.09638828 -0.14907995 0.14565521 0.08359176 -0.10320957 -0.2443336 -0.083398804 0.24705738
-0.2063013 0.043418944 -0.09688689 -0.146297 0.016837925 0.06824514 -0.12923288 -0.12185523
-0.1497958 -0.012190074 0.035542637 -0.25001767 0.9557396 -0.11171809 1.1702107 0.06618691
0.21511954 -0.5669686 -0.42313758 0.47163287 0.5505571 -0.726144 0.37726197 0.82522684
-0.029270468 -0.75392824 0.5235515 0.5167059 -0.22896825 -0.073566176 0.23828372 0.6286716
0.4800992 -0.6754786 -0.10032967 0.86190224 0.33956814 -0.7909361 -0.16680981 -0.75909615
0.20972322 -0.5435254 -0.75550777 0.72509766 0.20821987 0.24902765 0.32160392 0.09092056
-0.15808615 -0.10887377 -0.114775494 0.2628786 0.049265444 0.07540643 -0.10465518 -0.20829058
0.116098374 0.13228318 0.028375149 -0.20844534 -0.17366092 0.13815573 -0.105945185 0.26428133
-0.24937889 -0.10137479 -0.27604145 0.016946763 0.12385589 0.23975384 -0.029295236 0.074839324
0.13513511 0.2822668 -0.09602781 -0.1977148 -0.16170527 0.016556263 -0.050279245 0.09525269
0.21517175 -0.14069639 -0.10269779 0.1264441 -0.03506619 -0.21783191 -0.18060923 0.016838865
0.04707253 -0.1567737 0.10327911 0.14829361 0.05924945 0.17519906 -0.086063325 -0.24230303
0.56353444 -0.47894716 0.99819255 1.6712092 -1.1290022 1.6166228 -0.3482212 -0.022567967
-0.8275892 -1.5062547 0.03288841 -1.3771251 0.14252582 0.12233123 0.015417099 0.28278887
0.022274822 0.13431045 0.09152961 -0.070160106 0.20045644 0.011572093 -0.027747601 -0.018616766
0.23431791 -0.9256347 0.715037 -0.047202084 -0.32366595 -0.8267133 0.18195935 0.2526418
1.1196882 0.092028365 0.17232937 1.4979603 0.71047574 0.030652013 0.20617142 0.71438855
-0.1462522 -0.028280612 -0.68774426 -0.25050932 -0.69706404 -0.6102292 0.29082322 -0.59086144

local_head.gconv.convs.<stroke___ordered_next___stroke>.nn.0.bias f4 [16]
00000000: c23d 8cbe 5a4c 86be c614 483d 4cde 7cbe
00000010: 2cc1 54bd ad25 073d 0e70 013f 9257 ee3c
00000020: 71f4 22be c8d6 9ebd ce8a 1ebe 7acd 50bc
00000030: 3c3d e13e fe49 71be d6a2 043f 710e 463d
-0.27390867 -0.26230127 0.048847936 -0.24694175 -0.051942036 0.032994915 0.50561607 0.029094491
-0.1591356 -0.0775581 -0.15482637 -0.012744302 0.4399203 -0.23563382 0.5181097 0.048353616

local_head.gconv.convs.<stroke___connected_to___stroke>.nn.0.weight f4 [16, 12]
00000000: cd14 593f 5675 afbc 3afc 173f c424 41bf
00000010: ab7f 493e 5831 953d 7f67 5cbf 4ba0 173f
00000020: 2ef9 65bd 31cb 6f3f 2003 d53e 33a7 11bd
00000030: 809c 00be 9837 50be b09d 48be a075 07bc
00000040: 1054 153e 66de 4ebe 908a 943d 5347 77be
00000050: 878a 63be 50a5 17be 586e c23d 74a7 8b3e
00000060: acce 27be 31ba 60be c165 af3d 1e01 7e3f
00000070: b1a8 cdbd ec3a 26be 71e9 d13e a99b 463f
00000080: 2e9d 4cbf 437e 28bf d06c ba3e 5126 2b3f
00000090: 89be 81be 1c72 6c3e 54e8 9d3d 16fa 28be
000000a0: 0cec 49bd 5459 ab3d 5988 68be 20f8 583d
000000b0: 7043 c33c c8bf f33d e8dd af3d b0e7 483d
000000c0: c5d4 213e 9cca acbe bfd6 23bf bfe4 373e
000000d0: ae16 ed3d c1ad 43bd b8fd 253e 1bf8 f8be
000000e0: 5fd5 2f3f 79ea ca3c 1f00 f9be 85cb 3dbf
000000f0: 5d89 a03e db04 73be 565f 843f feac 8a3e
00000100: c4c7 c53e 549c 8c3e b088 cfbe 795a 053f
00000110: 27b5 13bf 0153 49be da99 a33d 587e 7f3f
00000120: 2ec8 e4bd bad4 8fbe 74a8 033e 5cc5 653e
00000130: 6645 333e b03f 2f3e 2cdb 633e 2993 21be
00000140: 186d dc3d 8855 8dbe 3ccc 813e 8ab2 0c3e
00000150: d0a3 cfbe 794f a4be 2fe1 98be d6f4 2ebf
00000160: 17d9 52be e60c 313f 51b6 ae3e 746c 363f
00000170: 0b8f 9a3f a3ff af3e 67bd 3ebe df0f fa3c
00000180: 458b 67be b80e 57be 80fc 113f 0c52 8b3e
00000190: 343b 3abe 12af 8b3e de35 d53e 3a8c 0f3f
000001a0: 1205 2abf 6ad8 19bc 0233 433e 754e 873e
000001b0: 4a17 873e cc60 54be b8da 173e b8eb 55be
000001c0: 9f22 48be b415 643e 3454 b3bd 00a0 fbba
000001d0: 6001 b3bd 809f 3abb 6864 68be ec55 b3bd
000001e0: 0bc7 0ebe 203f 493c 0411 43be 402a 063c
000001f0: e087 6c3e 0041 843e 10a8 053e e871 573e
00000200: 5d9e 55be d01a bfbc 00b8 593d b44d 8dbe
00000210: b634 40be 7284 4bbe 23d6 67be 564a 59be
00000220: 72d1 0e3e d8e6 5d3e 895f 18be f805 f23d
00000230: 7007 99bd d081 6c3e 202f 0abd 783e 6f3d
00000240: 6d63 9cbe 22c6 7dbe fa5d 853f af49 c33f
00000250: 7aa0 d73d 1b4a 4f3f 464f 523f 8bd0 9d3e
00000260: 39cf 92bf a03e 36bf d3e6 5eba 8402 19bf
00000270: 8c1b 9ebe 7472 0abf 2403 9bbe 6c7d 55be
00000280: 3ae6 bcbe ca6f 533d 8a18 c93e a7c8 3e3f
00000290: 2395 b53e 179e b53d de2e b03d d7c4 cebc
000002a0: ca70 713e 6182 30be 6069 3ebd 5375 893e
000002b0: a05c babd 7e66 3f3e 1066 7bbe e97a 6f3e
000002c0: b638 9f3e b504 6a3d 3610 4cbe b4cd 253e
000002d0: 7faa 1e3f ac83 6abe 0bc3 8d3e cbab b73f
000002e0: 669a a1be 233d dd3d b64d b8be d134 6cbf
000002f0: 6452 f3be 8553 d2be 4612 1c3f 789f 2cbf
0.84797364 -0.021418255 0.5936924 -0.75446725 0.19677608 0.07284802 -0.8609542 0.5922896
-0.05614584 0.9366942 0.41603947 -0.035559844 -0.125597 -0.20333707 -0.19591403 -0.00826779
0.14582849 -0.20202026 0.07252991 -0.24148302 -0.22220813 -0.14809155 0.09493703 0.27276194
-0.16387433 -0.21946026 0.0856433 0.99220455 -0.10041941 -0.16233414 0.40998414 0.7758127
-0.7992734 -0.6581766 0.36411142 0.6685534 -0.2534068 0.23090404 0.07710329 -0.1650165
-0.049297377 0.08366647 -0.22708263 0.052971005 0.023835868 0.11901814 0.08587247 0.04904908
0.15803821 -0.3374833 -0.6399955 0.17958353 0.115765914 -0.047773127 0.16210067 -0.4862679
0.68684953 0.024770008 -0.48632905 -0.7413867 0.313548 -0.23732321 1.0341594 0.27085108
0.38628972 0.2746302 -0.40533972 0.52091175 -0.5769829 -0.1966057 0.07988329 0.9980216
-0.11170994 -0.28091985 0.12857229 0.22438568 0.17506942 0.17114139 0.22251576 -0.15778793
0.107629955 -0.27604318 0.2535113 0.13739982 -0.40554667 -0.32091883 -0.298593 -0.6834234
-0.20590626 0.69160306 0.3412347 0.71259236 1.2074903 0.34374723 -0.18626939 0.030525146
-0.22611721 -0.21001709 0.5702591 0.27211034 -0.18186647 0.27282006 0.4164266 0.56073344
-0.66413987 -0.009389976 0.19062427 0.26427045 0.26384956 -0.2074005 0.14829528 -0.20890701
-0.19544457 0.22273904 -0.08756295 -0.0019197464 -0.08740497 -0.0028476417 -0.22694552 -0.08756623
-0.13943116 0.012283117 -0.1904946 0.008188784 0.23098707 0.2583084 0.13052392 0.21039546
-0.20861192 -0.023328215 0.05315399 -0.27598345 -0.18770108 -0.19874743 -0.2264028 -0.21219763
0.13947085 0.21670091 -0.14880194 0.11817545 -0.07472122 0.23096395 -0.03373635 0.058409184
-0.30544606 -0.24782613 1.0419304 1.5256861 0.10528655 0.8097245 0.8215221 0.30823168
-1.1469489 -0.7118931 -0.00085030234 -0.59769464 -0.30880392 -0.5408089 -0.30275834 -0.20848626
-0.368944 0.051620282 0.39276534 0.7452492 0.35465345 0.08868044 0.08602689 -0.025240345
0.23578182 -0.17237236 -0.046487212 0.26847324 -0.09099698 0.18691441 -0.24550653 0.2338673
0.31097955 0.057133395 -0.19928059 0.16191751 0.61978906 -0.22901791 0.27687868 1.4349302
-0.3156311 0.108026765 -0.3599679 -0.9226809 -0.47523797 -0.41079345 0.60965383 -0.6743083

local_head.gconv.convs.<stroke___connected_to___stroke>.nn.0.bias f4 [16]
00000000: 387d bb3e 7e30 afbd ff50 8f3e bafd 19be
00000010: 722d 1a3e 9c18 763e 3008 c9bd fabe c33e
00000020: 08c7 b13e 588e bfbd 4242 8ebe a0ff d4bc
00000030: 800d cb3c 446f c73e 0a15 89bc 25fd 633e
0.36618972 -0.08554171 0.27991483 -0.15038195 0.15056399 0.24032825 -0.09816015 0.3823164
0.3472216 -0.09353322 -0.27784926 -0.026000798 0.02478671 0.38952076 -0.016733665 0.22264536

layers.0.mlp_edge_conv.gconv.convs.<stroke___ordered_next___stroke>.nn.0.weight f4 [32, 32]
00000000: 8758 bcbd d27f 61bd 6026 db3d fad2 f03d
00000010: 36e0 953c 6d0c 82bd 9a5a 703e bb05 af3d
00000020: e162 05be 26e9 82bd 8805 d3bd 76a1 353c
00000030: 576b 083e 48d9 30bc 04bc a63c 4033 0b3e
00000040: 6ea3 9d3d 583f 3e3d 3c98 14bc d307 143e
00000050: c07d 193e bf1c f03b cfd5 4e3f 2f56 cf3d
00000060: d1c6 ed3d 266d d83d b1e9 093e 8138 85bd
00000070: db14 4bbe 749e 4a3e b940 933f 44c0 ab3d
00000080: f94c 903b 1020 02bc afe1 45be decc b0bd
00000090: c71b 97bd 4fce 28be 7fb6 fdbd 3014 60bd
000000a0: 28c2 b43d 02a9 22be 0802 873d e4d9 d3bd
000000b0: 3b57 3fbe 4fb8 26bc 0796 f53c c955 dfbd
000000c0: 8cb0 013e 4edd 1ebe c969 6cbd 1c08 0c3d
000000d0: cdab 1f3d 432e 283c 54b0 50bf dd85 0b3d
000000e0: 21ba 523d 0be3 e4bd 65fa 2d3e 06c1 08bc
000000f0: b24a 5d3d 9c3c a0bd 773a 38bf f01d 363d
00000100: a7a8 1cbe 3a94 0ebe 3b45 4d3d 9e51 c53d
00000110: 9391 073d 727f c23d e434 663e 02f2 a8bd
00000120: cf5c 20be 422c c2bd 80cb d7ba 7c3f 26be
00000130: 6076 863e 13cd d9bd 3f0e fa3d 1169 7abc
00000140: a4e0 9cbd 55d2 c8bd fcee 063d 4836 50bd
00000150: 9901 0a3e e193 9abd 19de 163f 05e5 923d
00000160: 70f7 ae3d 6f0a 21be 9475 0fbe a4b4 cbbd
00000170: 4f31 abbf f560 1ebe ebb4 c33f 70de 73be
00000180: abce 313e 07c7 9cbd 9e67 ddbd 1669 21be
00000190: a95a abbd 8924 313d 54a8 1d3e 6ad2 ff3c
000001a0: 963f 203e 7ce9 26be b8e0 693d 39e4 2dbe
000001b0: 2ea5 3b3e be84 873c 2f31 c33e 8992 95bd
000001c0: 9c25 e93e 2ba8 33be cbb1 e83e e4f1 37bd
000001d0: 943c bc3e 66f5 f23e 6901 c63e 1d47 893e
000001e0: b7ac e93e 0cab 30be 483c 08be 8c52 1e3e
000001f0: 5d65 583f 42ac e23e 643e aa3e fa1c 203f
00000200: eca6 423d 8890 5cbd 0868 b6bd 408d 913c
00000210: e375 a4bd fd14 dcbd ef7c 0f3e 6886 703a
00000220: d506 55be 9785 99bd fda8 cebd 2967 88bd
00000230: fcbf d73e f950 dabd d1b4 863e 2fa9 c2bd
00000240: c22a a4bd a794 003e 7da0 89bd f21f c43d
00000250: 5855 fabd 7578 1bbd 00c9 3c3f b0f5 44be
00000260: e6c5 90be 1677 bb3d 744e 113d 4394 493d
00000270: a8f2 3cbf ad87 87be 112c a83f 21a3 c8be
00000280: acc9 20be 680c 19bd 2c81 60be 17f0 e0bd
00000290: d00c 95be 6e09 46bd b860 0b3e 76ac 98be
000002a0: 3139 b8bc f4e6 e2bd b30f 33be 3731 29be
000002b0: 4d56 91bd d4f8 52be b9ce a5bd 9f8f 87be
000002c0: 7594 ee3d b0c3 36bc 88e9 c63c 1ce1 063d
000002d0: 347f 613e 8b15 5b3e e8a5 fb3e a012 983e
000002e0: 7a00 563e 80e7 59bc dd5c 2e3e 9f97 eebb
000002f0: 0af2 993e 7033 553e 8108 913e 446f 9f3e
00000300: 38fd 34bd 8a67 ebbd 6d79 b0bd 571b 15be
00000310: f00f 5f3c ea22 de3d 202c 6ebc 57ee 123e
00000320: d03a 10bd 7807 823d b854 ecbc 3938 113e
00000330: 0294 e5bd 75eb 2fbe b967 133e d63a 9c3d
00000340: bc5d 1b3d 8008 2fbe 421b 843d 70a3 0f3d
00000350: 9239 fc3d 6be7 25be 088c d4bd 80c4 bd3a
00000360: 2c79 bbbd f0be c0bd 66ff 10be 12dc 77bd
00000370: 3155 14be 88c9 ef3c d738 083e 7e66 e83d
00000380: 818d 4d3e f812 a33c 3ffe 543e 788f 053d
00000390: 8bb5 efbc bd61 e5bd 0701 68bd 09a0 ea3d
000003a0: 3dba 25bd 0156 2e3e 007b aebb fbe3 e4bd
000003b0: a7ae 34be 3441 883c e36f d33c a8e3 2b3d
000003c0: c18a c6bd 808d 55bb e252 b23d 15a9 2b3e
000003d0: 007c 073e d4d3 06be 644c 11bf 5914 d4bd
000003e0: 394e 183e 005c 3eba 0296 b03d 219e 2c3e
000003f0: fe86 2f3e ab14 3abe ceec 55bf 7b92 c03d
-0.09196573 -0.05505354 0.10700679 0.117589906 0.018295389 -0.06350026 0.23472062 0.08546015
-0.13026 -0.06392126 -0.103037894 0.011085859 0.13322197 -0.010793991 0.020353325 0.13593769
0.07697187 0.046447128 -0.009069499 0.1445611 0.14989376 0.0073276456 0.80794996 0.1012386
0.11610187 0.105676934 0.13468052 -0.06504918 -0.19832174 0.19787008 1.1504127 0.08386281
0.004403707 -0.007942215 -0.19324373 -0.08632825 -0.07378345 -0.1648495 -0.12388324 -0.054706752
0.08826095 -0.15884784 0.06592184 -0.10344294 -0.1868562 -0.0101757785 0.029978765 -0.10905034
0.12665004 -0.15514109 -0.057718072 0.03418742 0.0389822 0.010264936 -0.81519055 0.03406321
0.051447038 -0.111761175 0.16990049 -0.008346802 0.054026313 -0.0782406 -0.7196421 0.044462144
-0.15298711 -0.13923731 0.05011485 0.09634708 0.033097815 0.094969645 0.22481114 -0.08249284
-0.15660404 -0.09481098 -0.0016463846 -0.16235155 0.26262188 -0.10634818 0.122097485 -0.015283839
-0.07660034 -0.09805743 0.032942757 -0.050833017 0.13477172 -0.07547737 0.58932644 0.07172588
0.08543289 -0.15726636 -0.14009696 -0.09946564 -1.3374423 -0.15466674 1.5289587 -0.23815322
0.17363994 -0.07655149 -0.10810779 -0.15762743 -0.083669014 0.043247733 0.15396243 0.031228263
0.15649256 -0.16300005 0.057099074 -0.16981591 0.1832473 0.016542789 0.38123462 -0.0730334
0.45536506 -0.1754462 0.45448145 -0.04490842 0.36764967 0.4745285 0.3867295 0.26812068
0.45639583 -0.17252749 -0.13304245 0.15461177 0.8452967 0.44272047 0.33250725 0.62544215
0.04752247 -0.053848773 -0.08906561 0.017767549 -0.080302976 -0.10746191 0.14012502 0.00091753015
-0.20803387 -0.07496183 -0.10090826 -0.06660301 0.4213866 -0.106599756 0.26309827 -0.095049255
-0.08015968 0.12556706 -0.06720064 0.095764056 -0.12223309 -0.037956674 0.737442 -0.19234347
-0.28275985 0.09153573 0.03547521 0.04921366 -0.73807764 -0.264707 1.3138448 -0.39186957
-0.15701932 -0.037365347 -0.21924275 -0.109832935 -0.29111338 -0.048348837 0.13611114 -0.29819077
-0.022488208 -0.11079207 -0.17486458 -0.1652268 -0.07096539 -0.20602733 -0.0809607 -0.26476762
0.1164941 -0.011155054 0.024281278 0.032929525 0.2202118 0.21394937 0.49150014 0.2970171
0.2089862 -0.013299823 0.17027612 -0.0072812582 0.30067474 0.20820403 0.283268 0.31139576
-0.0441868 -0.11494358 -0.0861691 -0.1456121 0.01361464 0.10846503 -0.014536887 0.14348732
-0.035212338 0.06349081 -0.02884899 0.14181603 -0.11209871 -0.17179663 0.14395036 0.076284096
0.03793119 -0.17093086 0.064505115 0.035067976 0.12315668 -0.1620156 -0.10378271 0.0014478117
-0.09153971 -0.094114184 -0.14159927 -0.06051261 -0.14485623 0.029270902 0.13302933 0.11347674
0.2007351 0.019906506 0.20800112 0.032607526 -0.029261371 -0.11200283 -0.056641605 0.114563055
-0.040460814 0.17024995 -0.0053247213 -0.11176296 -0.1764475 0.016632654 0.025810188 0.041965157
-0.09694434 -0.0032585561 0.08707215 0.16763718 0.13230896 -0.13166744 -0.5675719 -0.103554435
0.1487359 -0.0007261634 0.08622362 0.16857196 0.17141339 -0.18171947 -0.8356446 0.09402939

layers.0.mlp_edge_conv.gconv.convs.<stroke___ordered_next___stroke>.nn.0.bias f4 [32]
00000000: dd71 563e 951f 20be 3449 8b3e 0f47 af3e
00000010: b038 a13e 33e2 d13c 03f1 34be 2644 ba3d
00000020: 172a 90bd 2812 033e a03b 653e 5dc2 9abe
00000030: 090e dc3e 733a 3abe 2344 683d 9a10 c0bd
00000040: 2b29 42be ea14 0c3d d2dc 393d 38c7 ce3d
00000050: 718a bc3e 75aa dd3e c87a 32bd 2f4b 5d3e
00000060: f4bb 0bbd 3ef1 663e 4d32 46bd 475e 8fbe
00000070: 6f92 37be f717 b43e 2253 833e 5031 873d
0.20941873 -0.15637048 0.27204287 0.342339 0.31488562 0.025620556 -0.17670064 0.090950295
-0.07039278 0.12799895 0.22386026 -0.30226412 0.42979458 -0.18186359 0.056705605 -0.093781665
-0.18961017 0.034199633 0.045376606 0.10096592 0.36824372 0.4329411 -0.043574125 0.21610712
-0.034114793 0.22552964 -0.048387814 -0.28001615 -0.17926954 0.35174534 0.25649363 0.066012025

layers.0.mlp_edge_conv.gconv.convs.<stroke___connected_to___stroke>.nn.0.weight f4 [32, 32]
00000000: 6850 b5be 6e0c a13d 1763 a3bd 2091 46bc
00000010: 64be acbe 7a83 b4be 14d5 20be c623 5bbe
00000020: e521 f7bd 71ab 063e 8a7a ae3d 8066 a13a
00000030: ef39 6fbe a428 7ebe 751e 7bbd 598f 72be
00000040: fe34 233e 8046 dfbd 243b 033d 52dc e43d
00000050: 022a 763d f178 4f3d 59b5 8bbe 3af1 b9b9
00000060: 9227 553e b22f fbbd de9f 00be e63d 78bd
00000070: 3952 3ebe 2518 263e 0525 68bf 6ffc c8bd
00000080: 0563 0f3e 8840 e8bd ace0 e83d 3066 443d
00000090: 31a5 4c3e 5fd9 c8bd 6bb6 ccbd 7ab9 d73b
000000a0: e36a fd3d 6487 683d 5338 9cbd 9ae6 0a3e
000000b0: 65a9 c43b 299d 103e 6166 27bd 6530 633e
000000c0: 240b 2f3e 072e 9ebd d26c 003e 8b75 113e
000000d0: 8c86 96bd f569 7a3e d912 8c3f a260 02bc
000000e0: 61cf 543d b85e cdbc de96 33be b714 a6bd
000000f0: 7733 a43d a217 223e 9f27 9e3f 6718 7f3e
00000100: 2641 36be 321c ffbd 5181 be3d b024 26bd
00000110: b4e8 0b3e 7010 e63d a0ca e5bd d3e8 723d
00000120: 26df 2fbc 5a2c a03d 5eb9 e33d 3aa1 4f3d
00000130: 4172 c93d 29bd cd3d 2115 2abe 3473 e8bd
00000140: d803 013d dcd7 2dbe 4601 f4bc 3066 793d
00000150: a022 9fbd d1bf 0f3e 29fe a4be ba7e e3bd
00000160: 10c1 473d e877 4cbd afde 063e e51a 64bd
00000170: fa40 10bf 1da5 373d 239a 273e a288 13be
00000180: 1ae8 26ba c862 93bc 727e 4dbd d8ae 1ebe
00000190: 62e3 3ebd 5f8e f6bd 00eb 11be fea3 0cbe
000001a0: 5b36 db3d 3c4a 1d3d de29 b4bd 0410 17be
000001b0: d26b 953b 50f4 3cbd 4ce3 4b3d 4cc4 6dbd
000001c0: 1c57 6739 6892 c73c 7a6a 61be ab8b 0d3e
000001d0: dc98 893d c290 3abe d35b 3bbf 38bf 69be
000001e0: 354a e2bd 8ce3 3cbd 12f3 e43d 079d 0abd
000001f0: 3a5c fbbc 70de 54be 7112 7abf 8b2d 673d
00000200: aebe 28be bd33 123e 8e13 4b3d 1541 2c3e
00000210: da5a 08be 6b2d 6dbd 51c0 0c3e 7f7e 183d
00000220: 597b aebd db17 1c3e 9d36 2a3e 1ce0 7cbd
00000230: 8c3f f3bc 8c07 34be 3149 d8bd 443c bfbd
00000240: 1621 05bd 498b 233e 4c7a 883d 6085 3ebd
00000250: 6b39 273e 246f 35be 6763 013e d04b a93d
00000260: 24f6 83bd 97ef 043e 10e7 18bd c109 183e
00000270: d83b cabd a0b4 a3bd 6949 753d 7f9c de3d
00000280: b0bb 07be e893 913d da22 f43d 00c6 6bbc
00000290: 3de2 753d 0d1d 6e3d fe3a 38be 0e08 ccbc
000002a0: 7722 7c3d 98f0 793d c748 e5bd f8db a6bd
000002b0: 5cad 5c3d 9510 033e afe0 783d 333e c8bd
000002c0: bec2 20be e0c1 0cbc 03ab 28be 9c57 debd
000002d0: 09db 703d 7939 e0bd 13a9 66bf 87b5 5cbc
000002e0: 1c36 32bd 99b3 123e eccb 72bd 989f 1bbe
000002f0: c36e 9abe 4915 363d 9e57 24bf 903c cdbc
00000300: 3fa9 1a3e e451 0ebe b63b 9f3d ae24 d83d
00000310: 3d6b 92bd ac2d 963d c658 d43d ffe5 fc3d
00000320: a27c d9ba cfb1 d6bd a018 a53b 53f8 14be
00000330: 9aaa 2a3d 05f5 24be 8f15 86bc 70a8 7a3d
00000340: cb8b 26be 80bc 373c 5bf2 2dbe b0fe c83c
00000350: 7aae 0b3e 36c0 9e3d 61cb 4ebf a459 103e
00000360: d94a 813d 70b1 27bc 4093 48bc e1cc 32be
00000370: 6029 53be 6040 14be e898 58bf 666b 68bd
00000380: 5bb5 f8bd fbd6 09be 8fd9 99bc 2126 26be
00000390: d3b1 dabb 4c49 36bc d8dc 5d3e 0837 a83d
000003a0: 9190 8d3d c01a 46bc fed7 79bd e7aa ff3d
000003b0: 963d 613e e26a b83d 6715 8a3d bdbb 94bd
000003c0: 950c 883d ea65 d63d 447b 1a3e 2ec6 973d
000003d0: 118c 113a 7b09 ec3d 8d09 6f3e c02a aabd
000003e0: 5b61 423e dadd de3d fc0c aebd 0bf0 01be
000003f0: f4ae 05be 2318 bebc a3b5 a33e f406 3d3e
-0.35412908 0.07863699 -0.07977884 -0.012119561 -0.33739007 -0.3525656 -0.15706283 -0.21400365
-0.12067012 0.13151337 0.08519466 0.0012313873 -0.23361944 -0.2482019 -0.061308343 -0.23687495
0.15938184 -0.10902119 0.032038823 0.11174835 0.060098656 0.050652448 -0.27286795 -0.00035465678
0.20815876 -0.122649565 -0.12560984 -0.060605906 -0.18586053 0.16220148 -0.9068149 -0.09813773
0.14002617 -0.11340433 0.11370978 0.047949016 0.1998489 -0.09807085 -0.09995731 0.00658339
0.12373903 0.056769744 -0.076279305 0.1356453 0.0060016387 0.14122452 -0.04086912 0.2218643
0.17094094 -0.07723623 0.12541512 0.14204995 -0.073498815 0.24454482 1.0943252 -0.007957609
0.051955584 -0.02506958 -0.1753802 -0.0810942 0.08017629 0.15829328 1.2355841 0.24911653
-0.1779829 -0.1245655 0.09302009 -0.04056233 0.13662988 0.11233604 -0.11220288 0.05930407
-0.010734355 0.078209594 0.1111934 0.050690867 0.09836245 0.10045845 -0.16609623 -0.11350098
0.031497806 -0.16976875 -0.029785763 0.06088847 -0.07770276 0.14038016 -0.3222516 -0.111081555
0.048768103 -0.04991904 0.13170885 -0.05568971 -0.56349146 0.0448352 0.16367392 -0.1440759
-0.0006366983 -0.017991439 -0.050169416 -0.15496385 -0.046603568 -0.12038874 -0.14249802 -0.13734433
0.10703727 0.038400874 -0.08797048 -0.14752203 0.0045599723 -0.046131432 0.049777314 -0.05804853
0.00022062327 0.024361804 -0.22013274 0.1382281 0.06718609 -0.18219283 -0.7318699 -0.2282685
-0.1104931 -0.046115443 0.111791745 -0.03384116 -0.030683625 -0.20787978 -0.9768439 0.056439918
-0.16478989 0.14277549 0.049579196 0.16821702 -0.13315907 -0.057904642 0.13745238 0.03723001
-0.085196204 0.15243475 0.16622396 -0.061737165 -0.029693387 -0.17581004 -0.10560835 -0.09337667
-0.032502256 0.15971102 0.06663951 -0.046513915 0.16330497 -0.17718178 0.12635575 0.08266413
-0.06443432 0.12982021 -0.037329733 0.14847471 -0.098746955 -0.07993436 0.059884463 0.10869693
-0.13255191 0.07108289 0.1192071 -0.014390469 0.06003021 0.058133174 -0.17991254 -0.024906185
0.061556306 0.061020464 -0.11195522 -0.081474245 0.053876266 0.12799294 0.06076115 -0.097774886
-0.15699288 -0.008591145 -0.16471486 -0.10856554 0.05880264 -0.10948462 -0.90101737 -0.013471014
-0.043508634 0.14326324 -0.059276506 -0.15197599 -0.3016263 0.044453893 -0.64196193 -0.025053293
0.15103625 -0.13898426 0.07775061 0.10553871 -0.0714936 0.0733293 0.10368495 0.12348556
-0.001659293 -0.10483133 0.005038336 -0.14547853 0.041666605 -0.16109093 -0.016367702 0.06119579
-0.16264264 0.0112143755 -0.16986983 0.024535507 0.13640776 0.07751505 -0.8077908 0.14096695
0.06313104 -0.0102351755 -0.012242138 -0.17460968 -0.20621252 -0.14477682 -0.84608316 -0.056743048
-0.12143966 -0.13460915 -0.018780498 -0.16225483 -0.0066740303 -0.011125874 0.21666276 0.082136214
0.069123395 -0.012091339 -0.060997 0.12483769 0.2199615 0.09004761 0.067423634 -0.07262371
0.06643025 0.10468657 0.15086085 0.07410847 0.00055521826 0.11525246 0.23343487 -0.08308935
0.1898245 0.108821586 -0.0849857 -0.12689225 -0.1305502 -0.023204869 0.31974515 0.18459684

layers.0.mlp_edge_conv.gconv.convs.<stroke___connected_to___stroke>.nn.0.bias f4 [32]
00000000: 8528 2bbe c5cc e23d fe87 eabb 51b7 45be
00000010: 888b 803c d561 84be 1287 bfbd 9636 8f3d
00000020: 0682 303e 150a 3cbe 1cd3 f5bd 1d91 693d
00000030: 4f65 4bbe 62c1 a53d e045 7ebe b3cb f03d
00000040: 3938 01bd ff28 a63d d870 bd3e e95c 6cbd
00000050: 8940 6dbd 80d8 5dbe 1573 3e3e 7dca c8bd
00000060: 8271 473d 2a63 05be 551d 3c3e a0aa 083e
00000070: d363 a93d c5e9 493d a1ed 2abe c35a 56bd
-0.16714676 0.11074213 -0.007157325 -0.19308211 0.015691534 -0.2585589 -0.093519345 0.06992833
0.172371 -0.18363221 -0.120031565 0.057023156 -0.19862865 0.080935255 -0.24831343 0.117576025
-0.03154776 0.08113288 0.37000155 -0.057705794 -0.057922874 -0.2166462 0.18598588 -0.098042466
0.048692234 -0.1302611 0.18370564 0.13346338 0.08270993 0.049295206 -0.1669221 -0.05233265

layers.0.projection.weight f4 [32, 16]
00000000: a980 7fbe 7042 babd 5c79 21be d09d e1bc
00000010: b476 4f3d 42e6 28be 0a81 c0bd f1aa f5bd
00000020: da3d 253e e0f7 10bc 8ed8 7bbe 380e 523d
00000030: 9de6 b83e 9bd0 5ebd 4b09 e6bd b95a d53a
00000040: a8bf 78be e66b 4ebe a79f 9abd 6cc2 34be
00000050: 3b58 05be 0c98 27be a70c e6bb ea7d 4fbd
00000060: 68d5 1bbd 40bf 6fbd daf7 10be d641 e8bd
00000070: 7e5d 1a3e 9255 0b3c 5c5e 84be 181b 60be
00000080: efb0 99be 688e 61bd 8781 73be fe9e 46be
00000090: ba97 31bd f0f6 053e 5562 1b3e 4d46 a3bd
000000a0: 9695 93bd 02e0 7cbe e0b7 cc3c 9ff6 9cbd
000000b0: 634f 31bd 84f6 243e 028f 66bd e6d6 c9bd
000000c0: 341b 63be 1015 7a3e 42c4 3f3d 4c7a 0abe
000000d0: a9aa a6be f9db db3d d457 f7bd 4dc8 c93c
000000e0: 594a b13d 08ad 5fbd 2a4c 20be 5f80 213d
000000f0: 0522 383e a5c3 b7bd 8970 50be 5bf7 4ebe
00000100: 49f1 363e 203a 273e b576 df3d 30de 30be
00000110: 04a4 56be 7c24 5bbe fe99 86bc d09e e3bd
00000120: 7096 75be 5064 c63c 6ea5 713e f39a 0abe
00000130: 22f9 f73d 938b bf3d 6cbf b8bc fdbc 973d
00000140: d6b3 41be 7e4d 733e 6635 b7bc e85f e6bd
00000150: 963a 2bbd 1b26 7ebe 7e02 0dbe 688e 9bbe
00000160: 60e9 9abe 983c 89bd 8496 b33d db31 43bc
00000170: d13e 333e 6b30 59be 0eb0 fdbd 53dc 87be
00000180: bbe5 1b3d 8889 1cbe 8a5d 113e d0d0 40bd
00000190: 9cf1 55be cddb a83d f733 14bd 066e 3b3e
000001a0: 4b79 3fbe da58 083e 5201 583e 0cd2 b5bd
000001b0: 785d b2bd f302 f73c f784 84bd f257 823d
000001c0: 6c2b 743e c037 be3b b2f0 4f3e 9685 14be
000001d0: 7c7b 513e 0243 3f3e eb7c 19be 5c22 943d
000001e0: fd32 413e a01d f3bc 806f e03d 3f7a 083e
000001f0: 5862 85be c52e 343e 9173 95be c53a 46be
00000200: 5fba b83e b4d3 2dbe e330 a93e 68cb 293d
00000210: 41f7 213e ce89 883e 7ed3 c13b 0489 403e
00000220: 726c 103e ee1c 6f3e 3847 443d 07a7 7c3d
00000230: e6d0 623b 96f2 0c3e 7268 ffbc d0f4 1a3e
00000240: a2bb 503e 90c2 593d e87a f6bd 00fb 19bd
00000250: 0b57 35be 56be 4cbe 5a62 d53d 9651 ec3b
00000260: 16eb fb3c f88c 563e 1ed6 433e e1bf 00be
00000270: a19b 86be 9fe6 1b3e a37a e33d cda0 053e
00000280: b954 e8bd e051 443e 76cf 95bd 1cee 2c3e
00000290: 0acc 8ebe ef91 d9bd 3331 583e 8361 90be
000002a0: b118 61bd 7021 883d 0455 19be a1fd 723d
000002b0: ce63 833e 2e59 80bd c625 8bbd 3fee a1bd
000002c0: afb5 4d3e 6633 393e 4dd1 dd3c 82bd 34be
000002d0: 3fd0 4f3e 1beb 3e3e e436 1bbe 1b40 10be
000002e0: d40f 043e 7647 4dbe 5079 543e 55a0 abbd
000002f0: 4a7c acbe 1484 14bd ad96 0c3d faa3 093e
00000300: 1b8c 91be 6094 aabc 4dd4 2e3d 04bb b4bd
00000310: 3fea c13d 4a2d 893d 2571 c73e 27cd d6bd
00000320: 24d7 4cbe a817 373d 006d daba 2bf4 01be
00000330: c66b 72bc d627 e4bd cceb bf3e f565 f4bc
00000340: d3cd 63be 9c8f 04be 07f3 8f3e 3835 cc3d
00000350: 0442 8abc 5bd0 3d3e aadd 9e3d d17d ab3d
00000360: 0eb4 193e 8044 a33b f4f1 233e a661 0cbe
00000370: e7d6 5fbc 32a2 8fbc 701e 6dbe 236f 8d3e
00000380: 50b2 1fbe 1ce7 2b3e 0979 04bd f077 e53d
00000390: c693 65be 6b92 72bd e7bc 0cbd fa1d eb3d
000003a0: affb 6ebe c0fb 8c3c 9085 45be ee1a b5bc
000003b0: 76f1 32be 5017 043e 9662 02be 6690 f53d
000003c0: 686c b0bd 207b 16bd 821d ecbd 3ce3 123e
000003d0: 1c98 69bd d678 ff3d 70f1 be3c 285c 233e
000003e0: 7f2c 9b3d 685c 35bd a241 513e 07d3 11bc
000003f0: 9628 903e 1b5d 68bd 365e 173e e5a1 923d
-0.24951424 -0.09094703 -0.15768951 -0.027541071 0.050650313 -0.16494086 -0.09399612 -0.11995495
0.16136876 -0.0088481605 -0.24594328 0.05128309 0.36113444 -0.05439816 -0.11232241 0.0016277648
-0.24291861 -0.20158347 -0.075499825 -0.17652291 -0.13021939 -0.16366595 -0.0070205512 -0.05065719
-0.038045317 -0.058532 -0.14157048 -0.11340682 0.15074727 0.008504288 -0.2585324 -0.21885335
-0.30017802 -0.05506745 -0.2377988 -0.19396588 -0.04335759 0.1308248 0.1517423 -0.07972393
-0.07206266 -0.24694827 0.024990022 -0.07664227 -0.0432886 0.16109663 -0.056288727 -0.09855442
-0.22178346 0.24422097 0.046818025 -0.13523215 -0.32552078 0.10735316 -0.12077299 0.024631644
0.08656759 -0.054608375 -0.15654054 0.039429065 0.17981727 -0.08972863 -0.20355429 -0.20211546
0.1786548 0.16330767 0.109113134 -0.17272258 -0.20961004 -0.21400636 -0.016430851 -0.111142755
-0.23983169 0.024217755 0.23598263 -0.13535671 0.12108065 0.093527935 -0.022552215 0.074090935
-0.18916258 0.2376003 -0.02236433 -0.112487614 -0.04180392 -0.24819224 -0.13770482 -0.30382085
-0.30256176 -0.067010105 0.08768943 -0.011913742 0.17504431 -0.21209876 -0.123870954 -0.26535282
0.038060885 -0.15286839 0.14195839 -0.04707414 -0.20892948 0.08245049 -0.03618237 0.1830369
-0.18698613 0.13315144 0.21094254 -0.08877954 -0.08709234 0.030152773 -0.064706735 0.063644305
0.23844689 0.0058049858 0.20306662 -0.14504084 0.20457262 0.18677905 -0.14989059 0.07233116
0.18867107 -0.029677212 0.10958767 0.13327883 -0.26051593 0.17595966 -0.29189733 -0.19358356
0.3607969 -0.1697529 0.3304511 0.04145375 0.15816976 0.26667637 0.0059151044 0.18802267
0.14103869 0.2335088 0.047919482 0.061682727 0.0034609376 0.13764414 -0.031177733 0.15132451
0.20384076 0.053164065 -0.12035161 -0.037592888 -0.17708986 -0.19994482 0.1041915 0.0072118742
0.030751746 0.20952213 0.19124648 -0.12573196 -0.2629061 0.15224694 0.111073755 0.13049622
-0.113442846 0.19171858 -0.07314961 0.16887707 -0.27890044 -0.10623538 0.21112518 -0.28199396
-0.05495519 0.06647003 -0.14973837 0.05932391 0.25662082 -0.0626701 -0.06794314 -0.0790677
0.20088838 0.18086013 0.027077341 -0.17650416 0.20294283 0.18644373 -0.15157658 -0.14086954
0.12896663 -0.20046791 0.20749402 -0.0838019 -0.33688575 -0.036258772 0.034323383 0.13441458
-0.28427204 -0.020822704 0.042682935 -0.08824733 0.09468507 0.06698091 0.3895351 -0.104883485
-0.20003945 0.044700295 -0.0016664565 -0.12690799 -0.014796203 -0.111404106 0.37484586 -0.029833773
-0.22246484 -0.12945408 0.28115103 0.09971088 -0.016877182 0.18536513 0.07757123 0.08373607
0.15010092 0.004982531 0.16010267 -0.13709125 -0.013662077 -0.017533395 -0.23156142 0.27623853
-0.15595365 0.1678738 -0.03234199 0.11204517 -0.22419652 -0.059221666 -0.03435984 0.11480327
-0.23338197 0.017209888 -0.19289231 -0.022107568 -0.17474923 0.12899518 -0.1273292 0.119904324
-0.08614427 -0.036738515 -0.11529066 0.14344496 -0.05702983 0.124742195 0.023308486 0.15953124
0.07576846 -0.04427758 0.20435193 -0.0089004105 0.28155965 -0.056729417 0.14782032 0.07159785

layers.0.projection.bias f4 [32]
00000000: 3e9e 9f3e f724 25be e527 423d 4c3d 3a3d
00000010: 1f79 843e 7c3b 9abe 2622 b4be 29f6 0fbe
00000020: 724b 74be ce9a edbc 000c 3ebe f131 09be
00000030: 8c47 a43e 55ad 0cbe a8c8 c8be 71e4 213e
00000040: a135 6bbd bd93 a0be 5e71 69be 29ce d6bd
00000050: 7c7a edbc 3209 ee3c e4ef d83d fd66 2bbe
00000060: 5099 a0be bf52 0e3e a48d 90be 2022 eb3b
00000070: 55a1 54be 97a4 3bbc 5de0 c73e bd89 c5bd
0.31175417 -0.16127382 0.047401328 0.045468614 0.25873658 -0.30123508 -0.35182303 -0.14058746
-0.23856905 -0.02900448 -0.18559265 -0.13397957 0.32085836 -0.13737996 -0.3921559 0.158098
-0.05742419 -0.31362715 -0.22797152 -0.10488541 -0.02898907 0.029057119 0.105926305 -0.16738506
-0.31366968 0.13898753 -0.28233063 0.007175699 -0.20764668 -0.0114528155 0.39038363 -0.09645412

layers.1.mlp_edge_conv.gconv.convs.<stroke___ordered_next___stroke>.nn.0.weight f4 [64, 64]
00000000: 3256 8dbe ae70 473d d38d e93a 7d9e 693d
00000010: 116b 233d 4842 74bc 4abd 273d 7202 523e
00000020: e074 9b3d 13b5 08bd 4abd 69be 2f6a e83d
00000030: 0797 28bc 4c66 0e3e 030f 3fbe d5d0 b73d
00000040: 5109 bb3d 15bd 7c3e fc07 063e 743b 933d
00000050: b052 26be 8c1b cfbc c8f2 4e3e 2745 a33d
00000060: 4e85 c53d 652f b33d 9f99 be3c e462 713e
00000070: f5d2 2a3d e619 8bbd 1114 b0be dc4e 133d
00000080: 5a7a 813e 054b b8be daa7 c23b fc77 f1bd
00000090: 1b5c 843e 6496 18bd 1e5d 1cbd 4a10 36be
000000a0: c6e6 d0be dbe7 01be 43d1 463e 491d 97be
000000b0: 2a82 c73b c98d a4bd f33d a43d d807 883c
000000c0: 3852 c73e 65d2 0c3e 4106 82be 3307 68be
000000d0: f6b6 013d d80d 663d 9e07 90bd ed04 07be
000000e0: 4b03 c8bd 40cb 2bbe 56cc bdbe f398 c7bd
000000f0: d0e1 02be 6086 4c3e b70e 973e 505f 42be
00000100: 4913 463e 39be f7be c302 a63d 2618 253e
00000110: 28fa 5f3e 457e c8bd 64e5 50be 8e60 7e3d
00000120: c9b5 aebd 9e24 083e f8b1 d8bd fb26 d9bd
00000130: 086d 493e b8d0 383d be45 3ebe 40b5 ed3d
00000140: e18c e3bd 5ff3 50bd 79e3 96bd 7a64 763e
00000150: a7c0 2b3d 1b36 043e 3e2c 9d3d f83e e5be
00000160: 301f 3dbe 9244 32be 2f7e 87be 1b8c 37be
00000170: c4ca 403e 6e86 033e b982 9e3e eea4 8ebd
00000180: 0ec6 ba3d d108 b03d d041 72be 255f 9f3e
00000190: 16bc eebe 4a0e 1bbd 954b 8e3d 7c9f d3bd
000001a0: 93e0 82be 1688 ac3e 5141 8e3d 3ba5 8e3d
000001b0: a531 62bd 7296 61bd 0468 983d eb7f dbbd
000001c0: 706b 96be 08fa 92be aa19 293d 2b69 773e
000001d0: 122e e0be f5c1 1bbf c5e5 d03d 56cc d43d
000001e0: d691 e73d 09fc 193e 8169 e53d 554b f83c
000001f0: 7cd3 8b3e 3e49 d6be bf6f 0d3e b667 173e
00000200: ea8f b93d bc36 053e f3d8 08bc 7b92 813d
00000210: 9844 dcbc 5b13 703e 593d 043d f634 d4bd
00000220: 6a65 05bd 5777 d1bc 000c dd3d f9d4 19bd
00000230: 897f 03be 9db7 c3bd 8aa7 9abc e22a 6cbb
00000240: 42b2 9abe 7aec 2a3e 1d6b 9b3c 2e85 ee3c
00000250: dee5 79bb 61f7 b5be 264f 73bd 5bb7 453e
00000260: 35fe 1a3d 42a5 243d 002b 533e 6089 403d
00000270: 13d5 6f3e 37d3 07bd 712f 11be 6de6 3fbc
00000280: ce99 14be 09ca 16bd 6eeb 573e bcea 4fbc
00000290: 3e10 7cbd 5c0a 23be d9d8 063e 2506 bb3d
000002a0: 8446 503e e657 b83e a345 94be bf2f 933e
000002b0: a32f 67bc ac99 4c3e fa89 373e b033 6f3e
000002c0: e090 ed3e b5af 0b3c 98f6 fa3e a0d0 ca3e
000002d0: 1b1e 11be 1ea9 bc3e 522a 8b3e 29e4 703e
000002e0: cf11 403e e928 143e e6da d93d 5cd3 4e3e
000002f0: 81f3 b93c 601c cbbd aacf 97bd 7e4e 483e
00000300: 260d 5cbd 2478 713d adae 15be 26fb 423e
00000310: 2865 08bd c282 d83d 9a4f 0bbd d2b6 90bd
00000320: 3684 b73d 54ed 2f3e 822a e23d f845 053d
00000330: 79c3 25be d30d 6dbd b21a 9a3c aad8 bb3d
00000340: b574 77bc 034e 943c b7bf b73c d54d 363e
00000350: 8323 d0bd 3e1c 62bd e39c 6a3d a54b cf3d
00000360: edc9 693e 1312 b73d 1d5e f13d 596a a83d
00000370: 5c01 e33c b553 65be e5d4 e23d 3f9f 88bd
00000380: 2fe3 c3bd fa77 5a3e 337d 6fbd ac6f e7bd
00000390: c99c 50be a1b6 28be 7dc7 dd3c edbc 663d
000003a0: 14b4 ce3e d7d8 563d 538c e7bd 1a1f 3e3e
000003b0: 13f9 02be f359 58bd 7a66 9fbd ac87 36bd
000003c0: 1437 ce3d 186f d1bd 87a7 7a3e d226 ba3d
000003d0: 7972 c2be a32a ba3d b694 073e a71c 9b3d
000003e0: 1a69 8a3b 8ff8 a43e 8976 08bd 2275 753e
000003f0: 395d 873d 1e11 c1be 9cdc 3ebd 7226 22bc
-0.27604824 0.048691444 0.0017818756 0.05703591 0.03989703 -0.014908381 0.040952004 0.20508745
0.075906515 -0.03337581 -0.22826114 0.11348378 -0.010289914 0.1390621 -0.1865807 0.089753784
0.09132636 0.24681504 0.13088983 0.07189074 -0.1624248 -0.02528169 0.20209801 0.07972174
0.096445665 0.08749274 0.023266612 0.2357288 0.04170509 -0.06792049 -0.3439031 0.035963878
0.2528866 -0.35994735 0.0059404196 -0.11790463 0.2585152 -0.0372528 -0.03817474 -0.17779651
-0.40801066 -0.12686102 0.19415765 -0.2951453 0.006088515 -0.08034856 0.080196284 0.016605303
0.38929915 0.13752134 -0.25395396 -0.22658996 0.031668626 0.056165546 -0.07032703 -0.13185473
-0.09766253 -0.16776752 -0.37069958 -0.097459696 -0.12781453 0.19973135 0.29503414 -0.18981671
0.19343294 -0.48387316 0.081059955 0.16122493 0.21872771 -0.09789709 -0.20400006 0.0621038
-0.085307665 0.13295218 -0.1058082 -0.10603138 0.19670498 0.045120925 -0.18581292 0.11606836
-0.11110855 -0.051013347 -0.07367606 0.24061766 0.041931774 0.12911265 0.07674454 -0.44774604
-0.18468928 -0.1740897 -0.26463458 -0.1792454 0.18827349 0.1284425 0.30959108 -0.069650516
0.09119807 0.085954316 -0.23657918 0.31127277 -0.46627873 -0.037855424 0.0694801 -0.103331536
-0.25561962 0.33697575 0.06946052 0.06965109 -0.055223126 -0.055075116 0.074417144 -0.10717758
-0.29378843 -0.28706384 0.04128424 0.24161212 -0.4378515 -0.6084283 0.10200075 0.103905365
0.11307113 0.1503755 0.11201764 0.030309359 0.27309787 -0.41852754 0.13812159 0.14785656
0.090606526 0.13009161 -0.008352506 0.06326767 -0.026888177 0.23444884 0.03228507 -0.10361664
-0.03256742 -0.025569601 0.107933044 -0.037556622 -0.1284162 -0.09556506 -0.018878717 -0.0036036302
-0.30214125 0.16691771 0.018971974 0.02911624 -0.0038131396 -0.35540298 -0.059401654 0.19308226
0.037840087 0.040196665 0.20621872 0.04700601 0.23421125 -0.033160415 -0.14178254 -0.011712653
-0.14511797 -0.03681377 0.21085903 -0.012690242 -0.061538927 -0.1592192 0.13168658 0.09132031
0.203394 0.3600456 -0.2895938 0.28747365 -0.014110479 0.19980496 0.17923728 0.23359561
0.46399593 0.008525779 0.4901626 0.39612293 -0.1417164 0.36847776 0.27180725 0.23524536
0.18756793 0.14468731 0.10637455 0.20197815 0.02269912 -0.099175215 -0.07412656 0.19561192
-0.053723477 0.058952466 -0.14617415 0.19041118 -0.033299595 0.10571815 -0.03401146 -0.0706612
0.08960764 0.17180377 0.11043264 0.03253743 -0.16187848 -0.057874512 0.018811557 0.09172185
-0.015103509 0.018103605 0.022430284 0.17803128 -0.10163023 -0.055202715 0.057278525 0.1012185
0.22830935 0.08938994 0.11785529 0.08223409 0.02771061 -0.22395213 0.11075763 -0.06670999
-0.09564816 0.2133483 -0.05846901 -0.113005966 -0.20372309 -0.16475917 0.027072662 0.056332517
0.40371764 0.05245289 -0.113060616 0.18566552 -0.12790327 -0.052820157 -0.07783218 -0.04456298
0.10069099 -0.102262676 0.24477969 0.09089436 -0.3797796 0.090901636 0.13240322 0.075738244
0.004223955 0.32220885 -0.03331617 0.23970464 0.06609578 -0.37708372 -0.04659711 -0.009896861

layers.1.mlp_edge_conv.gconv.convs.<stroke___ordered_next___stroke>.nn.0.bias f4 [64]
00000000: 707f 64bd dd12 503e 0593 9abd 53e6 093e
00000010: 160b cc3d 4df2 83bd 18cc 283c 25d3 6d3e
00000020: 2d14 b3bd 8ecb 2bbe 61f8 22be 9320 c13d
00000030: 6fbf 3b3e 4f65 4d3e d67f f23a 23e8 68be
00000040: 0bfe 223e ae8b 09be b7ee 73be 058f 483d
00000050: 12a5 df3d e0b8 d33d 85df 243e c3e2 bdbd
00000060: 12ec 763c a1c5 813d e3e3 1fbd 4f7b 8dbd
00000070: e60d 0abe a952 813e fe03 433c 6f7e e23a
00000080: e154 6bbe 250c 85bb a942 07be 0b3a c23c
00000090: cfc8 8bbd a155 18be eb09 95bd d8e5 abbd
000000a0: 667e dcbd 442b 83bd 74a7 4d3c 9427 cebd
000000b0: e7fb 073e 5ba3 2dbe 6d77 8fbd f1bb ab3d
000000c0: 6942 28bc 8279 443e af34 adbe cb6f 853e
000000d0: e30f b9bd 14ea df3d 70de 55be 872b 183e
000000e0: b4ff 9fbd 6f9c 60be d5cd 7dbe e6a2 01be
000000f0: b301 50be 1324 9a3d 91a9 10be 3d3f 193d
-0.055785596 0.20319696 -0.07547573 0.13466768 0.09963052 -0.064426996 0.010302566 0.23225076
-0.087440826 -0.16776869 -0.15915062 0.09430041 0.18334745 0.20058177 0.0018501233 -0.22744803
0.15917222 -0.1343219 -0.23821531 0.04896452 0.109201565 0.103379965 0.16100891 -0.09271767
0.015070932 0.06336523 -0.03903569 -0.06908285 -0.13481864 0.25258377 0.011902807 0.0017280112
-0.22981597 -0.0040602856 -0.13209023 0.023709318 -0.068254106 -0.14876415 -0.07277282 -0.083934486
-0.10766296 -0.06404737 0.012552131 -0.10066143 0.13279687 -0.16956846 -0.070052005 0.08385456
-0.01026974 0.19186977 -0.33829257 0.26061854 -0.09036233 0.10933319 -0.20885634 0.14860354
-0.078124434 -0.21934675 -0.2478555 -0.12659797 -0.20313148 0.07526412 -0.14127184 0.037413824

layers.1.mlp_edge_conv.gconv.convs.<stroke___connected_to___stroke>.nn.0.weight f4 [64, 64]
00000000: 47c4 153e 76c8 26bd 1117 c63d 3730 9b3d
00000010: 0927 f63d 9840 1d3d dc0c e93d bf27 6abc
00000020: 4537 9cbd ef28 49bd 7ff3 5e3d 7757 ecbc
00000030: 3679 413e cc7f 223a a72b 12be 54eb d93d
00000040: 6fff 6a3e 0c18 7d3c ff77 b7bd 05b8 163e
00000050: 36e4 c73e d4a6 903d c488 9c3d 57d6 093e
00000060: 5516 95bd ad5f 7abd bb49 35be 6b8b b9bd
00000070: e969 85bd 7466 883e f1ed 583e 5318 4a3e
00000080: 3c23 15bd 9fce 903e 1e70 153d 274f 193e
00000090: d8df 8fbe 8bd8 8f3c badb 5e3e 2a9e 873e
000000a0: e03f 4f3e ca31 8a3e 75bd 12be 1f25 ad3c
000000b0: 6828 0a3e dd8b 453d 2b92 883e 04d2 233d
000000c0: ec5b e1be 09b4 dabc bf75 bf3d 6035 cf3d
000000d0: ba9e bebd d2be a0bc 4695 393d 46fc 503e
000000e0: c6f4 773e 1429 c33e 0358 7e3e 3ce5 5f3e
000000f0: ac08 5d3e f11e 18bf 36e3 03be 99c1 f13d
00000100: c958 81bd 6d68 cb3c a563 6abd ab90 bcbd
00000110: 0b82 39be f12f dabc 325b f1bd 52ea 14be
00000120: c034 e6bd 6fa6 3cbe 8492 0c3d 1d49 f2bb
00000130: c4e8 05bd 8060 2cbd 28f3 843d e110 bcbd
00000140: 51de f8bd b202 0dbb 0f46 0abc 1b4c f4bd
00000150: f3f5 8f3d 44e3 ddbd a588 84bd f895 6f3d
00000160: 48a0 cc3c 9fed 963d cc6a febd a045 11be
00000170: b5dc bf3d b9f5 373d 5482 cc3c d000 643c
00000180: bbac bdbc 59ce 113e 6793 d9bc 2537 92bd
00000190: a6ce 173e 8ad6 c63d ed32 b9bd b73d 3abd
000001a0: 911f d73d c6fe 923b 84ff fb3c 90b2 0d3e
000001b0: c902 1c3d f420 d5bd a636 f73c bc65 9d3a
000001c0: 55a3 e2bc 90d5 1c3d ca38 a93a 5f9a 9d3d
000001d0: ecf2 6ebd 45ed 73bd 4fb6 bcbc 8a4b 9c3d
000001e0: a09b 5abc 0d7e 78bd 8d1b 8c3d 706c 143e
000001f0: cf5f 77bd c9e9 d63d 41de 4fbd e322 a1bc
00000200: f66b 0c3e 477e 063c 7c2d f43d 4377 e23e
00000210: 1289 aebd 2b87 123e 8ea4 c53c a8ba 70bd
00000220: 7560 92bc 7e3d 653d 5c02 c2bd 01a8 c13b
00000230: 10ae 933e bca7 393d e0c8 723d 6698 0d3e
00000240: fadc 96bd 11a2 ba3c f002 1d3e 2df9 993d
00000250: 5828 8dbe 68cf cdbd 5ab8 423e 2c32 bc3a
00000260: b3e8 b0bd 98f4 953e bb19 abbc abcb a33d
00000270: 79e6 983e 6ed0 a7be 6401 c73d 347a 82bc
00000280: 4300 50be 7ce8 0a3f 220c 383e 0313 d93c
00000290: 4bec a4be ab26 0bbd 46bd 5d3e f7ca 7a3e
000002a0: 16f3 9c3e 1ae1 fd3e 4a7c 93be 08f6 663e
000002b0: c0e3 92bd 1d6d a53e 5949 013e 0539 533e
000002c0: 7cfb 153f 92bb a2bb 8b7b 2c3f b392 dc3e
000002d0: 86d5 9cbe 0fd4 92bd 045f 0a3e 8104 023e
000002e0: d11e 46bc 75f8 c53e 979d 363e 0023 0c3e
000002f0: 3aa7 a83d cd6c 11bf 0f18 12be efd4 183e
00000300: 710f 9c3d 1364 9abe ed2d b3bd 0931 7ebc
00000310: 12e8 343d 9a18 2c3e 700f ccbd 7ccb 42be
00000320: ebf5 43be f84e 95bd 27f4 473d b996 3dbe
00000330: e431 583d facc 47be f266 2abd b2de 733d
00000340: 3aa7 ae3d b5ed 25be 6026 c4bd a29d 8dbc
00000350: 1572 e83c e683 85bd c03a c0bc 88ce aabd
00000360: b10c 72bb 3606 65be 4c82 85be 3686 8dbd
00000370: b1ce 24bd 882a fcbd 9416 8f3d 39b9 02bd
00000380: 2c80 483e 8c68 fd3e 09b3 6d3d e831 35be
00000390: ec6b 703e 7747 c6bb 3f4f cbbd 597f 06be
000003a0: 4e66 8dbe 5223 44be 2f7f 6d3e 7ddc 8bbd
000003b0: ade6 463e 592f 63be afd2 e2bd dbfa f6bc
000003c0: 0af8 a8be be12 95be 665d b6be 233c b6be
000003d0: 92c3 093e 0273 b83e 483c 0fbe fb2f 9d3e
000003e0: deda 7ebd e544 e73d b460 87bd 61d4 63bd
000003f0: 0e9c 013d d3d4 c83e 1b0d 613e adc9 603d
0.14625655 -0.04071852 0.09672368 0.075775556 0.12019164 0.03839168 0.11379406 -0.014291703
-0.07627729 -0.049111303 0.054431435 -0.0288503 0.18893895 0.0006198853 -0.14274465 0.106405884
0.22949003 0.015447628 -0.08958434 0.14718635 0.390413 0.0706307 0.076432735 0.1346067
-0.0727965 -0.0611264 -0.17703907 -0.09059795 -0.065143414 0.26640666 0.21184517 0.19735841
-0.036410555 0.2828264 0.036483876 0.149716 -0.28100467 0.01755931 0.21763507 0.26487857
0.2023921 0.2699111 -0.14330085 0.021135865 0.13491976 0.048229087 0.26674017 0.03999521
-0.44015443 -0.026697176 0.0934863 0.10117602 -0.093076184 -0.01962224 0.045308374 0.20408735
0.24214467 0.38117278 0.24838261 0.2186479 0.2158534 -0.5942221 -0.12879643 0.11804504
-0.063157625 0.024830068 -0.057223935 -0.09207281 -0.18116014 -0.026634188 -0.11784972 -0.14542511
-0.1124053 -0.18422864 0.034319416 -0.0073939697 -0.032692686 -0.042084217 0.06491691 -0.09182907
-0.121517785 -0.00215165 -0.008439555 -0.119285785 0.07029333 -0.10834363 -0.064713754 0.05849263
0.024978772 0.073695414 -0.12422714 -0.14186716 0.093682684 0.044912074 0.024964489 0.013916209
-0.023153653 0.14238872 -0.026559545 -0.07139424 0.14824924 0.09708889 -0.090429164 -0.045469012
0.10504068 0.0044859378 0.030761488 0.13837647 0.038088594 -0.10406676 0.030177426 0.0012008469
-0.027665773 0.038289607 0.0012910601 0.076954596 -0.058337137 -0.05955245 -0.02303615 0.076315954
-0.013342768 -0.060667086 0.068411924 0.1449449 -0.060394105 0.1049381 -0.050749067 -0.019669956
0.13713059 0.008208818 0.11922738 0.44231614 -0.08522238 0.14309375 0.024126317 -0.05877176
-0.01786826 0.055966847 -0.09473106 0.00590992 0.28843737 0.04532598 0.0592736 0.13827667
-0.07366367 0.022782357 0.15333152 0.0751823 -0.27569842 -0.10049325 0.19015637 0.0014358214
-0.08638134 0.29288173 -0.020886293 0.07997831 0.29863337 -0.32776207 0.09717062 -0.015927412
-0.203126 0.54260993 0.17973378 0.026498323 -0.32211527 -0.033972424 0.21654233 0.24491487
0.3065421 0.495858 -0.28805763 0.22554791 -0.07172346 0.3230981 0.12625636 0.2062722
0.5858686 -0.004966208 0.6737601 0.43080673 -0.30631655 -0.07169353 0.13512808 0.1269703
-0.012092308 0.3866612 0.17833553 0.13685226 0.08235021 -0.5680664 -0.1426699 0.14924978
0.07620133 -0.30154476 -0.08748994 -0.015514621 0.044166632 0.1680626 -0.09963882 -0.19022936
-0.19136779 -0.07290453 0.048816826 -0.18514527 0.052781954 -0.19511786 -0.041602083 0.05953855
0.0852799 -0.1620396 -0.09577632 -0.01728708 0.028374711 -0.06519298 -0.023465514 -0.08340174
-0.0036933834 -0.2236565 -0.2607597 -0.06910364 -0.04023618 -0.123128 0.06986728 -0.031914923
0.19580144 0.49493825 0.05803207 -0.17694819 0.23478669 -0.0060509997 -0.09927224 -0.13134517
-0.27617115 -0.19154099 0.23193048 -0.06829164 0.19423933 -0.2218603 -0.11075341 -0.030148914
-0.3300174 -0.29115862 -0.35618132 -0.35592756 0.1345351 0.36025244 -0.13987839 0.3070067
-0.062220447 0.112924375 -0.066102415 -0.055622462 0.031642966 0.39224872 0.21977656 0.054879833

layers.1.mlp_edge_conv.gconv.convs.<stroke___connected_to___stroke>.nn.0.bias f4 [64]
00000000: e917 fa3d 240f 24be ea8a cdbc df27 883d
00000010: 9c86 a33d 7eed 833d 97a7 debd e33b 92bd
00000020: 148c e2bb 8bac 033c 7eda a33d 8861 143e
00000030: 7055 173d e2e0 3abe ee0e 21bd 6d81 903e
00000040: 99e4 6ebd 029e e23d b4c9 373d 49cf 1dbd
00000050: 0616 283e 1e53 35be 839a a43c fc04 783e
00000060: 4f7a 0a3e 1cde b9bd 0832 f53d 5292 233e
00000070: e893 5bbe 5ffc 303e 6770 7cbc 8e59 b63c
00000080: 614d 193e 270d acbc 795a 3ebe 3465 9cbb
00000090: e0a9 dc3d 9e94 80bd 5b87 0cbd a3f6 0bbe
000000a0: da8e 8a3c d653 33be 84a4 15be 2c7f a93d
000000b0: 90d6 7fbd 127d 5cbd 3f95 79bd 9261 923d
000000c0: d836 ad3d 0060 f8bd a59b 543d e0a1 203e
000000d0: f151 ac3d 6d7f dabd 6b52 88bd 0eeb 373d
000000e0: 4b9f 48bd 4852 9db9 5457 d73d 95ce 90bd
000000f0: 8462 323e 0f7e 4e3d 674f df3d acb6 0ebe
0.12211592 -0.160214 -0.025090653 0.0664823 0.07984659 0.064417824 -0.10871809 -0.07140329
-0.0069136713 0.008036743 0.080006585 0.1449033 0.036946714 -0.18249848 -0.03932088 0.28223744
-0.058323476 0.11065294 0.044870093 -0.03852776 0.16414651 -0.17707488 0.020093208 0.24220651
0.1352322 -0.09075567 0.11972433 0.15973786 -0.2144314 0.17283772 -0.015407658 0.0222595
0.14970924 -0.021002365 -0.185892 -0.0047728065 0.107745886 -0.062783465 -0.034308773 -0.13668303
0.01691382 -0.1751245 -0.14613539 0.08276209 -0.062460482 -0.053830214 -0.060933348 0.07147516
0.08457726 -0.121276855 0.051906247 0.1568675 0.084140666 -0.10668836 -0.06656345 0.0449019
-0.04898004 -0.00030006678 0.105147034 -0.070706524 0.17420393 0.050413188 0.10903817 -0.13936871
