checkpoints/reduce_construction/graph_decoder.pth (torch, 44420 bytes, 5 tensors)

decoder.0.weight f4 [128, 64]
0	0xbeed34e0	-0.46329403
1	0x3d0f5369	0.034991655
2	0x3d756203	0.059907924
3	0xbcd9d190	-0.026589185
4	0x3de4d3f8	0.11173242
5	0x3e0876ff	0.13326643
6	0x3e2e1d63	0.17003398
7	0x3d936a3f	0.07197999
8	0xbea0f73d	-0.31438628
9	0xbf023fe2	-0.5087873
10	0xbc60f23a	-0.013729626
11	0xbe2932c8	-0.16523278
12	0xbd836c78	-0.06417173
13	0xbedf541b	-0.43618855
14	0x3e303ee6	0.17211494
15	0xbe10f145	-0.14154537
16	0x3dbec850	0.0931555
17	0x3e824ae6	0.25447768
18	0xbc5f876a	-0.013643125
19	0xbe431d98	-0.19054258
20	0xbd746e74	-0.05967565
21	0xbb1ddc97	-0.002408778
22	0xbe35ec53	-0.17765932
23	0xbe03e0b3	-0.12878685
24	0xbece9545	-0.4034826
25	0x3dc7b6c5	0.097516574
26	0x3d237db7	0.039914813
27	0x3e47a2d2	0.19495705
28	0x3e89d5d1	0.2692094
29	0x3e117e49	0.1420833
30	0xbd9e6d36	-0.07735674
31	0xbe461a0e	-0.19345877
32	0x3b9e6b38	0.004834559
33	0xbe0ddc6a	-0.13853613
34	0xbdc977ed	-0.09837327
35	0xbe313400	-0.17304993
36	0xbcfc3da3	-0.03079111
37	0xbc0dd909	-0.008657702
38	0x3e494064	0.1965347
39	0xbcecb255	-0.02889363
40	0x3e6d9009	0.23199476
41	0xbe96c481	-0.29446796
42	0x3de9f60e	0.11423884
43	0xbe14eedf	-0.14544247
44	0x3e227655	0.15865453
45	0x3e42804e	0.18994257
46	0xbdea6435	-0.11444894
47	0xbe19d7db	-0.15023749
48	0xbd90e791	-0.07075418
49	0x3d1c6d72	0.038190313
50	0x3ba0e512	0.00491012
51	0x3e272ac8	0.16324914
52	0x3e44f538	0.19234169
53	0xbe440b92	-0.19145039
54	0x3cdba51f	0.026812134
55	0xbcd8f5d1	-0.026484402
56	0x3e55aca1	0.20866634
57	0x3e4a8da9	0.19780602
58	0xbe308276	-0.17237267
59	0x3de649a7	0.11244517
60	0xbde82be5	-0.11336497
61	0xbe9f1915	-0.31073824
62	0xbf0e4667	-0.55576175
63	0x3db4de4f	0.088314645
64	0x3d3aa685	0.04556896
65	0x3db95cb6	0.09050886
66	0x3dc9e02a	0.09857209
67	0xbe03fb96	-0.12888941
68	0xbd606093	-0.0547796
69	0xbd575e50	-0.052580178
70	0x3dc830d3	0.097749375
71	0xbdcfdab2	-0.10149135
72	0xbda97e1f	-0.08276009
73	0xba877393	-0.0010334126
74	0xbe375f04	-0.1790734
75	0x3d345f22	0.04403604
76	0xbdbd8b80	-0.09255123
77	0xbe04310f	-0.1290934
78	0x3d20107f	0.039078232
79	0x3da60880	0.0810709
80	0xbd614dbd	-0.055005778
81	0x3e763e29	0.2404715
82	0xbdbce72c	-0.0922378
83	0x3e17f36f	0.14838956
84	0x3da6c42a	0.08142884
85	0x3c8aeaa7	0.016957594
86	0x3d9f7b31	0.07787169
87	0xbda3d92e	-0.08000408
88	0xbd4e4712	-0.050360747
89	0xbb53c10c	-0.003231111
90	0x3dcae38f	0.099066846
91	0x3ce34817	0.027744336
92	0x3db0caa1	0.086323984
93	0xbe27f95b	-0.16403715
94	0x3ddfd48e	0.109292135
95	0x3c970d7e	0.01843905
96	0xbdd1a33a	-0.10236211
97	0xbdcd4db3	-0.100245856
98	0x3da9d1ba	0.08291955
99	0x3e22fa03	0.15915684
100	0xbe085c6a	-0.13316503
101	0xbc735b52	-0.014853315
102	0xbdddd78e	-0.108321294
103	0xbdbc7afd	-0.09203146
104	0x3d8b2d6a	0.067957714
105	0xbde14ac9	-0.11000592
106	0xbdb5657f	-0.088572495
107	0xbc341383	-0.01099098
108	0x3dc16d63	0.09444692
109	0x3db2d9dd	0.087329604
110	0xbc82ae78	-0.015952334
111	0xbd9df5e7	-0.07712918
112	0xbc264bf8	-0.010149948
113	0x3db3e803	0.08784487
114	0x3cd31568	0.025767043
115	0x3daa435d	0.0831363
116	0xbb7c22f0	-0.0038472973
117	0x3dd68fe9	0.104766674
118	0xbe131d58	-0.14366663
119	0x3e5b1e1a	0.21398202
120	0xbda7ede9	-0.08199675
121	0xbcb78606	-0.022402775
122	0xbcc16ee4	-0.023612447
123	0x3d9b4eee	0.07583414
124	0xbdf3956c	-0.11893734
125	0x3da07bd6	0.0783612
126	0xbd9f0c67	-0.077660374
127	0xbdb97dfb	-0.09057232
128	0x3d7b55f2	0.06136126
129	0x3e15b542	0.14619926
130	0x3e003ff9	0.12524404
131	0xbd947f9e	-0.072509035
132	0xbd67f35b	-0.056628566
133	0x3dd47b58	0.103750885
134	0xbe1414c0	-0.1446104
135	0xbd2d7523	-0.04234804
136	0x3a4b3fa3	0.0007753318
137	0xbdbbdca8	-0.09172946
138	0xbea4a5e1	-0.32157806
139	0xbe04a8e7	-0.12955056
140	0x3d98790a	0.07444961
141	0x3e0b744a	0.1361858
142	0x3d3dc79f	0.04633295
143	0xbdcb4a61	-0.09926296
144	0x3b807127	0.003919739
145	0x3e28e0de	0.1649203
146	0xbd4685e0	-0.048467517
147	0xbe5ef77e	-0.21774098
148	0xbe08110d	-0.13287754
149	0x3d9f9fdf	0.07794165
150	0xbdd0d538	-0.10196918
151	0x3e080503	0.13283162
152	0xbe06b5ac	-0.1315524
153	0xbdce98c0	-0.100877285
154	0xbcc7634d	-0.024339342
155	0x3e0bbdd4	0.13646632
156	0x3dae1a92	0.08501162
157	0x3d5d22cc	0.053988263
158	0xbe3b33b9	-0.1828145
159	0xbca644a4	-0.020296402
160	0x3e3bad1f	0.18327759
161	0xbe4f6997	-0.20255123
162	0x3e8008b9	0.25006655
163	0x3e07d5ce	0.13265154
164	0xbd8652ac	-0.06558737
165	0xbced61af	-0.028977243
166	0xbcdfc67e	-0.027316328
167	0xbd89d196	-0.067294285
168	0x3e1104e1	0.14162017
169	0xbea00293	-0.31251964
170	0xbda621f4	-0.08111945
171	0x3dedc290	0.116093755
172	0x3dd526a8	0.10407764
173	0x3daaa19d	0.083316065
174	0xbe005fb6	-0.12536511
175	0xbd19ca17	-0.037546244
176	0xbb99d9ea	-0.004695167
177	0xbc887a7e	-0.016659971
178	0xbcd829e8	-0.02638717
179	0xbde6b683	-0.1126528
180	0xbe19ed7a	-0.15031996
181	0xbd4da87d	-0.05020951
182	0xbe7ea9fc	-0.24869531
183	0xbc4e9e1f	-0.012610941
184	0x3cdc1fb4	0.026870586
185	0x3d81629e	0.06317638
186	0xbe40b550	-0.18819165
187	0x3d2f3ce5	0.042782683
188	0x3c461b8e	0.0120915305
189	0xbbb03ff9	-0.00537872
190	0xbd3b01c7	-0.045655992
191	0x3d798152	0.060914345
192	0xbdfa8760	-0.12232852
193	0x3c87b7c8	0.016567126
194	0x3d51be84	0.05120708
195	0xbd7fabcc	-0.062419698
196	0x3df22e22	0.118252054
197	0xbd0d4678	-0.034491032
198	0x3ac74800	0.0015203953
199	0xbdcdc4c8	-0.10047299
200	0xbdb7ee16	-0.08980958
201	0xbdf21f2c	-0.11822352
202	0xbdd9c832	-0.10633887
203	0x3c6f3730	0.01460056
204	0xbdbb3ab2	-0.091420546
205	0x3de4bb22	0.11168505
206	0x3dccb240	0.09994936
207	0xbc2bcb10	-0.010485426
208	0x3c82d9e0	0.015973032
209	0x3d8a8ca4	0.06765106
210	0xbdc1de52	-0.09466232
211	0xbd6f02f0	-0.05835241
212	0x3cf5ee20	0.030020773
213	0x3c3819a0	0.011236578
214	0xbcbd2a40	-0.023091435
215	0xbd0484ec	-0.032353327
216	0xbdcbeff2	-0.09957875
217	0xbdc64516	-0.09681146
218	0x3ce923e0	0.02845949
219	0x3d65dc40	0.05611825
220	0x3d6d3f00	0.05792141
221	0xbd6800a4	-0.056641236
222	0x3dcb81fc	0.09936902
223	0x3db0eadc	0.08638546
224	0xbd2f7d14	-0.042843893
225	0x3ceff360	0.029290855
226	0x3d688c10	0.0567742
227	0x3da28938	0.07936329
228	0xbd9aeaf4	-0.07564345
229	0xbde169ee	-0.110065326
230	0xbc7f6150	-0.015587166
231	0xbcddbf70	-0.027068824
232	0x3dcaff18	0.099119365
233	0x3d304da4	0.043042794
234	0xbd27a74c	-0.04093103
235	0xbb855fe0	-0.004070267
236	0xbdda2756	-0.10652034
237	0xbd8b9846	-0.06816153
238	0xbd39e58c	-0.04538493
239	0xbd5eb7e8	-0.054374605
240	0xbc274c70	-0.010211095
241	0xbda6d81c	-0.08146688
242	0xbcc2ad10	-0.023764163
243	0xbd6d8e84	-0.05799724
244	0xbda78f4a	-0.08181627
245	0xbbc1c400	-0.0059132576
246	0x3d51badc	0.051203594
247	0xbc6287e0	-0.01382634
248	0xbd9cb502	-0.07651712
249	0xbdfb1426	-0.122597024
250	0xbde28f84	-0.1106253
251	0xbdf916f2	-0.121625796
252	0xbcc20360	-0.02368325
253	0x3d396bd8	0.045268863
254	0xbd419d90	-0.047269404
255	0x3da6204c	0.08111629

decoder.0.bias f4 [128]
0	0x3df73cb5	0.12072126
1	0xbd89bc17	-0.067253284
2	0xbd56ea41	-0.052469496
3	0xbdb67682	-0.08909322
4	0x3da40950	0.08009589
5	0x3e12118d	0.14264508
6	0xbe280456	-0.16407904
7	0xbe7fcf39	-0.24981393
8	0x3da4bffb	0.0804443
9	0xbdd36217	-0.103214435
10	0x3d85ceed	0.065336086
11	0x3d6d16a9	0.05788294
12	0x3e1108e2	0.14163545
13	0x3d2f4bf2	0.042797036
14	0x3d5e59c6	0.054284833
15	0x3dbc53b5	0.09195653
16	0x3c6e5273	0.014546025
17	0xbdeef2e7	-0.11667424
18	0xbe32ff46	-0.17480192
19	0x3ddb5645	0.10709814
20	0xbe1dd4f0	-0.1541326
21	0x3ce4c1c9	0.027924435
22	0xbd2574f7	-0.04039475
23	0xbe088ca9	-0.13334908
24	0x3e3a9002	0.18218997
25	0x3d8eecae	0.06978737
26	0xbd9eae47	-0.077480845
27	0x3d85ed44	0.065393955
28	0xbdd43239	-0.10361142
29	0x3c896627	0.016772343
30	0x3e5606c7	0.20901023
31	0x3d236cc7	0.03989866
32	0x3de5854d	0.11207066
33	0x3d23ab05	0.03995802
34	0xbe12411e	-0.14282653
35	0x3e09d663	0.13460688
36	0x3dcbc7b2	0.09950198
37	0xbc9a7f04	-0.018859394
38	0xbdf92f36	-0.12167208
39	0x3e073f6b	0.13207786
40	0xbcc896ae	-0.024485912
41	0x3d9b2a71	0.075764544
42	0xbc91ec96	-0.017813008
43	0x3c12faec	0.008970957
44	0x3ddc037f	0.10742854
45	0x3d9c077c	0.07618615
46	0x3daef510	0.08542836
47	0xbd0b5465	-0.03401603
48	0xbd7609cd	-0.06006794
49	0x3d1cb6e3	0.038260352
50	0xbdb37cae	-0.08764015
51	0x3db25867	0.08708268
52	0x3d441095	0.047867376
53	0x3e31bdc7	0.1735755
54	0xbded9fb7	-0.11602729
55	0xbc605538	-0.013692193
56	0x3da93eac	0.08263907
57	0xbb4851ea	-0.0030566403
58	0xbdc7c09f	-0.097535364
59	0xbc332ba4	-0.010935698
60	0x3dd7459c	0.10511324
61	0xbd46eea3	-0.048567425
62	0xbcac3e32	-0.02102575
63	0x3c2113c9	0.009831377
64	0xbc83ea8d	-0.016103053
65	0xbdb8c312	-0.09021582
66	0x3dac621e	0.08417152
67	0x3de2f4cf	0.1108185
68	0xbd1c3e02	-0.038145073
69	0x3c8a5814	0.016887702
70	0x3d0f0190	0.0349136
71	0xbde17099	-0.110078044
72	0x3e3e995c	0.1861319
73	0x3e116c2d	0.14201422
74	0xbc725e7a	-0.014793033
75	0x3e318bb5	0.1733845
76	0x3a517d76	0.00079914124
77	0x3db0abe8	0.086265385
78	0xbd00ea9d	-0.031473745
79	0x3dd8be02	0.10583116
80	0x3c4ac120	0.012375146
81	0x3e11042e	0.1416175
82	0xbd70f2e0	-0.058825374
83	0xbc3d53e9	-0.01155565
84	0x3c6896f0	0.014196143
85	0xbd532aae	-0.051554374
86	0xbcda92b8	-0.02668129
87	0x3e49df83	0.19714169
88	0x3de36319	0.11102886
89	0x3dc77feb	0.09741195
90	0xbda4a9f3	-0.08040228
91	0x3e0e9d4e	0.13927194
92	0x3de83113	0.11337485
93	0xbdfff427	-0.1249774
94	0x3d35d99a	0.044396974
95	0xbdf2be45	-0.11852697
96	0xbc35eff2	-0.011104571
97	0x3dd31c27	0.10308104
98	0x3d63e6c0	0.055639982
99	0x3e031150	0.12799573
100	0xbc88c80c	-0.016696952
101	0x3e493928	0.1965071
102	0x3c4c203e	0.012458859
103	0x3d125618	0.035726637
104	0xbd9b14ae	-0.07572304
105	0xbdb863ec	-0.090034336
106	0x3e169a1d	0.14707227
107	0xbe550de2	-0.20806077
108	0xbd5d785d	-0.054069865
109	0x3d6993ab	0.057025593
110	0x3e19f036	0.1503304
111	0xbe23cfa7	-0.15997182
112	0xbd1d64a0	-0.03842604
113	0x3dcb4e1c	0.099270076
114	0x3dc538ed	0.09629998
115	0xbd6ef06e	-0.05833476
116	0xbd28975b	-0.04115997
117	0x3d35e269	0.044405375
118	0xbe1fe3ab	-0.15614192
119	0x3e49c9bf	0.19705866
120	0x3d25d500	0.040486336
121	0xbe0b0784	-0.13577086
122	0xbd5674e9	-0.052357588
123	0xbcf5abe6	-0.029989194
124	0xbdf9aad0	-0.12190783
125	0xbe281858	-0.16415536
126	0xbd5cfaa2	-0.05394996
127	0x3ccfced8	0.025367185

decoder.3.weight f4 [16, 128]
0	0x3e479850	0.19491696
1	0x3da776e0	0.081769705
2	0x3cdbd04c	0.026832722
3	0x3db3c4e3	0.087777875
4	0x3c02f93b	0.0079939915
5	0x3db82803	0.08992007
6	0xbd09b028	-0.03361526
7	0x3e1b0891	0.15139987
8	0x3e4c8940	0.19974232
9	0xbcb17dd1	-0.02166644
10	0x3d95b4b7	0.07309859
11	0xbd9fd602	-0.078044906
12	0xbd275d16	-0.040860258
13	0x3c8b84aa	0.017031033
14	0xbda1daea	-0.07903083
15	0x3d859fc4	0.065246135
16	0x3df9055c	0.12159225
17	0xbd291628	-0.041280895
18	0x3d32edf2	0.043683954
19	0xbc2e03c7	-0.010621018
20	0xbdcbfe64	-0.099606305
21	0xbc981b1a	-0.01856761
22	0xbdcf2ede	-0.10116361
23	0x3e1008af	0.14065813
24	0xbd4f9ac0	-0.05068469
25	0x3d21119e	0.03932344
26	0x3d979bcb	0.07402762
27	0xbce6e2d5	-0.028184334
28	0x3d603142	0.054734476
29	0xbde60197	-0.11230772
30	0x3ddca4f8	0.10773653
31	0xbe07205c	-0.13195938
32	0xbb8ca816	-0.0042924983
33	0xbcc688ac	-0.024235092
34	0x3d2c717a	0.042100407
35	0xbd8959d0	-0.067065835
36	0xbda4c5c8	-0.08045536
37	0xbd4d8eb4	-0.05018492
38	0x3db59501	0.08866311
39	0xbd8ad638	-0.0677914
40	0xbd7c98cb	-0.061669152
41	0x3bdb863c	0.0066993516
42	0x3b9e052b	0.0048223934
43	0x3dbed542	0.093180194
44	0x3c1b9e25	0.009498154
45	0x3cbd2465	0.023088643
46	0x3e1999f1	0.1500013
47	0x3dc7bede	0.09753202
48	0xbc13f673	-0.009030926
49	0xbd2915dc	-0.041280612
50	0x39514b54	0.00019959855
51	0xbe80112a	-0.25013095
52	0xbd2c3e36	-0.042051516
53	0x3da9527f	0.08267688
54	0x3e1c4972	0.15262392
55	0xbcb8e054	-0.022567905
56	0x3e5890e1	0.21149017
57	0x3bd91c0a	0.006625657
58	0xbd4b7c48	-0.04967907
59	0x3b5c499c	0.003361321
60	0xbc83454c	-0.016024254
61	0x3e3dda57	0.18540321
62	0xbb254944	-0.0025220672
63	0xbbd12e97	-0.006383728
64	0x3bd740bc	0.0065689962
65	0x3d4217fd	0.04738616
66	0xbd285614	-0.041097715
67	0xbd25a732	-0.040442653
68	0x3d5364f7	0.05160996
69	0x3e6cb416	0.23115572
70	0xbb31b3c1	-0.0027115198
71	0xbcb8b387	-0.022546543
72	0x3ccf933a	0.025338758
73	0x3db60fdd	0.088897444
74	0xbdc5a479	-0.09650511
75	0x3de1144d	0.109902
76	0x3cf70c8f	0.030157356
77	0x3d4279f1	0.047479574
78	0xbbe6eeb3	-0.007047498
79	0x3de9ce8c	0.11416349
80	0x3e045910	0.129246
81	0xbc81cb96	-0.015844148
82	0xbde9e473	-0.11420526
83	0xbc25b9b1	-0.010115073
84	0x3da7beb4	0.081906706
85	0x3babf96e	0.00524824
86	0xbd8f5b82	-0.069998756
87	0x3e9b5959	0.30341604
88	0x3e6a088e	0.22854826
89	0xbd7e5591	-0.06209332
90	0x3de8706c	0.11349568
91	0xbcd11b93	-0.025525844
92	0x3de5e6ae	0.11225639
93	0xbd71292a	-0.058877148
94	0xbac680fa	-0.0015144639
95	0xbdab6d2b	-0.083704315
96	0x3d05ed33	0.032696914
97	0x3c92f6b9	0.017939912
98	0x3d655fb9	0.05599949
99	0x3d934051	0.07190002
100	0xbd327694	-0.043570116
101	0xbd0579ad	-0.032586742
102	0xbdeb9c12	-0.115043774
103	0xbd0d82b7	-0.034548488
104	0x3cda8b80	0.026677847
105	0xbcdace35	-0.026709655
106	0x3e660ba2	0.22465375
107	0x3daba3b9	0.08380837
108	0xbda837cb	-0.08213767
109	0x3e2fae1b	0.1715626
110	0x3d55a67b	0.05216072
111	0x3da5eb4a	0.081015185
112	0x3d7a94a2	0.061176904
113	0xbd2d0469	-0.042240534
114	0x3d24032f	0.0400421
115	0xbe404f8b	-0.18780343
116	0xbd6a3eed	-0.057188917
117	0x3d657e78	0.056028813
118	0x3e4d5360	0.20051336
119	0x3e494337	0.19654547
120	0x3be4f413	0.0069871037
121	0x3d0a1a09	0.033716235
122	0xbe4ac38e	-0.1980116
123	0x3d377c12	0.044796057
124	0x3d30d4b9	0.043171618
125	0xbd5f2e27	-0.054487374
126	0xbd062ac1	-0.032755617
127	0x3c613f6a	0.013748029
128	0x3d95cadf	0.07314085
129	0x3d25b8ee	0.040459566
130	0xbd68dbd3	-0.056850266
131	0xbd93aca4	-0.07210663
132	0xbd894748	-0.06703049
133	0xbcbecda4	-0.023291416
134	0xbd641595	-0.055684645
135	0xbd3a79a5	-0.045526166
136	0x3d62d839	0.055381987
137	0xbd805986	-0.06267075
138	0x3d2a94c5	0.041645784
139	0xbcae529e	-0.02127963
140	0x3c90a3bb	0.017656198
141	0xbc8f643a	-0.017503846
142	0x3d38cac9	0.045115266
143	0xbbfd89ff	-0.0077373977
144	0x3d54bf97	0.051940527
145	0xbdb0cf18	-0.0863325
146	0x3d9e1c3c	0.07720229
147	0x3d838a8f	0.06422912
148	0x3c9d31f5	0.01918886
149	0x3d65fa0d	0.05614667
150	0xbd11e4f2	-0.03561873
151	0xbd57a86f	-0.052650865
152	0xbd981fa7	-0.07427912
153	0xbdc65314	-0.09683815
154	0x3d342572	0.043981023
155	0x3d20ee1a	0.03928957
156	0xbdc53ce3	-0.09630754
157	0x3d28dd0e	0.04122644
158	0x3d9762c9	0.07391889
159	0x3dd3df8f	0.10345375
160	0xbde8acb4	-0.113610655
161	0xbd4aa894	-0.049477175
162	0x3d399db7	0.045316424
163	0x3cdf7a6d	0.027280057
164	0x3e02ebf7	0.12785326
165	0x3d236d3a	0.03989909
166	0x3cc52016	0.024063151
167	0x3d11bee7	0.03558245
168	0x3d4f5856	0.050621353
169	0x3d34f608	0.044179946
170	0x3d41f072	0.047348447
171	0xbdabdce0	-0.08391738
172	0x3d09ef77	0.033675637
173	0x3c2cf8eb	0.010557394
174	0xbc2994ae	-0.010350389
175	0x3caef943	0.021359092
176	0x3d2bcc0c	0.04194264
177	0xbd75038a	-0.05981783
178	0x3d821e0e	0.06353389
179	0x3da0e9c6	0.07857089
180	0x3da153e1	0.07877327
181	0x3d0a3e21	0.033750657
182	0x3d0618c6	0.03273847
183	0x3cefe258	0.029282734
184	0xbd06a8e6	-0.032875918
185	0xbd87eb80	-0.06636715
186	0xbd2a56c7	-0.041586664
187	0xbd1f6877	-0.038917985
188	0x3d706c69	0.058697138
189	0xbd26a435	-0.040683944
190	0x3d8e0b51	0.06935752
191	0x3d4b9f80	0.049712658
192	0x3d584d8b	0.052808326
193	0xbd0da8bb	-0.034584742
194	0xbd82e0fa	-0.06390567
195	0xbd21b8c2	-0.03948284
196	0x3d0e49ee	0.034738474
197	0x3c20fed3	0.00982638
198	0xbc82a380	-0.015947104
199	0x3da896c7	0.082318835
200	0xbde71f4f	-0.112852685
201	0xbde6c4f6	-0.11268036
202	0x3d014cd7	0.03156742
203	0xbcfc45ad	-0.030794943
204	0xba951664	-0.0011374471
205	0xbdb64f88	-0.08901888
206	0x3dfcf1ee	0.12350832
207	0xbd20e7fd	-0.03928374
208	0x3c8653f5	0.016397456
209	0xbdbcc150	-0.09216559
210	0x3c6c81d1	0.0144352475
211	0x3da31194	0.07962337
212	0x3d37edb2	0.04490442
213	0x3d7a7972	0.061150976
214	0xbcfab9d7	-0.030606193
215	0xbd013c0e	-0.031551413
216	0x3cfdd56c	0.030985557
217	0xbdb3ef74	-0.087859064
218	0xbb7d19f7	-0.0038620213
219	0xbdaf7eae	-0.08569084
220	0xbdd5d788	-0.104415
221	0xb93a83b2	-0.00017787403
222	0xbd5eb61c	-0.05437289
223	0x3d4fb967	0.050713923
224	0xbd35ce37	-0.044386115
225	0xbcc14498	-0.023592278
226	0xbd92ced1	-0.07168353
227	0xb959168c	-0.00020703132
228	0x3d1a3c55	0.037655193
229	0x3daa5d36	0.0831856
230	0xbd271955	-0.040795643
231	0xbd04a710	-0.032385886
232	0x3d9c7a87	0.07640558
233	0x3b9f6f38	0.004865553
234	0xbdbaff20	-0.091306925
235	0x3d0cc8ea	0.034371294
236	0x3c13e80d	0.009027493
237	0xbe30bb86	-0.17259035
238	0xbe0011ed	-0.12506838
239	0xbc84f4a1	-0.01622993
240	0x3d9e43ab	0.077277504
241	0x3d4d3e08	0.050107986
242	0xbdbd020b	-0.09228905
243	0x3e0995fe	0.13436124
244	0x3d346c48	0.044048578
245	0xbd06782d	-0.032829452
246	0x3d2da34c	0.04239206
247	0xbe005779	-0.12533368
248	0x3d634638	0.055486888
249	0x3ce4da4c	0.027936123
250	0x3cba1f65	0.022720048
251	0x3d4d46b6	0.050116263
252	0xbcd4f2ec	-0.02599474
253	0xbb81fc98	-0.003966879
254	0xbd3887f8	-0.045051545
255	0xbd335fd2	-0.043792553

decoder.3.bias f4 [16]
0	0x3c6bde92	0.014396327
1	0x3d7591cf	0.059953507
2	0x3e22db3e	0.15903947
3	0xbc31b165	-0.010845517
4	0xbdf0415b	-0.117312156
5	0x3dddd944	0.10832456
6	0xbaa777e8	-0.0012776824
7	0x3d2a3c23	0.041561257
8	0x3d970724	0.07374409
9	0xbdeb617d	-0.11493204
10	0x3da487cf	0.08033716
11	0xbc075a82	-0.008261325
12	0x3ddfad9d	0.10921786
13	0x3dd53ccb	0.10411986
14	0x3e039ea1	0.12853481
15	0x3ddc3147	0.107515864

decoder.5.weight f4 [1, 16]
0	0x3dba79d6	0.091052696
1	0xbdf28f63	-0.11843755
2	0x3e67140d	0.22566243
3	0xbe433450	-0.19062924
4	0xbe0824b9	-0.13295259
5	0x3e820d31	0.2540069
6	0x3ee7859a	0.45219117
7	0xbdf4d358	-0.11954373
8	0xbea79986	-0.32734317
9	0x3e2a9890	0.1665976
10	0x3e96fee4	0.2949134
11	0x3e0f1d0c	0.13975924
12	0x3ec61b5a	0.38692743
13	0xbec54e29	-0.38536194
14	0x3edb5f5c	0.4284619
15	0x3e48dc59	0.19615306
