checkpoints/reduce_construction/graph_decoder.pth (torch, 44420 bytes, 5 tensors)

decoder.0.weight f4 [128, 64]
0.043475516 -0.0027967189 -0.040290255 -0.036988482 -0.12044977 -0.029877348 0.06500123 -0.037184056
-0.075902395 -0.015074125 -0.11992854 -0.07682709 -0.016393622 0.084084935 0.015992237 0.07504755
-0.054325633 0.048719477 -0.04766126 -0.0045292997 -0.1778368 -0.08050363 0.07741613 0.07933527
0.058965035 -0.01734183 -0.03217469 -0.043250866 0.03932778 -0.09930918 -0.07184183 -0.06051315
0.010283297 0.08041836 -0.10943527 -0.14248848 -0.11724551 -0.07632812 -0.07349025 -0.054358125
-0.083352745 0.05422012 0.082356445 -0.08142484 0.031249607 -0.09317118 -0.025378074 -0.09556709
-0.09653439 -0.081554666 0.0038482284 -0.07841161 -0.037902337 0.026558392 0.016868452 -0.036998317
-0.016380914 0.010445701 -0.13852581 0.08406231 0.07288122 -0.080190554 0.06578673 -0.14338768
-0.048800107 -0.11205155 -0.19867632 -0.22842069 -0.07556013 0.04321173 -0.01796395 -0.14216648
0.01489308 -0.021996656 -0.063317984 0.047692265 0.044069696 -0.0008093076 0.11245338 -0.04962701
0.109386146 0.10058172 0.0848513 -0.16537343 -0.19993976 0.07905231 -0.06359979 0.11887089
-0.14682733 -0.16897121 0.031121382 -0.118977994 -0.014508413 0.07263842 -0.04210419 0.07806033
0.15825385 -0.02015739 0.023644242 -0.12727867 0.03976643 -0.09436617 0.08395405 0.105235614
0.053911306 -0.035542883 0.13164954 0.0013250271 -0.05965623 -0.08078738 -0.049639855 0.041396435
-0.0067371065 -0.0126497345 0.034123845 0.032107834 0.083584286 0.02500761 -0.091360494 -0.037118725
-0.07520804 0.06453244 -0.13350539 0.0867727 -0.048977546 0.024232319 -0.05607548 0.084572755
-0.10710417 -0.08233103 -0.030027054 0.008970159 0.0023366448 -0.13251664 0.044748347 -0.022113891
0.045207262 0.027653968 -0.0608993 -0.09314233 0.076794036 -0.037322856 -0.1219183 0.042831264
-0.066732444 -0.14576574 0.0269153 -0.03050407 -0.064819135 -0.06427078 0.064235546 -0.057799768
-0.105080396 -0.009992623 0.04179084 -0.06987624 -0.085647546 -0.051295333 -0.11778069 0.09306143
-0.11334154 0.013402379 -0.05011904 -0.07933391 0.0829919 -0.054193374 -0.017610004 0.006317531
0.052414972 -0.0651987 -0.07347334 -0.027486073 -0.022838317 0.043234896 0.00763953 -0.11096433
-0.02858023 -0.0039577396 -0.010208615 -0.034376357 0.024074944 0.06150997 0.08202529 0.037642926
-0.0032162466 0.032784402 -0.02525954 0.05546662 0.028223405 -0.07958408 -0.07836202 -0.16748892
0.22109291 0.048143722 0.115001425 -0.13147572 0.018268725 -0.08224453 -0.114685684 0.13162848
-0.031020328 -0.07688563 -0.03647266 0.045620564 -0.1393728 0.10687879 -0.08703538 -0.11470271
-0.026365478 0.10048484 -0.056115218 0.08399454 -0.11019958 -0.0016429496 -0.038364895 -0.11210455
-0.09597407 -0.021513002 -0.040620994 -0.10144745 -0.038811665 -0.05399163 -0.052817557 -0.028091742
0.10352105 -0.016178504 0.1031591 -0.03655187 0.08491094 0.14469822 0.079861216 0.10952249
-0.13770333 -0.050244417 0.046546396 -0.07063656 0.075379275 -0.14075597 -0.0029314538 0.03394813
0.10812542 0.12011923 -0.20704402 -0.14549886 -0.0012547707 -0.073377416 -0.052436817 0.060784064
-0.10189551 -0.008218246 -0.09689977 0.12877944 -0.17169265 0.07086143 0.09155524 0.07116338
00000000: 6213 323d 2849 37bb 6507 25bd 3c81 17bd
00000010: 5eae f6bd 57c1 f4bc 5d1f 853d 4f4e 18bd
00000020: b772 9bbd 76f9 76bc 189d f5bd 8557 9dbd
00000030: eb4b 86bc b934 ac3d 2702 833c 88b2 993d
00000040: 8e84 5ebd 138e 473d 7438 43bd 856a 94bb
00000050: da1a 36be 16df a4bd 598c 9e3d 887a a23d
00000060: 5285 713d 7410 8ebc 9cc9 03bd d227 31bd
00000070: 2b16 213d 9d62 cbbd cf21 93bd a3dc 77bd
00000080: 467b 283c 62b2 a43d 991f e0bd 80e8 11be
00000090: 6a1e f0bd eb51 9cbd 0e82 96bd a0a6 5ebd
000000a0: d8b4 aabd eb15 5e3d 7faa a83d 11c2 a6bd
000000b0: 2dff ff3c 88d0 bebd aee5 cfbc aeb8 c3bd
000000c0: d2b3 c5bd 2206 a7bd 8f32 7c3b 4496 a0bd
000000d0: 7b3f 1bbd fc90 d93c b52f 8a3c 8c8b 17bd
000000e0: 4431 86bc 7224 2b3c b6d9 0dbe dc28 ac3d
000000f0: c042 953d f23a a4bd 31bb 863d 38d4 12be
00000100: 9fe2 47bd 487b e5bd ce71 4bbe 1de7 69be
00000110: 45bf 9abd c8fe 303d 2229 93bc 1794 11be
00000120: 1b02 743c 5532 b4bc dcac 81bd f758 433d
00000130: 6d82 343d b727 54ba f54d e63d b145 4bbd
00000140: d805 e03d cafd cd3d 85c6 ad3d a757 29be
00000150: 02bd 4cbe 2de6 a13d 9b40 82bd 9572 f33d
00000160: e759 16be ca06 2dbe 45f2 fe3c bcaa f3bd
00000170: b2b4 6dbc 74c3 943d 7175 2cbd 18de 9f3d
00000180: 4c0d 223e 1c21 a5bc 92b1 c13c 5755 02be
00000190: 20e2 223d 0d43 c1bd 1af0 ab3d c585 d73d
000001a0: 1ad2 5c3d 6a95 11bd 23cf 063e 88ac ad3a
000001b0: 175a 74bd db73 a5bd 2953 4bbd 4f8f 293d
000001c0: f2c2 dcbb d540 4fbc 72c5 0b3d 8183 033d
000001d0: 3d2e ab3d c2dc cc3c 361b bbbd ce09 18bd
000001e0: ac06 9abd 9529 843d a3b5 08be e3b5 b13d
000001f0: ae9c 48bd db82 c63c 67af 65bd 7b34 ad3d
00000200: 6e59 dbbd 2c9d a8bd 4cfb f5bc 93f7 123c
00000210: 6522 193b 71b2 07be 0b4a 373d 3128 b5bc
00000220: 402b 393d 938a e23c 8b71 79bd 68c1 bebd
00000230: 3146 9d3d dadf 18bd 4db0 f9bd d66f 2f3d
00000240: 05ab 88bd 9d43 15be 7a7d dc3c ace3 f9bc
00000250: e5bf 84bd 66a0 83bd ed8d 833d 73bf 6cbd
00000260: 6434 d7bd 19b8 23bc df2c 2b3d 461b 8fbd
00000270: fb67 afbd 0e1b 52bd 0137 f1bd fe96 be3d
00000280: 9c1f e8bd a795 5b3c 9f49 4dbd d179 a2bd
00000290: a8f7 a93d dff9 5dbd db42 90bc 4b03 cf3b
000002a0: 15b1 563d e586 85bd 3179 96bd 792a e1bc
000002b0: 6c17 bbbc 1317 313d 0655 fa3b 4441 e3bd
000002c0: 1621 eabc edaf 81bb 0942 27bc 39ce 0cbd
000002d0: d138 c53c e1f1 7b3d e0fc a73d 782f 1a3d
000002e0: aac7 52bb f048 063d 18ed cebc f730 633d
000002f0: c534 e73c fafc a2bd 447c a0bd 3782 2bbe
00000300: 2e66 623e 5a32 453d de85 eb3d 92a1 06be
00000310: 4ba8 953c d26f a8bd 54e0 eabd 9ec9 063e
00000320: 581e febc 3776 9dbd 5b64 15bd a1dc 3a3d
00000330: beb7 0ebe 44e3 da3d 9b3f b2bd 41e9 eabd
00000340: 6afc d7bc ffca cd3d 12d9 65bd 5405 ac3d
00000350: 51b0 e1bd 3e58 d7ba 8224 1dbd 1297 e5bd
00000360: 0e8e c4bd 093c b0bc 3362 26bd aec3 cfbd
00000370: fbf8 1ebd 5426 5dbd 3957 58bd a720 e6bc
00000380: d802 d43d c888 84bc 1445 d33d 6ab7 15bd
00000390: c9e5 ad3d c52b 143e 478e a33d 544d e03d
000003a0: 1a02 0dbe 17cd 4dbd 6fa7 3e3d e7a9 90bd
000003b0: 7360 9a3d 5522 10be a21d 40bb 320d 0b3d
000003c0: dc70 dd3d 1201 f63d 5903 54be a7fd 14be
000003d0: 1e77 a4ba e646 96bd fdc7 56bd b6f8 783d
000003e0: 98ae d0bd d2a5 06bc 6373 c6bd c2de 033e
000003f0: 33d0 2fbe cc1f 913d 5081 bb3d 1bbe 913d

decoder.0.bias f4 [128]
0.025132386 -0.16041581 -0.028488459 -0.020027352 -0.15486655 0.107419685 0.004174842 -0.04472464
-0.108640134 0.042735465 -0.08330812 0.09311564 0.11245542 -0.053328525 -0.03167018 -0.055383623
0.050036512 -0.035226688 0.083396584 -0.056171622 -0.081210606 -0.088485144 0.10271139 0.025920477
-0.065692 -0.14771944 0.08198916 -0.10916666 0.054285597 0.1675738 0.14446016 0.023051666
0.06282786 0.024602784 0.10345208 -0.14649294 -0.008046881 -0.061872512 0.0019338634 -0.010905679
-0.02194701 -0.0086602215 0.059294857 0.10715593 -0.18438946 0.13754074 0.12206826 -0.031520754
0.09734266 0.18873742 0.2668943 -0.005413783 -0.04787732 0.021928463 0.120636694 0.070132576
0.039115548 -0.06881285 0.08892889 -0.029011935 0.058402363 0.112389594 -0.07579964 0.05527799
-0.08308771 -0.007842654 -0.04984777 0.07659531 -0.049046718 -0.06623341 -0.032800607 0.06352152
-0.018045599 0.0072726635 0.10954752 0.013876733 0.07780823 -0.12910673 -0.11562567 -0.11455004
-0.079075016 -0.12565969 0.092251815 -0.025773618 0.15874758 -0.03078172 -0.113065325 0.026628202
0.1308172 0.04841212 0.019647855 0.0028571647 -0.15631258 0.052085157 -0.056805413 -0.026102869
0.1352247 0.20455366 0.17356305 -0.022619631 -0.14032732 0.012943525 -0.0976193 -0.09511569
-0.060611274 -0.0771427 0.0020025421 0.013872277 -0.06771562 0.029634258 -0.058927502 -0.05388522
-0.114329666 0.060672283 0.087804995 0.077075996 -0.08222003 0.15468323 0.16736229 0.22219561
0.0697629 0.1666199 0.13758801 0.026926046 0.009973147 0.13711792 -0.051385075 -0.13430777
00000000: 6fe2 cd3c 0b44 24be a160 e9bc 6710 a4bc
00000010: 5695 1ebe dafe db3d 1dcd 883b 2f31 37bd
00000020: b87e debd 620b 2f3d 739d aabd 6ab3 be3d
00000030: 074f e63d 036f 5abd 97b8 01bd f0d9 62bd
00000040: 16f3 4c3d dc49 10bd d4cb aa3d 3714 66bd
00000050: bf51 a6bd b337 b5bd 595a d23d 2e57 d43c
00000060: 8789 86bd c443 17be efe9 a73d c592 dfbd
00000070: 935a 5e3d 7798 2b3e 5ded 133e d9d6 bc3c
00000080: e5ab 803d c78b c93c afde d33d 3f02 16be
00000090: 11d7 03bc 086e 7dbd b079 fd3a bcad 32bc
000000a0: 37ca b3bc 9ae3 0dbc 2adf 723d 9174 db3d
000000b0: 97d0 3cbe 7bd7 0c3e edfe f93d e81b 01bd
000000c0: 975b c73d 6244 413e 5fa6 883e 1a66 b1bb
000000d0: 021b 44bd 52a3 b33c 5f10 f73d aba1 8f3d
000000e0: a037 203d c0ed 8cbd 5a20 b63d 70aa edbc
000000f0: 5137 6f3d 842c e63d d73c 9bbd 2c6b 623d
00000100: e429 aabd 7a7e 00bc 2d2d 4cbd 00de 9c3d
00000110: 36e5 48bd 62a5 87bd ee59 06bd 9217 823d
00000120: 5dd4 93bc 864f ee3b 735a e03d 3d5b 633c
00000130: ec59 9f3d 8e34 04be 27cd ecbd 3699 eabd
00000140: 15f2 a1bd efac 00be 85ee bc3d 3223 d3bc
00000150: ba8e 223e f229 fcbc cb8e e7bd 6323 da3c
00000160: f2f4 053e ca4b 463d 8af4 a03c 453f 3b3b
00000170: 6810 20be 3f57 553d cbac 68bd afd5 d5bc
00000180: 5878 0a3e 8476 513e 83ba 313e ce4c b9bc
00000190: f7b1 0fbe 1411 543c a1ec c7bd 04cc c2bd
000001a0: 8743 78bd fefc 9dbd 153d 033b 8c48 633c
000001b0: 7dae 8abd 8bc3 f23c f75d 71bd c0b6 5cbd
000001c0: ac25 eabd 8083 783d 1bd3 b33d 05da 9d3d
000001d0: fa62 a8bd 4865 1e3e 0561 2b3e 3f87 633e
000001e0: dadf 8e3d 689e 2a3e dfe3 0c3e 0394 dc3c
000001f0: 6966 233c a468 0c3e 2879 52bd fa87 09be

decoder.3.weight f4 [16, 128]
-0.03689493 0.08020122 0.026364665 0.011407061 -0.06082463 -0.093731225 0.0299136 -0.020811735
-0.09005762 -0.074848615 0.0016486507 0.032399133 0.033162903 0.012754473 -0.16173354 -0.0839226
-0.06256732 0.060550634 -0.0030146623 0.03635809 0.056038342 -0.11707485 -0.07070807 0.061489094
-0.079737164 -0.12185164 -0.11010276 -0.0019436562 0.099763356 -0.09090695 -0.043002505 -0.07521053
-0.028644029 -0.005144989 -0.12603144 0.013834864 -0.071943514 -0.008450495 0.051620215 -0.048136935
0.02770955 0.04315303 0.026400574 -0.03526227 0.03173107 -0.036278408 -0.036046978 -0.10034152
0.007201319 0.00048751323 -0.052032065 0.054463554 0.05069508 0.087685965 -0.056744892 0.03333274
0.038424205 -0.02604297 -0.041118458 0.06482238 0.021146387 -0.12709625 0.013059526 -0.0054894467
0.016220517 -0.06508079 -0.1803702 0.11794861 0.0056199078 -0.03382227 0.073173545 -0.12339372
0.07454515 -0.023374086 0.06947935 0.004281656 0.08531403 0.052720312 0.0804056 -0.05716018
0.02361101 -0.012732523 0.0043302565 -0.031437997 -0.09845749 0.030489363 0.005376871 -0.041164145
0.04629145 0.053109117 -0.08446739 -0.13983624 -0.028972108 -0.019403664 0.07513507 -0.058961205
-0.03056141 0.04471087 0.034335062 -0.0051770597 -0.10234351 -0.08300963 -0.022592083 0.0857216
0.077078626 0.08500374 -0.021423567 0.021477023 0.09810256 -0.118312486 0.04208588 -0.06802177
-0.090959884 -0.032189246 0.07536721 0.011094284 0.07188205 -0.07500669 0.02956003 -0.0022870614
-0.18722141 -0.038427483 0.0024441122 -0.03836015 -0.07691674 0.043317724 -0.021644747 -0.038282905
0.0025969846 0.034302384 0.058634154 -0.026678855 0.051623773 -0.021339113 -0.049308825 -0.08693113
-0.060120095 0.054475106 -0.024199858 0.06127539 0.036108874 0.013405005 -0.08090072 -0.046082105
0.020630416 -0.053087216 0.0063570254 0.063290544 -0.011206254 -0.033807084 0.025161205 0.057516765
-0.12688647 -0.08118145 -0.044387106 -0.028788447 -0.06303917 -0.101008505 0.049747806 -0.074608065
-0.049825817 -0.10318087 -0.11295359 0.062942415 0.06407467 0.037029926 0.11401442 -0.006857792
0.018250216 -0.068828486 -0.051569764 0.046223782 0.052878577 0.06807228 -0.0753759 -0.02765691
0.021287214 0.045074716 -0.050321847 -0.10064199 0.027697317 -0.060223844 -0.020252606 -0.022044638
0.05656054 -0.0847706 -0.024520656 0.019425374 0.082687885 -0.06799001 0.0027807949 -0.06188404
0.012076243 -0.09956063 -0.07244929 -0.0058698943 -0.10433918 0.002393733 -0.048331928 0.022299815
-0.048113286 0.0124433935 -0.045031566 0.021962192 -0.093770586 -0.019485308 -0.03613268 -0.02243387
0.04494565 -0.004996978 -0.06005425 0.05995849 -0.039751973 0.004634599 -0.15838717 0.021449089
0.005897473 -0.057351828 -0.07642896 -0.08614076 -0.058717363 -0.15844189 0.087460585 -0.05380362
0.029699912 0.04031062 -0.04435925 -0.104086936 -0.013768561 -0.08406513 0.060013004 0.016928166
-0.0962586 0.033694692 0.06546251 -0.08359592 0.020270847 0.045776475 0.065842174 0.013711454
0.012534156 -0.011192925 -0.04822787 0.05757159 0.06000561 0.021521112 -0.032307584 0.027498037
0.038572546 -0.04017779 -0.094197325 0.00012911913 0.07966118 0.031193288 -0.058566652 -0.042331368
00000000: 231f 17bd 8a40 a43d b6fa d73c aee4 3a3c
00000010: 3f23 79bd 28f6 bfbd 5e0d f53c 5f7d aabc
00000020: 2170 b8bd 3b4a 99bd 8a17 d83a f4b4 043d
00000030: d3d5 073d 23f8 503c 7a9d 25be 9ddf abbd
00000040: 4c23 80bd f103 783d a491 45bb 38ec 143d
00000050: 7688 653d f0c4 efbd 65cf 90bd fddb 7b3d
00000060: 3d4d a3bd 5a8d f9bd 8e7d e1bd 48c2 feba
00000070: bb50 cc3d 6c2d babd 6523 30bd fa07 9abd
00000080: e2a6 eabc 4c97 a8bb 630e 01be a0ab 623c
00000090: 1f57 93bd f273 0abc b86f 533d 3c2b 45bd
000000a0: 23ff e23c 3bc1 303d 0446 d83c 2c6f 10bd
000000b0: 70f8 013d ab98 14bd ffa5 13bd db7f cdbd
000000c0: 0bf9 eb3b eb98 ff39 931f 55bd 2d15 5f3d
000000d0: a5a5 4f3d b394 b33d 556d 68bd e987 083d
000000e0: b362 1d3d 1158 d5bc d46b 28bd 99c1 843d
000000f0: 303b ad3c 8525 02be 9ff7 553c d1e0 b3bb
00000100: e4e0 843c 1449 85bd f7b2 38be 0a8f f13d
00000110: 3427 b83b 3889 0abd 03dc 953d d9b5 fcbd
00000120: 21ab 983d 037b bfbc 304b 8e3d 224d 8c3b
00000130: 1fb9 ae3d 41f1 573d b1ab a43d cb20 6abd
00000140: e06b c13c 129c 50bc d3e4 8d3b 21c5 00bd
00000150: 15a4 c9bd d4c4 f93c 7730 b03b bc9b 28bd
00000160: 1a9c 3d3d f288 593d 3dfd acbd 3b31 0fbe
00000170: ea56 edbc 6ff4 9ebc 6ae0 993d 4e81 71bd
00000180: ec5b fabc bf22 373d eca2 0c3d 53a4 a9bb
00000190: 7999 d1bd f400 aabd 0813 b9bc ce8e af3d
000001a0: 66db 9d3d 7116 ae3d 7a80 afbc 95f0 af3c
000001b0: ffe9 c83d d14d f2bd 3e62 2c3d ff4e 8bbd
000001c0: 2d49 babd dfd8 03bd 205a 9a3d cdc4 353c
000001d0: e536 933d 1c9d 99bd e027 f23c 86e2 15bb
000001e0: f8b6 3fbe 2366 1dbd 662d 203b 881f 1dbd
000001f0: 8686 9dbd ed6d 313d 5350 b1bc 89ce 1cbd
00000200: 2c32 2a3b a880 0c3d 5e2a 703d 9d8d dabc
00000210: 7373 533d 5dcf aebc 0df8 49bd f308 b2bd
00000220: 7d40 76bd 4a21 5f3d c83e c6bc e7fb 7a3d
00000230: e6e6 133d aba0 5b3c 47af a5bd 97c0 3cbd
00000240: 1e01 a93c fb71 59bd 984e d03b 799e 813d
00000250: 709a 37bc 4c79 0abd df1e ce3c b396 6b3d
00000260: 87ee 01be 7642 a6bd 41cf 35bd c0d5 ebbc
00000270: ae1a 81bd 8cdd cebd 5bc4 4b3d 1dcc 98bd
00000280: 2816 4cbd 7e50 d3bd 3654 e7bd f4e7 803d
00000290: 9539 833d b1ac 173d 6480 e93d 54b7 e0bb
000002a0: 7a81 953c f3f5 8cbd d13a 53bd 2655 3d3d
000002b0: 3597 583d 7b69 8b3d ae5e 9abd be90 e2bc
000002c0: 8662 ae3c 44a0 383d 481e 4ebd 631d cebd
000002d0: 7ce5 e23c 47ad 76bd cbe8 a5bc f596 b4bc
000002e0: 06ac 673d 359c adbd 8bdf c8bc f621 9f3c
000002f0: 4458 a93d 593e 8bbd ff3d 363b 1e7a 7dbd
00000300: 6fdb 453c 72e6 cbbd 4b60 94bd 3e58 c0bb
00000310: c8af d5bd 2de0 1c3b b3f7 45bd 1aae b63c
00000320: 7012 45bd 60df 4b3c 0573 38bd 0eea b33c
00000330: cb0a c0bd a79f 9fbc dcff 13bd 3cc7 b7bc
00000340: ee18 383d b1bd a3bb 72fb 75bd 0997 753d
00000350: f7d2 22bd d6dd 973b 3f30 22be 00b6 af3c
00000360: 973f c13b c0e9 6abd c986 9cbd 916a b0bd
00000370: 9e81 70bd 973e 22be 891e b33d 2f61 5cbd
00000380: 3b4d f33c c01c 253d 0cb2 35bd 882b d5bd
00000390: 8895 61bc 572a acbd 32d0 753d f0ac 8a3c
000003a0: 3b23 c5bd 7203 0a3d 3511 863d 5634 abbd
000003b0: 0c0f a63c 1d80 3b3d 43d8 863d 02a6 603c
000003c0: 105c 4d3c 8862 37bc 968a 45bd 30d0 6b3d
000003d0: 71c8 753d 0b4d b03c f554 04bd 9043 e13c
000003e0: 3ffe 1d3d 7791 24bd 87ea c0bd 2764 0739
000003f0: 6725 a33d 1189 ff3c 96e3 6fbd a863 2dbd

decoder.3.bias f4 [16]
-0.0194553 -0.0944382 0.14255713 -0.070200436 0.072780944 0.057251703 0.037699547 0.061712384
-0.022091169 0.055765543 -0.033200752 -0.0010834138 0.13865244 0.016822964 0.020558236 -0.037623033
00000000: b960 9fbc d168 c1bd 7ffa 113e 3fc5 8fbd
00000010: 2d0e 953d c380 6a3d d76a 1a3d 20c6 7c3d
00000020: 8af8 b4bc 696a 643d 83fd 07bd 5601 8eba
00000030: e8fa 0d3e 50d0 893c bf69 a83c 9c1a 1abd

decoder.5.weight f4 [1, 16]
-0.08686616 -0.12744963 0.34369624 -0.23458424 0.19123334 -0.1010746 0.2042843 -0.22872557
-0.05331609 -0.44164276 0.43964833 -0.06278902 0.6085054 -0.27080327 -0.103463024 -0.14819926
00000000: e3e6 b1bd 2882 02be f4f8 af3e da36 70be
00000010: acd2 433e 3300 cfbd e72f 513e 0937 6abe
00000020: f961 5abd 001f e2be 9619 e13e 8897 80bd
00000030: 03c7 1b3f baa6 8abe 6ce4 d3bd 8cc1 17be
