checkpoints/reduce_construction/graph_encoder.pth (torch, 131562 bytes, 20 tensors)

local_head.gconv.convs.<stroke___ordered_next___stroke>.nn.0.weight f4 [16, 12]
-0.2039263 0.23441766 -0.24059282 -0.054483026 -0.34123138 -0.40480888 -0.7471175 -0.67799926
0.47522926 -0.14350764 -0.39558095 0.30120173 -0.09370735 -0.22103462 0.17921135 -0.15093249
0.21848881 -0.156515 0.2825613 -0.18888757 -0.043734416 0.09324363 0.067548424 0.25794584
-0.1017108 -0.052947983 -0.02463594 -0.06782675 0.07023296 -0.24392384 -0.28245318 0.28626627
-0.075831056 -0.17142922 -0.24407968 0.15019971 0.2006566 0.5355649 0.3371304 -0.37229112
0.47570974 -0.68774796 0.5580035 -0.7755944 -0.2130946 0.72903484 -0.9207575 0.5096382
-0.74630123 0.6744653 -0.1912682 -0.88953835 0.24994169 -0.18238549 0.23333597 -1.193572
0.84900737 0.44865635 -0.5966831 1.310594 -0.0976146 -0.024379134 0.21846974 0.18864882
-0.13732393 0.017150909 -0.11768168 -0.25605735 -0.20802876 -0.03200224 -0.024135143 -0.1160987
0.71832466 0.51475847 -0.05638621 0.3952252 0.08486996 0.22584847 -0.105661936 -1.0975665
-0.3368563 -0.39049655 -0.48278165 0.14852564 -0.06246455 -0.03697011 0.09500554 -0.22571826
-0.22461799 0.13959122 -0.26508236 -0.0025528967 0.16945526 0.015878677 0.24028093 -0.2199322
-0.1965519 0.14533354 0.016085848 -0.13193208 -0.3445971 -0.13579759 -0.42289057 -0.6672361
0.5231573 -0.46671802 0.4085562 0.50764817 0.99169505 0.19004574 0.413655 -0.25841767
0.47751272 -0.055889808 -0.4081479 -0.93338543 -0.36712524 -0.31926256 -0.85103804 -0.42008546
0.23972729 0.09673256 -0.05418097 0.32783574 0.2040546 -0.31766337 -0.13202551 -0.37221166
-0.343367 -0.78686196 -0.4423636 0.23182186 0.0952501 -0.17118423 -0.05696495 0.1599338
-0.07667261 -0.05194916 0.007633686 -0.16876984 0.1463463 -0.022363752 -0.22246295 -0.08913186
-0.047827408 -0.13378234 0.159145 -0.16949391 -0.24069878 -0.1976209 0.08578068 -0.10214247
-0.124083936 0.18651316 0.15788493 -0.15375967 0.19408053 -0.28661636 -0.26211825 -0.099629894
-0.039147258 0.07415888 0.25048947 0.16931093 -0.19716594 -0.16872892 -0.14816244 0.019451946
-0.21051347 0.02143696 -0.12673682 0.04850629 -0.14325477 -0.10424051 -0.22597058 0.03317237
0.19641307 -0.19059661 -0.11966723 -0.06852499 0.6840974 0.75489575 0.4599591 -0.4575533
-0.6411142 -0.04412282 -0.46966878 -0.61177486 -0.25787714 0.31918833 0.63979083 0.64068925
00000000: 0ed2 50be 2f0b 703e f75d 76be 9829 5fbd
00000010: e1b5 aebe 1c43 cfbe 1843 3fbf 5c91 2dbf
00000020: 4051 f33e abf3 12be 9689 cabe 1d37 9a3e
00000030: a4e9 bfbd e656 62be 2e83 373e 0c8e 1abe
00000040: 88bb 5f3e 7845 20be e0ab 903e be6b 41be
00000050: dc22 33bd 84f6 be3d d456 8a3d 7a11 843e
00000060: c04d d0bd fcdf 58bd 50d1 c9bc c0e8 8abd
00000070: 4cd6 8f3d 2cc7 79be b49d 90be 7e91 923e
00000080: 504d 9bbd 248b 2fbe 06f0 79be f4cd 193e
00000090: ec78 4d3e c81a 093f 5b9c ac3e f19c bebe
000000a0: 3a90 f33e 4010 30bf 51d9 0e3f 5b8d 46bf
000000b0: 7935 5abe 07a2 3a3f c3b6 6bbf a677 023f
000000c0: 990d 3fbf c2a9 2c3f d0db 43be c9b8 63bf
000000d0: b7f0 7f3e 43c3 3abe a0ef 6e3e f8c6 98bf
000000e0: 8c58 593f 49b6 e53e 39c0 18bf 8bc1 a73f
000000f0: 2aea c7bd c0b6 c7bc 88b6 5f3e 282d 413e
00000100: a59e 0cbe 1080 8c3c 1803 f1bd f319 83be
00000110: 7e05 55be c814 03bd 10b7 c5bc 28c5 edbd
00000120: 20e4 373f 36c7 033f 3af5 66bd f55a ca3e
00000130: 4dd0 ad3d d244 673e 4965 d8bd 0f7d 8cbf
00000140: 6e78 acbe 2aef c7be 282f f7be 1b17 183e
00000150: d4da 7fbd f86d 17bd 4492 c23d b022 67be
00000160: 4202 66be 00f1 0e3e e0b8 87be 804e 27bb
00000170: ae85 2d3e 0014 823c 340c 763e e835 61be
00000180: e744 49be 51d2 143e 78c6 833c 3419 07be
00000190: 086f b0be 860e 0bbe 1d85 d8be fccf 2abf
000001a0: a3ed 053f aaf5 eebe 472e d13e 3bf5 013f
000001b0: badf 7d3f 5a9b 423e 97ca d33e 524f 84be
000001c0: 8c7c f43e b6ec 64bd c3f8 d0be 59f2 6ebf
000001d0: d7f7 bbbe 6276 a3be a1dd 59bf 7115 d7be
000001e0: 127b 753e b81b c63d ddec 5dbd 16da a73e
000001f0: b0f3 503e c6a4 a2be b231 07be 8792 bebe
00000200: cdcd afbe c96f 49bf 7b7d e2be b662 6d3e
00000210: 7c12 c33d eb4a 2fbe 1454 69bd b0c5 233e
00000220: 8806 9dbd a4c8 54bd 0024 fa3b 00d2 2cbe
00000230: cedb 153e 3034 b7bc 54cd 63be c48a b6bd
00000240: ace6 43bd 3dfe 08be e8f6 223e d08f 2dbe
00000250: be79 76be 225d 4abe c8ad af3d 1230 d1bd
00000260: b81f febd 4efd 3e3e 96ac 213e 2d73 1dbe
00000270: 0cbd 463e 61bf 92be 5d34 86be c20a ccbd
00000280: e058 20bd 9ce0 973d 2840 803e d85f 2d3e
00000290: dee5 49be 46c7 2cbe e5b7 17be b059 9f3c
000002a0: d890 57be 909c af3c 4cc7 01be 88ae 463d
000002b0: 61b1 12be 0c7c d5bd d564 67be c0df 073d
000002c0: 8220 493e c22b 43be 1814 f5bd d456 8cbd
000002d0: 0221 2f3f d940 413f c27f eb3e 6d44 eabe
000002e0: 0f20 24bf 21ba 34bd 6d78 f0be 479d 1cbf
000002f0: 7908 84be a76c a33e 55c9 233f 3604 243f

local_head.gconv.convs.<stroke___ordered_next___stroke>.nn.0.bias f4 [16]
0.13820739 -0.14399606 -0.11254813 0.2842089 0.17543288 -0.18547016 0.13344176 -0.03751859
0.032116964 0.34347737 0.018728502 -0.21342479 -0.20640802 -0.2041169 -0.23713094 0.04259836
00000000: 3d86 0d3e b473 13be a27f e6bd d483 913e
00000010: ada4 333e e4eb 3dbe f5a4 083e 18ad 19bd
00000020: 148d 033d 44dc af3e 846c 993c 078c 5abe
00000030: a05c 53be 0504 51be 74d2 72be 9e7b 2e3d

local_head.gconv.convs.<stroke___connected_to___stroke>.nn.0.weight f4 [16, 12]
0.26573813 -0.5789032 -0.04120498 0.2747183 -0.001233593 0.29819214 0.015451135 0.3288027
0.09281794 -0.1333871 -0.27215636 -0.22127895 0.019916475 -0.2210575 0.17437485 -0.071593195
0.071817964 0.1951001 -0.12294638 -0.09820001 0.18646821 -0.101167694 -0.28542 -0.23253688
0.22256327 -0.17209196 0.22615558 -0.1675201 0.14275247 -0.14520164 -0.09648137 0.02657798
0.072413385 0.120720774 -0.26094633 0.016188592 0.12855273 -0.039417297 0.112084 0.09228927
-0.050832465 0.13542306 0.2760988 0.11866915 -0.2646973 0.2117579 0.15331692 -0.23997922
-0.42763644 0.37308937 0.070909545 -1.3051234 0.28072932 -0.54053926 -0.34744877 -0.736008
0.40223855 0.60936314 -0.2106275 0.3210233 0.05602452 0.012290597 -0.28719544 -0.010136098
0.23564112 -0.1496265 0.14090711 -0.15561917 -0.10115437 -0.18197751 -0.2851681 -0.1679772
0.5508949 0.8213675 0.8144087 0.05097682 -0.14220835 0.26526785 -0.5344616 -0.58439827
-0.10716634 0.23692332 0.5039449 -0.11574772 0.0023314357 0.0037982762 -0.02853173 -0.22373828
-0.0255121 -0.04202479 -0.09497319 0.13781235 0.026984155 -0.20285377 -0.24956748 0.15624613
-0.4314601 0.13700563 0.48985973 -0.077286534 -0.03530222 -0.27665523 0.07807048 0.25483495
0.29553884 0.14435917 0.15941675 0.15612607 -0.2230992 -0.016083896 -0.18531415 -0.23569624
0.19413081 -0.23807698 0.23093557 0.20516744 0.0059865117 -0.13504946 -0.1708231 0.17116427
0.669658 0.04086631 0.2988989 0.69830626 0.2928277 0.31701866 -0.012969665 -0.015982417
-0.19557664 0.18793389 0.09464458 -0.08680316 -0.3980343 -0.03630148 -1.1054071 0.22260413
-0.5429663 0.22838151 0.8889107 -0.2900308 0.17310163 -0.061149053 0.8920741 -0.89917755
0.2005356 0.16455153 -0.17522171 0.14307028 0.084843576 0.28013498 -0.21217406 -0.06557754
0.017119348 -0.25084263 0.2543947 -0.28374004 -0.26201499 -0.11224002 -0.4264785 -0.224667
-0.5391385 -0.65568906 0.36967662 -0.38198012 -0.61794114 -0.26619747 -0.0592788 0.22137783
0.06446224 -0.89040685 -0.2791899 0.952497 -0.47246242 -0.14275376 0.84319746 0.7834135
0.037699085 -0.5007355 -0.37506077 0.183192 -0.057870835 0.1257121 0.16824383 0.028308928
-0.14967711 0.2353332 0.28351098 0.04466784 -0.1919334 -0.11847001 -0.0014814138 0.052212507
00000000: d40e 883e 0033 14bf 8ec6 28bd e1a7 8c3e
00000010: 83b0 a1ba a4ac 983e c226 7d3c d458 a83e
00000020: 5517 be3d a196 08be 1458 8bbe f396 62be
00000030: e027 a33c e65c 62be 528f 323e 749f 92bd
00000040: 4c15 933d 52c8 473e 50cb fbbd 161d c9bd
00000050: 86f1 3e3e 0231 cfbd 9222 92be 261e 6ebe
00000060: a0e7 633e e038 30be 5495 673e 648a 2bbe
00000070: b42d 123e bdaf 14be 0698 c5bd 10ba d93c
00000080: 784d 943d 743c f73d c29a 85be f09d 843c
00000090: 54a3 033e 0874 21bd 4c8c e53d 2802 bd3d
000000a0: b435 50bd 58ac 0a3e d25c 8d3e d008 f33d
000000b0: 6886 87be 10d7 583e 1cff 1c3e 1dbd 75be
000000c0: 2af3 dabe 9205 bf3e 0639 913d 490e a7bf
000000d0: c1bb 8f3e c860 0abf cee4 b1be 056b 3cbf
000000e0: 36f2 cd3e 39ff 1b3f bcae 57be 2a5d a43e
000000f0: f879 653d 805e 493c 480b 93be e011 26bc
00000100: e84b 713e b037 19be f449 103e a25a 1fbe
00000110: 062a cfbd 5058 3abe 8e01 92be 3702 2cbe
00000120: 7307 0d3f 2445 523f 177d 503f 12cd 503d
00000130: 119f 11be 30d1 873e 7ad2 08bf 209b 15bf
00000140: 077a dbbd 079c 723e 8802 013f 240d edbd
00000150: 00cb 183b 80ec 783b 60bb e9bc a61b 65be
00000160: c0fe d0bc 3022 2cbd 4e81 c2bd ae1e 0d3e
00000170: e00d dd3c e6b8 4fbe 9e8e 7fbe fcfe 1f3e
00000180: 57e8 dcbe 344b 0c3e e5ce fa3e 6748 9ebd
00000190: 1099 10bd c1a5 8dbe 6ae3 9f3d ba79 823e
000001a0: de50 973e e4d2 133e 253e 233e 83df 1f3e
000001b0: 1e74 64be 60c2 83bc fec2 3dbe 5b5a 71be
000001c0: 3aca 463e 74ca 73be 607a 6c3e 6a17 523e
000001d0: 802a c43b 684a 0abe 40ec 2ebe b045 2f3e
000001e0: b56e 2b3f 6f63 273d 4709 993e 33c4 323f
000001f0: 83ed 953e 4550 a23e b87e 54bc 8fed 82bc
00000200: 3e45 48be be71 403e 04d5 c13d dbc5 b1bd
00000210: 27cb cbbe dcb0 14bd fb7d 8dbf 56f2 633e
00000220: d7ff 0abf d8dc 693e a78f 633f eb7e 94be
00000230: 8e41 313e 6e77 7abd f85e 643f 8030 66bf
00000240: 3459 4d3e 3280 283e 526d 33be 0481 123e
00000250: 78c2 ad3d da6d 8f3e 2844 59be 844d 86bd
00000260: e03d 8c3c 726e 80be 0640 823e 6046 91be
00000270: d426 86be 18de e5bd 645b dabe 1b0f 66be
00000280: fb04 0abf 3ddb 27bf 4146 bd3e e692 c3be
00000290: 6431 1ebf 094b 88be 54ce 72bd dfb0 623e
000002a0: c704 843d b4f1 63bf fbf1 8ebe d8d6 733f
000002b0: 98e6 f1be 0b2e 12be cadb 573f ca8d 483f
000002c0: 5b6a 1a3d 3430 00bf f707 c0be af96 3b3e
000002d0: f809 6dbd acba 003e 1c48 2c3e 20e8 e73c
000002e0: f544 19be 30fb 703e 5a28 913e a0f5 363d
000002f0: 308a 44be 68a0 f2bd 002c c2ba c8dc 553d

local_head.gconv.convs.<stroke___connected_to___stroke>.nn.0.bias f4 [16]
0.43294507 -0.07403244 -0.20501159 -0.22584301 0.07118489 -0.09361653 0.4040513 -0.09357287
0.35006672 -0.23570219 0.2364656 0.012462383 -0.14710751 0.025442129 0.10202394 -0.24132717
00000000: faaa dd3e 529e 97bd 8fee 51be 6443 67be
00000010: 62c9 913d 06ba bfbd d0df ce3e 22a3 bfbd
00000020: f23b b33e ea5b 71be 0a24 723e 062f 4c3c
00000030: 5aa3 16be 036c d03c edf1 d03d 781e 77be

layers.0.mlp_edge_conv.gconv.convs.<stroke___ordered_next___stroke>.nn.0.weight f4 [32, 32]
-0.05087121 0.1755205 0.16544501 -0.08139288 0.0031526685 -0.1582594 -0.07539953 -0.16958022
-0.11923918 -0.056491822 0.021760285 -0.12577978 -0.020454645 -0.053239606 -0.074357174 -0.008916944
-0.073420525 -0.11737328 0.06022519 -0.15214194 0.036705896 -0.17628299 -0.11715661 -0.0238595
-0.057888106 0.10050939 0.16940533 0.048789322 0.025486097 -0.15594167 0.14709638 -0.07150451
0.16813359 -0.04707843 -0.05399034 0.2068785 -0.049932167 -0.099272415 0.19611731 -0.16332373
-0.1421272 -0.14667594 0.16237713 -0.05613689 -0.15895584 0.051368456 0.1620693 0.12612016
-0.14839232 0.13357504 -0.12202752 0.5331753 0.13935274 -0.09594911 -0.16131231 0.06892905
-0.015952824 0.5380503 0.018160166 -0.44725525 -0.07057486 -0.19999588 -0.22981383 0.26810682
-0.10115262 -0.07505567 0.14067687 0.00057417154 0.07508205 -0.16744582 -0.069706105 0.10290019
0.12686084 -0.16334815 0.00321801 0.08291121 0.07684551 0.021348566 -0.021784574 -0.11002656
-0.1219977 -0.106238045 0.061808944 -0.04716435 0.1393839 -0.052889444 -0.12263378 0.057583123
0.12151249 -0.0054160357 0.040222526 0.11060406 -0.16118388 0.027827188 0.11828773 -0.17290577
0.079580665 0.15908058 -0.04446824 0.03462685 0.22386058 -0.15325856 0.11246351 -0.10809394
0.10464194 -0.012202742 -0.11511412 -0.32701576 -0.0130134225 -0.0012099182 -0.112738274 -0.1015965
0.07972343 -0.1314311 0.10349642 0.08870085 0.039288778 0.16297357 0.13424869 -0.036195993
0.012517179 -0.017336426 -0.07122351 0.34699246 -0.023493543 0.06736226 0.29671013 -0.18353173
-0.1068011 -0.17393109 -0.09433333 0.17514674 0.17654707 0.07031211 -0.09094982 0.082694426
0.047221005 0.16176821 -0.06910774 0.0757608 0.012330905 0.067345336 -0.062190033 -0.070566885
-0.0028080195 0.064554006 -0.1253354 0.076422766 0.05097039 -0.08062428 -0.09380449 0.13336118
-0.0019790232 0.07898201 0.14799635 -0.12362543 -0.062032826 0.023387581 -0.16119136 0.08421831
0.04035584 0.024600968 0.13593237 -0.16977683 -0.104511425 0.12011646 -0.15450045 -0.11291979
0.15014896 -0.098196544 -0.06051468 -0.14105411 -0.10448159 0.10015851 0.033157922 0.1264922
-0.1140449 0.10489695 0.028265104 -0.36949098 -0.23890066 -0.13107932 -0.17025469 -0.012714446
-0.10554981 0.79208666 -0.1187928 -0.11301643 -0.083735205 -0.086968474 0.14902015 -0.13500059
-0.051129356 0.13363348 -0.10682696 -0.029406607 0.079974875 0.13826399 0.02327457 -0.008635968
-0.059037954 0.17632727 -0.17117673 -0.10657225 -0.08132352 0.0042043626 -0.1672413 0.16913398
0.009533286 -0.11420445 -0.11727038 -0.117863744 0.1732872 0.1204402 -0.04289913 -0.14885312
-0.09411897 -0.13189572 0.046361655 0.030825317 -0.113093734 -0.04411477 0.06329733 -0.06324773
0.10918399 0.029187918 -0.00071810186 0.1062623 0.08516399 0.06928408 0.0991789 -0.018993497
-0.053899474 0.061692983 -0.11569477 0.107390374 0.14342 -0.07329756 0.062418338 -0.07117382
0.12024483 -0.04421249 -0.14056675 -0.0027563786 0.15957133 -0.02346696 0.05179168 -0.0032023787
-0.05907592 -0.4959819 0.02006736 -0.22437488 -0.17372042 0.3011074 0.22877522 -0.3084579
00000000: 545e 50bd a5bb 333e 6b6a 293e 4fb1 a6bd
00000010: 009d 4e3b c10e 22be 126b 9abd 70a6 2dbe
00000020: ac33 f4bd f863 67bd a042 b23c 6acc 00be
00000030: 8090 a7bc c611 5abd 9348 98bd 6018 12bc
00000040: 805d 96bd 6761 f0bd b0ae 763d 19cb 1bbe
00000050: ec58 163d 8783 34be ceef efbd 0075 c3bc
00000060: 141c 6dbd ded7 cd3d 9778 2d3e 50d7 473d
00000070: 38c8 d03c 2caf 1fbe 6fa0 163e f570 92bd
00000080: 362b 2c3e 50d5 40bd fa24 5dbd f5d7 533e
00000090: ac85 4cbd 564f cbbd fad2 483e 563e 27be
000000a0: cb89 11be 3832 16be 3146 263e ccef 65bd
000000b0: 52c5 22be bb67 523d 7ff5 253e a525 013e
000000c0: 28f4 17be e5c7 083e 90e9 f9bd 2d7e 083f
000000d0: 7cb2 0e3e f880 c4bd 0e2f 25be ac2a 8d3d
000000e0: 7faf 82bc aabd 093f a1c4 943c a4fe e4be
000000f0: 8d89 90bd b8cb 4cbe 5154 6bbe 4c45 893e
00000100: 1b29 cfbd cab6 99bd 990d 103e 0084 163a
00000110: 9ec4 993d eb76 2bbe 13c2 8ebd 56bd d23d
00000120: cfe7 013e bd44 27be 40e5 523b 5acd a93d
00000130: 2e61 9d3d 30e3 ae3c 9075 b2bc 9b55 e1bd
00000140: eed9 f9bd 5593 d9bd 602b 7d3d 682f 41bd
00000150: a7ba 0e3e 9aa2 58bd 6b27 fbbd 48dc 6b3d
00000160: 8adb f83d 0079 b1bb 60c0 243d 6284 e23d
00000170: 630d 25be d8f5 e33c d640 f23d 360e 31be
00000180: 30fb a23d 05e6 223e 5424 36bd e2d4 0d3d
00000190: b53b 653e d0ef 1cbe 4553 e63d 5b60 ddbd
000001a0: 834e d63d 02ee 47bc f4c0 ebbd 9c6e a7be
000001b0: 4036 55bc 1e96 9eba 53e3 e6bd d311 d0bd
000001c0: 0a46 a33d e095 06be eef5 d33d cba8 b53d
000001d0: 45ed 203d 8be2 263e 7d78 093e 4042 14bd
000001e0: db14 4d3c 1f05 8ebc a2dd 91bd ffa8 b13e
000001f0: 8875 c0bc 39f5 893d 64ea 973e beef 3bbe
00000200: 89ba dabd fe1a 32be d531 c1bd ab59 333e
00000210: c1c8 343e ccff 8f3d e643 babd b25b a93d
00000220: d06a 413d 91a6 253e 5c88 8dbd 7a28 9b3d
00000230: 9007 4a3c 5aec 893d faba 7ebd 5f85 90bd
00000240: c006 38bb e434 843d ec57 00be 8a83 9c3d
00000250: 54c6 503d 581e a5bd 921c c0bd d58f 083e
00000260: 80b2 01bb 52c1 a13d 5b8c 173e 542f fdbd
00000270: 2216 7ebd 5097 bf3c 590f 25be a67a ac3d
00000280: 2a4c 253d f887 c93c db31 0b3e fad9 2dbe
00000290: 160a d6bd 9eff f53d 5e35 1ebe 7e42 e7bd
000002a0: a6c0 193e 451b c9bd 3ede 77bd 7d70 10be
000002b0: 72fa d5bd e81f cd3d 9ad0 073d 2c87 013e
000002c0: 5f90 e9bd 36d4 d63d 388c e73c ec2d bdbe
000002d0: 60a2 74be a839 06be 3f57 2ebe 4050 50bc
000002e0: 802a d8bd 31c6 4a3f a449 f3bd 2875 e7bd
000002f0: 5d7d abbd 871c b2bd bd98 183e 983d 0abe
00000300: 046d 51bd 37d7 083e 18c8 dabd 20e6 f0bc
00000310: dec9 a33d 1395 0d3e 50aa be3c e07d 0dbc
00000320: c8d1 71bd 238f 343e f448 2fbe 8d42 dabd
00000330: f28c a6bd c0c4 893b 4e41 2bbe 7531 2d3e
00000340: 8031 1c3c 06e4 e9bd 742b f0bd 8c62 f1bd
00000350: 3372 313e 5aa9 f63d 00b7 2fbd f46c 18be
00000360: 72c1 c0bd ac0f 07be b8e5 3d3d 6085 fc3c
00000370: b09d e7bd b0b1 34bd 08a2 813d 0788 81bd
00000380: db9b df3d 801b ef3c 003f 3cba 0ca0 d93d
00000390: 756a ae3d d0e4 8d3d 4f1e cb3d 4098 9bbc
000003a0: b2c5 5cbd c8b1 7c3d 61f1 ecbd 7cef db3d
000003b0: b1dc 123e 081d 96bd 5faa 7f3d 94c3 91bd
000003c0: ec42 f63d 2818 35bd bbf0 0fbe 5ca4 34bb
000003d0: ab66 233e c83d c0bc 8323 543d 00df 51bb
000003e0: 98f9 71bd 57f1 fdbe 4e64 a43c 87c2 65be
000003f0: c4e3 31be c02a 9a3e 0d44 6a3e 32ee 9dbe

layers.0.mlp_edge_conv.gconv.convs.<stroke___ordered_next___stroke>.nn.0.bias f4 [32]
-0.16612212 0.20012987 -0.17080837 0.0163191 -0.12892795 0.06345062 -0.11218667 -0.037629236
0.055054195 -0.062495336 -0.22097751 -0.005296085 0.17056026 -0.13822119 -0.12335555 0.33060804
0.08247209 -0.17556855 0.13337126 -0.08195663 0.001054287 0.1785164 -0.059590474 0.28213483
0.0024246487 -0.071621604 -0.043395434 0.18960646 -0.020534066 -0.1635163 0.1676621 -0.153445
00000000: eb1b 2abe d8ee 4c3e 64e8 2ebe a2af 853c
00000010: b005 04be 66f2 813d 20c2 e5bd 1d21 1abd
00000020: 8280 613d 1cfb 7fbd ee47 62be c88a adbb
00000030: 59a7 2e3e db89 0dbe d6a1 fcbd 7545 a93e
00000040: 21e7 a83d 3ec8 33be 7a92 083e e1d8 a7bd
00000050: 0030 8a3a 01cd 363e 2415 74bd fa73 903e
00000060: dbe6 1e3b 59ae 92bd 69bf 31bd 3228 423e
00000070: 0f37 a8bc d170 27be 9daf 2b3e b020 1dbe

layers.0.mlp_edge_conv.gconv.convs.<stroke___connected_to___stroke>.nn.0.weight f4 [32, 32]
-0.009287285 -0.108077854 0.13033055 -0.14939463 -0.13641456 -0.13581812 0.07775795 -0.064033434
0.03914851 -0.022262527 0.057162855 -0.21739148 0.081728324 -0.25966004 -0.063614435 0.0016109553
-0.20257863 0.1562394 -0.02366358 -0.33843625 -0.16101514 0.12506337 0.036439456 0.09271304
-0.1764473 -0.3011967 0.007503133 0.06740106 -0.14998874 0.102733724 0.015436457 -0.040286202
-0.009437656 0.06384832 0.1637366 0.12643181 0.115064956 0.0035113543 0.071855865 0.124386504
-0.08839074 0.3496473 0.048876155 0.17554098 0.15287153 -0.08006822 -0.010054167 0.044730436
0.10714492 -0.13222499 0.0075139552 -0.25870484 0.35180566 0.1613899 0.3494639 -0.1062019
0.28938112 0.3486982 0.2782441 -0.19319747 0.10923876 0.27171338 0.08507834 -0.082574554
0.02004859 -0.04122275 0.09788777 0.27351108 -0.032712266 0.16211219 -0.04453429 -0.14311044
0.076104276 0.06484668 0.27965266 -0.116147056 0.025497451 0.15705393 0.21543302 -0.18998326
0.59099203 -0.060955532 0.0942312 0.2779514 0.63595444 0.03545496 0.5364347 0.17385717
0.49542978 -0.03257801 0.38077208 0.5388928 -0.0003117323 0.3189615 0.5274703 0.66935253
0.17755273 -0.008986115 -0.0021725595 -0.14630283 0.2134739 0.071800575 0.014293065 -0.11331854
-2.8612965e-05 -0.022143604 0.16493362 -0.48168284 -0.11898139 -0.22067684 -0.14882314 0.07055793
0.07564442 0.09365292 -0.056769356 -0.11718578 0.047152143 0.13249837 -0.1313155 -0.053676225
0.1559071 -0.50623715 -0.06626399 0.4145675 0.07298727 0.08668548 0.24635966 -0.63480777
-0.05612137 -0.11277544 0.10191025 -0.002403174 0.1442336 -0.04862252 0.07195831 -0.070989914
0.0023075074 0.102196716 -0.097950056 -0.50349 0.12636308 0.10826693 0.09761071 0.042843826
-0.056629863 -0.17227866 0.034599215 -0.7537789 -0.1262458 -0.13820821 -0.13205731 0.033504277
0.017050069 -0.46152827 -0.035681162 0.72357136 0.06897591 0.0065562376 0.12550303 -0.4623235
0.08274122 -0.076373965 0.1047423 -0.057121597 -0.045400754 0.07894485 0.12151484 0.031291142
0.12186484 -0.0742411 0.17703058 0.11305409 -0.014152467 -0.050203517 0.1269441 -0.035185695
0.10457865 0.114827946 -0.11085835 -0.29580724 0.17501609 0.11089201 0.08518443 0.11204524
0.22679125 -0.44502255 -0.039422937 -0.018394891 0.06732093 -0.080617905 0.09816173 0.7712173
0.09860249 -0.008830965 -0.01999335 0.044418246 0.16564803 -0.030455858 0.18865645 -0.08095052
0.062665336 -0.016180256 0.14444618 0.3450898 -0.13204229 -0.040714648 0.09649801 0.0580303
0.063703746 0.0038562417 -0.15713276 0.15630881 -0.07486585 0.15417902 0.21762717 0.14017059
0.23141864 0.17222607 0.21105796 -0.21448296 0.073663875 0.027536761 0.12484023 0.34647635
-0.21002653 0.04773505 0.07900415 -0.15140663 0.035943966 0.03659065 -0.21813011 -0.12624043
-0.17218873 0.10456429 -0.18428352 -0.25540414 -0.1064297 -0.005637998 -0.24039236 0.07752989
0.0034558387 0.12049152 -0.16605793 -0.05028752 -0.01830471 0.005741492 0.077479675 -0.14082497
-0.02930437 -0.29865468 0.072372414 0.2657441 0.11099179 0.04579043 0.09504029 -0.38360557
00000000: b229 18bc ec57 ddbd 5f75 053e e8fa 18be
00000010: 42b0 0bbe e813 0bbe 8f3f 9f3d f623 83bd
00000020: 305a 203d e75f b6bc 9923 6a3d df9b 5ebe
00000030: 2e61 a73d 29f2 84be 4948 82bd b126 d33a
00000040: c670 4fbe 39fd 1f3e 20da c1bc 8447 adbe
00000050: 27e1 24be 9d10 003e 8a41 153d 56e0 bd3d
00000060: 9aae 34be 7436 9abe d7dc f53b 9109 8a3d
00000070: a696 19be 0f66 d23d 31e9 7c3c 2503 25bd
00000080: 66a0 1abc e8c2 823d 91aa 273e 5777 013e
00000090: 2da7 eb3d c01e 663b 2b29 933d 5abe fe3d
000000a0: 3406 b5bd f904 b33e 5d32 483d 04c1 333e
000000b0: 5b8a 1c3e cffa a3bd 3cba 24bc 4337 373d
000000c0: cc6e db3d fd65 07be a037 f63b f674 84be
000000d0: df1f b43e 6543 253e efec b23e 6280 d9bd
000000e0: c329 943e 9288 b23e 0376 8e3e 8fd5 45be
000000f0: 92b8 df3d 041e 8b3e 8d3d ae3d d91c a9bd
00000100: f13c a43c 30d9 28bd 6279 c83d a509 8c3e
00000110: 4cfd 05bd bd00 263e 9669 36bd 8b8b 12be
00000120: 8fdc 9b3d 56ce 843d a22e 8f3e 82de edbd
00000130: 08e0 d03c bfd2 203e 799a 5c3e f98a 42be
00000140: 414b 173f 82ac 79bd 4afc c03d a54f 8e3e
00000150: e9cd 223f 3839 113d c953 093f 9d07 323e
00000160: f9a8 fd3e 8570 05bd 8ff4 c23e e1f4 093f
00000170: 0070 a3b9 ec4e a33e 4b08 073f b05a 2b3f
00000180: 62d0 353e 803a 13bc 8061 0ebb 69d0 15be
00000190: e798 5a3e 2e0c 933d 762d 6a3c 8d13 e8bd
000001a0: e005 f0b7 8166 b5bc 5ce4 283e 229f f6be
000001b0: 84ac f3bd 1cf9 61be 1865 18be ad80 903d
000001c0: 76eb 9a3d 1acd bf3d fc86 68bd 19ff efbd
000001d0: 9b22 413d a7ad 073e 9277 06be 9adb 5bbd
000001e0: 1ca6 1f3e c298 01bf 6ab5 87bd 3142 d43e
000001f0: 5a7a 953d 2888 b13d b545 7c3e c382 22bf
00000200: 86df 65bd cff6 e6bd 52b6 d03d 927e 1dbb
00000210: f9b1 133e 6828 47bd e15e 933d 2963 91bd
00000220: 8d39 173b 834c d13d 0a9a c8bd b8e4 00bf
00000230: 5365 013e 0dbb dd3d 20e8 c73d 027d 2f3d
00000240: b7f4 67bd d169 30be e8b7 0d3d a7f7 40bf
00000250: 9446 01be 7486 0dbe 083a 07be c83b 093d
00000260: 96ac 8b3c 6f4d ecbe 6926 12bd f93b 393f
00000270: 3e43 8d3d b5d5 d63b de83 003e aab5 ecbe
00000280: 3b74 a93d f469 9cbd 2283 d63d 56f8 69bd
00000290: 24f6 39bd d6ad a13d c6dc f83d 242b 003d
000002a0: 4694 f93d b80b 98bd 8147 353e e788 e73d
000002b0: c0df 67bc 34a2 4dbd a2fd 013e e01e 10bd
000002c0: 552d d63d ea2a eb3d b409 e3bd 0c74 97be
000002d0: 6b37 333e 5a1b e33d 2d75 ae3d fa77 e53d
000002e0: f73b 683e ffd9 e3be f279 21bd e2b0 96bc
000002f0: 8edf 893d 001b a5bd 0409 c93d 7f6e 453f
00000300: 1af0 c93d c0af 10bc 18c9 a3bc e8ef 353d
00000310: a39f 293e 907e f9bc 282f 413e 63c9 a5bd
00000320: af56 803d 758c 84bc b3e9 133e 9caf b03e
00000330: 1836 07be 67c4 26bd c0a0 c53d 2eb1 6d3d
00000340: 1c77 823d 00b9 7c3b 69e7 20be 6b0f 203e
00000350: 4453 99bd 1be1 1d3e a8d9 5e3e e188 0f3e
00000360: 02f9 6c3e 085c 303e 941f 583e 6ca1 5bbe
00000370: 16dd 963d c694 e13c 3cac ff3d 5965 b13e
00000380: 3211 57be d485 433d eecc a13d 570a 1bbe
00000390: fb39 133d 14e0 153d 805d 5fbe 2c45 01be
000003a0: 3e52 30be cd25 d63d d2b4 3cbe 55c4 82be
000003b0: d1f7 d9bd f5be b8bb 6a29 76be fec7 9e3d
000003c0: 5a7b 623b 42c4 f63d 170b 2abe 49fa 4dbd
000003d0: c2f3 95bc 2023 bc3b aaad 9e3d 6c34 10be
000003e0: b80f f0bc 44e9 98be fd37 943d 9c0f 883e
000003f0: aa4f e33d bf8e 3b3d 7ca4 c23d f367 c4be

layers.0.mlp_edge_conv.gconv.convs.<stroke___connected_to___stroke>.nn.0.bias f4 [32]
-0.24430124 0.27748412 0.21957204 -0.17412208 -0.16242501 -0.022822337 0.16983248 -0.13394852
0.17620617 -0.074355796 -0.14386572 0.17886677 -0.21329768 -0.20909324 0.091081634 -0.18152127
-0.19858414 -0.06335213 -0.15419593 -0.15534931 0.20424627 0.1653483 0.09737953 -0.013177882
-0.19413151 0.10104909 0.10065276 -0.06547217 0.18103413 0.019479433 -0.19546625 -0.19143943
00000000: 1b2a 7abe 6612 8e3e 7ed7 603e 0f4d 32be
00000010: be52 26be e9f5 babc 91e8 2d3e cd29 09be
00000020: 646f 343e da47 98bd 8951 13be da28 373e
00000030: b56a 5abe 8a1c 56be 0289 ba3d b6e0 39be
00000040: a459 4bbe c3be 81bd 8ae5 1dbe e413 1fbe
00000050: ef25 513e 1151 293e eb6e c73d 0be8 57bc
00000060: 69ca 46be d3f2 ce3d 0923 ce3d 4616 86bd
00000070: 0361 393e 5593 9f3c 4e28 48be b308 44be

layers.0.projection.weight f4 [32, 16]
0.009358381 -0.15455139 0.13172218 -0.2100229 -0.343561 -0.12907892 0.075930625 0.18131423
-0.051289927 -0.15207547 -0.14718828 -0.37202123 0.10218224 -0.12839891 -0.1215793 -0.30716416
0.13571787 -0.22936109 0.2016058 -0.18248141 0.096486226 -0.14487848 -0.13691087 0.20617336
-0.22960548 0.10125243 0.14087217 0.003676625 -0.1561631 0.17137305 0.08445946 -0.15568513
-0.045074947 -0.022148669 0.21836275 0.1281241 -0.21463904 -0.09397793 0.16578919 0.11238247
0.051077206 -0.20857406 0.23318793 -0.050793245 -0.001580298 -0.09143726 0.0061395406 -0.18369292
-0.07437605 -0.17255631 -0.10307661 -0.20321235 0.012459099 0.10238606 -0.13532045 0.19910625
0.05720271 0.06228223 0.115546405 -0.049415767 0.061578095 -0.22285059 0.04795298 -0.14294174
0.0011116713 0.055609584 0.08245155 0.10959682 0.1939119 0.17610595 -0.002022778 0.012275994
-0.01375416 0.01860533 -0.0051648933 -0.5397606 -0.21482804 0.25199285 -0.0050149825 0.14044885
-0.11249294 -0.10725552 0.06957975 -0.083797224 0.051025312 -0.2142835 -0.08944429 0.19371775
-0.085545786 -0.23234968 0.05383212 -0.004237075 -0.20391762 -0.2379967 -0.07681956 -0.4027787
0.24088798 0.16539752 0.16313297 0.17609468 -0.038610306 -0.059158683 -0.23126113 -0.19384673
0.15454987 -0.26973912 -0.2528903 0.052624367 0.2432931 -0.15514548 0.13603392 0.0842706
0.23590076 0.23506305 0.100134134 -0.07386966 0.1563248 -0.19107458 -0.035150375 -0.20939001
0.12261596 -0.05716224 -0.23334976 -0.03129511 -0.22292957 0.16698095 0.06731566 0.21069866
0.09539083 -0.16912901 0.1026572 -0.11071828 -0.08801356 -0.11201537 0.20571414 0.10846794
0.018630644 0.100636035 0.019135028 0.2046239 0.11798492 0.20173112 0.040112294 -0.30328676
0.13607356 0.24383143 -0.044768393 0.10642955 0.19382653 -0.07296106 -0.033979654 0.061454296
-0.11791553 -0.08311972 0.03474856 -0.3896578 -0.05809778 -0.17337345 -7.19053e-05 -0.090541124
-0.12784144 0.081172824 -0.032435685 -0.3259408 -0.12816046 -0.15917042 0.106632374 0.19800109
0.06662305 -0.23956904 0.03529355 -0.33498138 0.06271386 0.18051466 0.100096 0.11142967
0.04593186 0.12281275 0.24620506 -0.13138312 -0.0036487353 0.041439205 0.0051566665 0.115433276
0.10096311 0.027508795 0.2796689 0.4457356 0.13266954 0.26607385 0.20917024 0.0004173719
-0.25608906 -0.23878783 0.15212151 -0.07026116 0.20450175 -0.16407886 0.24792498 -0.09326157
0.014691465 0.23405491 0.03272537 -0.4667872 0.12922347 -0.120723456 -0.027756076 0.22217663
0.039031226 -0.09470928 0.08172399 -0.03907202 0.004864724 0.099386156 -0.13789941 -0.21317264
-0.017251443 -0.12674008 -0.07347718 0.21836616 -0.093636096 -0.29904932 0.109418154 -0.0788417
0.18709396 -0.011388183 0.09297234 0.23510554 -0.002063798 -0.17267835 -0.07626931 0.12999392
-0.1264095 0.19827965 -0.0998841 0.06938813 -0.035910994 -0.20308562 -0.20417221 -0.08973811
-0.06811047 0.18937683 0.23068804 0.1385959 0.09953298 0.15199617 -0.099006556 -0.03701827
-0.1765788 0.075224236 -0.26896873 -0.5073378 0.18014312 -0.1580288 -0.28339863 -0.14549787
00000000: e553 193c b842 1ebe 2ee2 063e 3e10 57be
00000010: 3ae7 afbe 442d 04be 8481 9b3d 70aa 393e
00000020: 6315 52bd acb9 1bbe 86b8 16be 9179 bebe
00000030: ec44 d13d 017b 03be 91fe f8bd 9f44 9dbe
00000040: a0f9 0a3e a2dd 6abe c071 4e3e 68dc 3abe
00000050: 929a c53d 065b 14be 5d32 0cbe 1c1f 533e
00000060: b31d 6bbe 6f5d cf3d cb40 103e 88f3 703b
00000070: 38e9 1fbe 6b7c 2f3e 15f9 ac3d ec6b 1fbe
00000080: 82a0 38bd 2071 b5bc 7c9a 5f3e f732 033e
00000090: 56ca 5bbe 8077 c0bd a4c4 293e c828 e63d
000000a0: 5536 513d 7094 55be d1c8 6e3e 940c 50bd
000000b0: 0022 cfba 7543 bbbd 332e c93b ff19 3cbe
000000c0: 7852 98bd 9ab2 30be d419 d3bd e616 50be
000000d0: 4021 4c3c c8af d13d 7291 0abe 82e2 4b3e
000000e0: 644d 6a3d a71b 7f3d 98a3 ec3d 3068 4abd
000000f0: 5039 7c3d f232 64be 586a 443d 525f 12be
00000100: 80b5 913a e0c6 633d 5cdc a83d 4c74 e03d
00000110: d790 463e 1e55 343e 9590 04bb 4021 493c
00000120: 2159 61bc 346a 983c 443e a9bb c02d 0abf
00000130: e2fb 5bbe 3505 813e b954 a4bb d3d1 0f3e
00000140: b362 e6bd c8a8 dbbd d47f 8e3d e19d abbd
00000150: ebff 503d 226d 5bbe 912e b7bd f25d 463e
00000160: a132 afbd 13ed 6dbe 127f 5c3d 29d7 8abb
00000170: c8cf 50be 68b5 73be 9353 9dbd 0339 cebe
00000180: 57ab 763e f85d 293e 540c 273e 2a52 343e
00000190: d725 1ebd 6050 72bd b8cf 6cbe c27f 46be
000001a0: 5242 1e3e 3f1b 8abe d67a 81be a68c 573d
000001b0: d421 793e 75de 1ebe 7a4c 0b3e 1096 ac3d
000001c0: f88f 713e 5eb4 703e 2013 cd3d fa48 97bd
000001d0: 9c13 203e 0ea9 43be d7f9 0fbd 566a 56be
000001e0: 141e fb3d f422 6abd 3df3 6ebe 4d2f 00bd
000001f0: a647 64be 0efd 2a3e cbdc 893d 64c1 573e
00000200: 445c c33d 2830 2dbe f03d d23d 44c0 e2bd
00000210: 7440 b4bd 5068 e5bd baa6 523e 7024 de3d
00000220: 4b9f 983c 441a ce3d 10c1 9c3c ed88 513e
00000230: 14a2 f13d 9a92 4e3e ca4c 243d 6748 9bbe
00000240: de56 0b3e f2ae 793e 105f 37bd bcf7 d93d
00000250: 767a 463e 9c6c 95bd 402e 0bbd 80b7 7b3d
00000260: b37d f1bd ac3a aabd 8254 0e3d 3a81 c7be
00000270: f0f7 6dbd cf88 31be ddcb 96b8 a06d b9bd
00000280: dee8 02be f03d a63d 48db 04bd b6e1 a6be
00000290: 7f3c 03be 92fd 22be 1362 da3d ccc0 4a3e
000002a0: aa71 883d 9651 75be f88f 103d ae82 abbe
000002b0: 2070 803d d6d8 383e 22ff cc3d 3d35 e43d
000002c0: 0c23 3c3d 4085 fb3d 2e1d 7c3e 4c89 06be
000002d0: 9f1f 6fbb 28bc 293d 41f9 a83b 4868 ec3d
000002e0: bfc5 ce3d 205a e13c c330 8f3e 7537 e43e
000002f0: 86da 073e d53a 883e b930 563e b5d2 da39
00000300: 1b1e 83be cc84 74be bec5 1b3e 15e5 8fbd
00000310: e868 513e 4a04 28be 0ce0 7d3e ecff bebd
00000320: 78b4 703c 17ac 6f3e 0a0b 063d bbfe eebe
00000330: 2853 043e dc3d f7bd b660 e3bc 4582 633e
00000340: 35df 1f3d f0f6 c1bd e85e a73d fc09 20bd
00000350: 4368 9f3b f88a cb3d 8135 0dbe ee49 5abe
00000360: e652 8dbc 27c8 01be 347b 96bd 619b 5f3e
00000370: 48c4 bfbd fe1c 99be a016 e03d c277 a1bd
00000380: 8f95 3f3e 8095 3abc 4868 be3d 82bf 703e
00000390: c940 07bb 98d2 30be 1633 9cbd 201d 053e
000003a0: 7e71 01be d209 4b3e 0990 ccbd 5d1b 8e3d
000003b0: 6817 13bd adf5 4fbe 8512 51be 9dc8 b7bd
000003c0: 817d 8bbd 00ec 413e 7c39 6c3e 15ec 0d3e
000003d0: f2d7 cb3d e2a4 1b3e f3c3 cabd 78a0 17bd
000003e0: 13d1 34be 2a0f 9a3d 45b6 89be e4e0 01bf
000003f0: 7077 383e 4dd2 21be a019 91be 65fd 14be

layers.0.projection.bias f4 [32]
-0.12352864 0.19342986 0.13675377 -0.14028318 -0.076291524 -0.31268463 -0.27022523 0.13434964
-0.17188488 -0.27475867 -0.28204224 0.12632348 -0.044735048 0.061335035 0.069144085 0.048665322
0.20532353 0.14780477 0.19455495 -0.2705384 -0.15828122 0.05591551 0.021046598 -0.12487367
-0.037046026 0.12715437 -0.12276273 0.15579475 0.07183821 -0.20073584 0.20527191 0.01169486
00000000: 95fc fcbd 7a12 463e 2e09 0c3e 65a6 0fbe
00000010: bb3e 9cbd 3318 a0be f65a 8abe f492 093e
00000020: 9702 30be 2bad 8cbe d767 90be f15a 013e
00000030: 193c 37bd 723a 7b3d 6a9b 8d3d 4a55 473d
00000040: 5540 523e 225a 173e 6a39 473e 0284 8abe
00000050: 7914 22be a907 653d ea69 ac3c c4bd ffbd
00000060: 93bd 17bd c134 023e 076b fbbd a988 1f3e
00000070: e91f 933d b28d 4dbe cd32 523e cc9b 3f3c

layers.1.mlp_edge_conv.gconv.convs.<stroke___ordered_next___stroke>.nn.0.weight f4 [64, 64]
0.05924568 0.06486611 -0.099339336 -0.116274975 -0.1463898 0.11606193 -0.09292766 -0.07015643
9.2838454e-05 -0.14581442 -0.08458793 -0.14534804 0.13377751 0.09461425 -0.21141207 0.1107827
0.004108737 0.08654601 0.052017167 0.078595705 -0.19913451 0.06297577 -0.05900467 0.0596612
-0.0900227 0.07507972 0.0071414527 0.23102778 0.16229764 -0.19374143 0.1434669 -0.07932396
0.039119907 -0.4704445 -0.027506908 0.09049583 -0.008902927 -0.2094116 -0.19474618 -0.112838425
-0.04451268 0.0017784447 -0.07674121 -0.11811546 -0.13646016 -0.20233737 -0.035302408 0.22391775
0.1588595 0.022527311 -0.10576959 -0.082845844 -0.005108724 -0.08018861 -0.07438527 -0.0854448
-0.034349896 0.00998576 -0.083523706 -0.043609258 -0.2878383 0.024890982 -0.018049719 0.07477441
0.0059240577 -0.016601063 0.049993034 0.10821708 -0.0045422222 -0.03670216 0.027588991 0.029284908
0.10423713 -0.19712633 0.059560508 0.0372801 0.025856236 0.09519616 -0.11361695 -0.04966962
0.0887431 0.0975239 0.06928758 -0.09454376 -0.030648189 0.22919475 0.13969345 -0.21016628
-0.049476385 0.20855808 0.19409832 0.010258036 0.122768804 -0.0128089655 -0.08752114 -0.2994118
0.0008333472 0.0055366666 -0.09570688 0.12393206 0.02487963 0.008123114 -0.31144768 -0.32426366
-0.12834975 -0.0019912417 0.06284709 -0.50664747 0.042533293 -0.04588273 0.004277733 0.062373236
-0.10600024 -0.19300453 0.10820672 -0.5047072 0.02550201 0.3279411 0.051611416 0.7025512
0.07474214 -0.12203611 -0.029705087 0.08403748 -0.5913802 0.17479125 0.12406486 0.26530907
-0.16590619 0.12025128 -0.19288515 -0.0836893 -0.2653693 -0.17329116 -0.24282762 -0.044487104
-0.22258647 -0.04444009 -0.2218841 0.057845023 0.07662242 0.1568375 -0.086049825 0.24018021
0.2074385 -0.056783237 0.155881 -0.31837934 -0.18447192 0.027817115 -0.07077098 0.15757933
-0.36817515 0.021459691 -0.23007193 0.2968094 -0.012205278 -0.19341244 0.080974065 -0.38745585
-0.13796185 -0.40284163 -0.05837678 0.05632063 -0.14571151 -0.063557155 -0.073616505 0.030671421
0.10270161 -0.19454505 0.15970056 -0.037478756 0.019392261 -0.0062705968 -0.27183136 -0.05542718
0.18104792 0.05214118 -0.04133773 -0.0076965974 0.033340476 0.08397123 -0.40622997 -0.30765468
0.05009169 0.103926264 0.055490877 -0.12465587 -0.11227854 0.11898046 -0.006247045 0.025357505
0.22371921 -0.15081432 -0.09980915 -0.12349971 -0.22824983 0.25235596 0.04524646 -0.18991387
-0.09764812 0.17776239 -0.011718745 -0.10597351 -0.25866824 -0.10577776 0.09055932 0.08514625
0.0061039124 -0.06674227 -0.14857714 0.098088086 -0.028811028 -0.22595426 0.022047365 0.039584707
0.1852675 -0.1433044 0.0433172 -0.05007924 -0.090006314 -0.06278848 0.06280647 0.025018455
0.028117467 0.021507407 -0.031283736 0.0725458 0.13273339 0.07590453 -0.028367823 -0.011135578
0.05837666 -0.021602208 0.098572195 -0.16187884 0.023028983 -0.0271969 -0.14003853 0.038121335
-0.07008807 0.10825026 0.16855498 0.26525152 0.18280916 0.15633713 0.15889043 0.2406482
0.09430156 0.10924602 0.18942803 -0.003286767 0.0064100176 0.05765132 0.21798319 0.052078314
00000000: 99ab 723d 86d8 843d 6c72 cbbd 9321 eebd
00000010: 35e7 15be e1b1 ed3d db50 bebd 2dae 8fbd
00000020: 44b2 c238 6050 15be 703c adbd 1ed6 14be
00000030: f9fc 083e 1ec5 c13d 687c 58be 0ae2 e23d
00000040: 96a2 863b 093f b13d f40f 553d c9f6 a03d
00000050: ebe9 4bbe 71f9 803d e1ae 71bd 4d5f 743d
00000060: d25d b8bd 65c3 993d d902 ea3b 8c92 6c3e
00000070: 5a31 263e 2764 46be fde8 123e 9a74 a2bd
00000080: 323c 203d 1ade f0be 2b56 e1bc e155 b93d
00000090: 95dd 11bc ff6f 56be 8b6b 47be d517 e7bd
000000a0: ee52 36bd b41a e93a 7f2a 9dbd 85e6 f1bd
000000b0: 36bc 0bbe 8731 4fbe 4299 10bd b24a 653e
000000c0: 11ac 223e 328b b83c ba9d d8bd 15ab a9bd
000000d0: 1567 a7bb ed39 a4bd 4e57 98bd affd aebd
000000e0: 7ab2 0cbd 509b 233c 7a0e abbd 9f9f 32bd
000000f0: 8b5f 93be 2ce8 cb3c 01dd 93bc 5323 993d
00000100: 991e c23b f4fe 87bc 7fc5 4c3d eba0 dd3d
00000110: ecd6 94bb 0155 16bd 4f02 e23c e7e6 ef3c
00000120: 477a d53d 7cdb 49be b8f5 733d 05b3 183d
00000130: 75d0 d33c 34f6 c23d 01b0 e8bd 5f72 4bbd
00000140: f1be b53d 9cba c73d a6e6 8d3d 29a0 c1bd
00000150: e911 fbbc 07b2 6a3e cd0b 0f3e d435 57be
00000160: c0a7 4abd 4090 553e b6c1 463e 5211 283c
00000170: 366e fb3d b2dc 51bc 493e b3bd 814c 99be
00000180: fc74 5a3a ed6c b53b f801 c4bd 18d0 fd3d
00000190: 5ed0 cb3c cf16 053c 1276 9fbe e305 a6be
000001a0: 1e6e 03be 7e7f 02bb fab5 803d a6b3 01bf
000001b0: 6437 2e3d 88ef 3bbd 3a2c 8c3b 147b 7f3d
000001c0: a716 d9bd fba2 45be 7c9b dd3d 7e34 01bf
000001d0: 97e9 d03c e5e7 a73e 7e66 533d 65da 333f
000001e0: 6812 993d 11ee f9bd 1558 f3bc d81b ac3d
000001f0: b164 17bf 7afc 323e b815 fe3d 97d6 873e
00000200: 50e3 29be 4e46 f63d af83 45be 4c65 abbd
00000210: 7cde 87be 3d73 31be cea7 78be 1c38 36bd
00000220: b5ed 63be d006 36bd 9635 63be e7ee 6c3d
00000230: 37ec 9c3d 029a 203e e43a b0bd cdf1 753e
00000240: c26a 543e 8a95 68bd 459f 1f3e 9e02 a3be
00000250: 35e6 3cbe b8e0 e33c 60f0 90bd 7a5c 213e
00000260: 7481 bcbe 3ccc af3c fa97 6bbe 67f7 973e
00000270: a5f8 47bc e90d 46be bbd5 a53d 9d60 c6be
00000280: df45 0dbe 4241 cebe 7e1c 6fbd 76b0 663d
00000290: 6635 15be 412a 82bd 40c4 96bd a242 fb3c
000002a0: 3955 d23d d136 47be 8b88 233e 5383 19bd
000002b0: 85dc 9e3c 9479 cdbb 7b2d 8bbe 9c07 63bd
000002c0: a064 393e fd91 553d c051 29bd bd33 fcbb
000002d0: 0690 083d 1cf9 ab3d 60fd cfbe ea84 9dbe
000002e0: f22c 4d3d 4bd7 d43d 674a 633d 944b ffbd
000002f0: 4bf2 e5bd 07ac f33d 03b4 ccbb 8bba cf3c
00000300: a616 653e 126f 1abe bd68 ccbd 6aed fcbd
00000310: 53ba 69be cd34 813e 5a54 393d c878 42be
00000320: bdfb c7bd 5807 363e fbff 3fbc a408 d9bd
00000330: 2a70 84be 03a2 d8bd 2a77 b93d 2861 ae3d
00000340: 5403 c83b 2cb0 88bd 9b24 18be 68e2 c83d
00000350: 1b05 ecbc 8e60 67be ad9c b43c 9323 223d
00000360: c3b6 3d3e 63be 12be 606d 313d e41f 4dbd
00000370: 3b55 b8bd 3f97 80bd aea0 803d 81f3 cc3c
00000380: 9a56 e63c 4d30 b03c 6023 00bd e492 943d
00000390: 43eb 073e d673 9b3d a363 e8bc 0072 36bc
000003a0: 5d1c 6f3d 1df7 b0bc 38e0 c93d 91c3 25be
000003b0: 47a7 bc3c 09cc debc 4366 0fbe 1e25 1c3d
000003c0: 568a 8fbd 50b2 dd3d ad99 2c3e 0ccf 873e
000003d0: 5332 3b3e d716 203e 2cb4 223e 7b6c 763e
000003e0: 2d21 c13d 61bc df3d 6cf9 413e cd66 57bb
000003f0: 200b d23b ca23 6c3d fc36 5f3e 1250 553d

layers.1.mlp_edge_conv.gconv.convs.<stroke___ordered_next___stroke>.nn.0.bias f4 [64]
-0.049512804 0.105158836 0.24779226 -0.22848442 0.24043234 -0.20279081 -0.057018798 0.13884613
0.09671605 0.07451575 -0.26054415 0.13210098 -0.05599601 -0.07394624 0.11395019 -0.15578127
0.037216514 -0.07758523 0.07344411 0.185671 -0.17359032 -0.21945009 0.027876023 -0.06780989
0.103597455 0.18076122 -0.13431281 0.14478593 -0.0837905 0.015876615 -0.11537165 -0.14533776
0.21177085 -0.12808856 -0.030338582 -0.06517282 0.15795228 0.023418503 -0.16361365 0.089003935
-0.07360134 0.06485857 0.18379234 0.11481858 -0.06557192 -0.16218878 -0.11982734 -0.08264786
0.10401674 -0.004546939 0.0912156 -0.16569328 -0.23343013 -0.060455825 0.10390764 0.048010077
0.18801217 -0.087725244 -0.032579385 0.14041448 -0.078153126 -0.007825671 -0.3033973 0.14529712
00000000: f0cd 4abd 845d d73d 41bd 7d3e d2f7 69be
00000010: e533 763e 65a8 4fbe 8b8c 69bd ae2d 0e3e
00000020: 1013 c63d b79b 983d 0b66 85be 7b45 073e
00000030: 125c 65bd 2071 97bd b85e e93d 2085 1fbe
00000040: 5870 183d 01e5 9ebd de69 963d 8a20 3e3e
00000050: a9c1 31be 86b7 60be 425c e43c e9df 8abd
00000060: e72a d43d 7819 393e 4c89 09be c342 143e
00000070: 5b9a abbd ad0f 823c f947 ecbd 6cd3 14be
00000080: 75da 583e a629 03be 9e88 f8bc 5479 85bd
00000090: 3ebe 213e 29d8 bf3c 568a 27be b247 b63d
000000a0: 4dbc 96bd 92d4 843d 0f34 3c3e 0126 eb3d
000000b0: 924a 86bd d114 26be 0968 f5bd 4843 a9bd
000000c0: bb06 d53d 7dfe 94bb 3fcf ba3d 80ab 29be
000000d0: 4f08 6fbe 87a0 77bd 87cd d43d 37a6 443d
000000e0: 4386 403e 4ba9 b3bd f671 05bd d0c8 0f3e
000000f0: bf0e a0bd 3e37 00bc e456 9bbe c5c8 143e

layers.1.mlp_edge_conv.gconv.convs.<stroke___connected_to___stroke>.nn.0.weight f4 [64, 64]
-0.092436545 0.00021289948 -0.1758785 -0.005409015 -0.061464693 -0.05595355 0.06146632 -0.0706448
0.10984533 -0.09555858 0.01904969 0.10677031 0.10136671 -0.079515986 -0.27976656 0.095607735
0.096056506 0.08570658 -0.084811196 -0.008501181 0.03608435 -0.120967776 -0.091788925 0.10019344
0.0073280395 0.09358096 0.05116786 -0.03698148 0.19072534 0.04326926 -0.07682457 -0.11263142
-0.12636504 0.21126662 0.5479422 -0.13688211 0.00880159 0.03834134 -0.090868026 0.07601663
0.03148156 0.0330395 0.09536835 0.091165416 0.07838951 0.00053366553 0.52318525 -0.03301471
-0.05914866 -0.0186461 -0.03080788 -0.0005026391 0.0034433366 0.041289285 0.22391649 -0.12118882
-0.075194255 0.01914075 0.029514352 0.09816692 0.12536977 -0.08785864 -0.12185801 0.116727985
-0.13836297 -0.039724495 0.06430668 0.054704864 -0.21372318 0.0043566218 -0.14056973 0.098602846
0.0760403 0.013213221 -0.12344734 -0.019353827 0.053439338 0.11368434 -0.072920546 -0.08024488
0.043078363 0.022839224 0.11510472 -0.15335596 -0.21956667 -0.19405948 -0.07963321 0.008687369
0.025188461 -0.023718575 -0.113858715 -0.08361733 -0.026866654 0.020630796 -0.1320669 -0.071236745
-0.15560907 -0.09032632 -0.15711303 0.015289124 0.046716467 -0.047307387 0.006787026 -0.035117555
0.11837244 0.1949859 0.014034245 0.15290903 0.16356227 0.2769572 0.046443466 -0.18307109
0.0030397074 0.09443214 0.036973 -0.18168078 0.12528265 0.030866632 0.0634138 -0.11450438
-0.019602193 0.0044614067 0.15626249 0.0021090428 -0.04719263 -0.027558826 0.113899946 0.0063480875
0.07912709 0.12521052 -0.0066367555 0.056003015 -0.042002063 0.12979032 -0.009497571 0.07676704
-0.0060227173 0.12075331 -0.10668634 -0.1332543 0.15261203 0.0972671 0.029772582 -0.09763501
-0.17793764 0.053929783 -0.021351371 0.023873804 0.025810549 0.107723705 0.015056186 0.20338029
0.029399872 0.059017703 -0.10439159 -0.0692209 0.028094636 0.025892174 -0.07296414 -0.059513323
-0.022232268 -0.033225317 0.007578781 -0.19866593 -0.04024745 0.07522622 0.010395733 0.15749958
0.06348612 0.046925817 -0.0070984885 0.17253388 -0.045346685 0.11426589 -0.105479285 -0.07170825
0.13175012 -0.04751172 -0.12905116 -0.07527077 0.081358574 0.10382383 -0.15485413 -0.051866923
-0.120701276 0.105491735 0.01788429 0.07188733 -0.045705125 -0.025698572 -0.09150952 -0.17115451
-0.15319459 -0.00558491 0.14322014 0.051096473 0.052415024 0.25865886 0.10383187 -0.08310179
0.011928726 0.090742484 0.07138773 0.040583573 -0.051956937 -0.0013225437 -0.039597727 -0.073945984
0.079776436 0.009557054 -0.22301984 0.24390954 0.10240457 -0.07993109 -0.1612564 -0.08497421
0.016515449 -0.15669397 0.079263486 -0.057878427 0.15869392 -0.07449456 0.024652172 -0.10766153
0.30186865 0.16674487 0.12516661 -0.017873833 0.16873832 0.050305203 -0.164463 0.017297523
-0.01656255 -0.015617105 0.13216592 0.06840532 0.19164948 0.120690614 -0.14781272 0.19616315
-0.09286302 -0.059533227 0.2426836 -0.025292337 0.11690719 0.09524059 0.020819012 -0.03337815
-0.07421983 0.16956186 0.02987068 0.027944414 -0.1273826 0.25910243 0.088417314 0.039131634
00000000: 5f4f bdbd c53d 5f39 7e19 34be 1b3e b1bb
00000010: 67c2 7bbd 8d2f 65bd 1cc4 7b3d 39ae 90bd
00000020: 97f6 e03d 37b4 c3bd 180e 9c3c 64aa da3d
00000030: 5a99 cf3d 47d9 a2bd 903d 8fbe fdcd c33d
00000040: 46b9 c43d ee86 af3d 7eb1 adbd 8a48 0bbc
00000050: 2fcd 133d f4bd f7bd d5fb bbbd 3832 cd3d
00000060: 0d20 f03b 60a7 bf3d 6495 513d e479 17bd
00000070: 814d 433e 1c3b 313d 3356 9dbd 4dab e6bd
00000080: d665 01be 4756 583e f145 0c3f d32a 0cbe
00000090: 8b34 103c cf0b 1d3d 0419 babd 9bae 9b3d
000000a0: cff2 003d 6d54 073d 7b50 c33d efb4 ba3d
000000b0: ae8a a03d b0e5 0b3a 78ef 053f 6f3a 07bd
000000c0: de45 72bd b5bf 98bc cf60 fcbc 8ac3 03ba
000000d0: 9aa9 613b f41e 293d 5d4a 653e d831 f8bd
000000e0: 72ff 99bd 10cd 9c3c 15c8 f13c bd0b c93d
000000f0: ef60 003e 3bef b3bd b190 f9bd 150f ef3d
00000100: 06af 0dbe 27b6 22bd 38b3 833d 3512 603d
00000110: 40da 5abe fec1 8e3b 83f1 0fbe 4af0 c93d
00000120: 04bb 9b3d 447c 583c f6d1 fcbd eb8b 9ebc
00000130: 35e3 5a3d 56d3 e83d 5e57 95bd 6d57 a4bd
00000140: f072 303d 5319 bb3c 06bc eb3d 5809 1dbe
00000150: 16d6 60be 87b7 46be bd16 a3bd 7755 0e3c
00000160: 0858 ce3c 754d c2bc c22e e9bd 903f abbd
00000170: 7517 dcbc ea01 a93c 8c3c 07be 92e4 91bd
00000180: fc57 1fbe 01fd b8bd 3de2 20be 3c7f 7a3c
00000190: c459 3f3d 64c5 41bd b365 de3b 6dd7 0fbd
000001a0: 406d f23d 62aa 473e e4ef 653c 2f94 1c3e
000001b0: de7c 273e 56cd 8d3e 813b 3e3d fd76 3bbe
000001c0: d435 473b a365 c13d 0071 173d 870a 3abe
000001d0: 184a 003e 05dc fc3c 18df 813d 4681 eabd
000001e0: c794 a0bc fe30 923b 4603 203e de37 0a3b
000001f0: 0f4d 41bd 0cc3 e1bc 6044 e93d 9e03 d03b
00000200: 620d a23d 3037 003e 2479 d9bb 6b63 653d
00000210: 5b0a 2cbd c1e7 043e b39b 1bbc 0a38 9d3d
00000220: 375a c5bb 834d f73d 5e7e dabd d173 08be
00000230: 5446 1c3e f933 c73d a1e5 f33c ddf4 c7bd
00000240: 4935 36be 7ae5 5c3d 12e9 aebc ff92 c33c
00000250: a570 d33c 3f9e dc3d 39ae 763c ec42 503e
00000260: 00d8 f03c 8cbc 713d 42cb d5bd b0c3 8dbd
00000270: b926 e63c d31b d43c 396e 95bd 3ec4 73bd
00000280: 7220 b6bc 4517 08bd 6c57 f83b 156f 4bbe
00000290: 83da 24bd 3410 9a3d dd52 2a3c 9247 213e
000002a0: 0305 823d 4935 403d 709a e8bb b9ac 303e
000002b0: 72bd 39bd 3c04 ea3d 8605 d8bd c6db 92bd
000002c0: 81e9 063e a69b 42bd fd25 04be 9027 9abd
000002d0: 539f a63d 97a1 d43d 1592 1ebe 6972 54bd
000002e0: 3b32 f7bd 0d0c d83d 1382 923c aa39 933d
000002f0: 4c35 3bbd d085 d2bc 5869 bbbd 2143 2fbe
00000300: 0bdf 1cbe 9f01 b7bb 4da8 123e 894a 513d
00000310: 23b1 563d ef6e 843e cea5 d43d 4531 aabd
00000320: b470 433c 32d7 b93d bb33 923d f63a 263d
00000330: ccd0 54bd 3459 adba 3a31 22bd fe70 97bd
00000340: d461 a33d 3195 1c3c 505f 64be 6cc3 793e
00000350: 7db9 d13d e9b2 a3bd 6620 25be f506 aebd
00000360: 684b 873c 6274 20be e554 a23d ee11 6dbd
00000370: a980 223e 9b90 98bd 5af3 c93c a67d dcbd
00000380: 878e 9a3e 2bbf 2a3e ad2b 003e 256c 92bc
00000390: bdc9 2c3e d40c 4e3d fd68 28be 89b3 8d3c
000003a0: 2fae 87bc e3de 7fbc 8156 073e 1718 8c3d
000003b0: c33f 443e a42c f73d 385c 17be fede 483e
000003c0: f82e bebd 1dd9 73bd 0d82 783e e031 cfbc
000003d0: 096d ef3d 800d c33d a28c aa3c 87b7 08bd
000003e0: 9100 98bd a0a1 2d3e 5bb3 f43c afeb e43c
000003f0: 9670 02be 13a9 843e 2314 b53d 7e48 203d

layers.1.mlp_edge_conv.gconv.convs.<stroke___connected_to___stroke>.nn.0.bias f4 [64]
0.02958896 9.128118e-05 -0.011413728 -0.058512725 0.098125786 -0.028733667 0.10996761 -0.02347682
-0.026113844 0.024485588 -0.0025175926 0.10933436 0.12127059 -0.06274116 0.017732719 0.037321907
-0.12287621 0.034316078 -0.13931179 -0.14617093 -0.15314089 0.080567926 0.080520816 0.12187151
-0.18456003 0.011024823 0.07620409 0.06756921 -0.10245673 0.16910687 0.019282658 0.045631766
-0.10048659 0.1716697 -0.009557749 0.040615283 -0.142974 -0.13196102 -0.041212287 0.000617385
-0.011461624 0.07715927 0.14135867 -0.04356805 -0.1257474 -0.0023880717 -0.10307087 -0.17126766
-0.0010308466 0.09265438 0.011627542 -0.12753768 -0.10602972 -0.07213746 0.12509234 0.05983748
0.035526924 -0.0653954 0.08988677 -0.037678696 -0.1340874 0.010932346 -0.2863978 0.032726076
00000000: 8c64 f23c 366e bf38 a500 3bbc 0aab 6fbd
00000010: 2cf6 c83d de62 ebbc b336 e13d 7652 c0bc
00000020: b3ec d5bc 0096 c83c 32fe 24bb b1ea df3d
00000030: b75c f83d 707e 80bd 3544 913c dbde 183d
00000040: 86a6 fbbd 048f 0c3d c0a7 0ebe d5ad 15be
00000050: f7d0 1cbe cc00 a53d 19e8 a43d c597 f93d
00000060: 4efd 3cbe 76a1 343c e410 9c3d ba61 8a3d
00000070: d6d4 d1bd 5a2a 2d3e aaf6 9d3c 60e8 3a3d
00000080: eacb cdbd 2fca 2f3e 1b98 1cbc 365c 263d
00000090: c767 12be ca20 07be 37ce 28bd 02d8 213a
000000a0: 89c9 3bbc ae05 9e3d 54c0 103e 6974 32bd
000000b0: edc3 00be 3281 1cbb d216 d3bd ca60 2fbe
000000c0: 791d 87ba 94c1 bd3d 7281 3e3c 3d99 02be
000000d0: 1c26 d9bd cebc 93bd 3518 003e 2518 753d
000000e0: ae84 113d 06ee 85bd 8e16 b83d fa54 1abd
000000f0: 354e 09be 951d 333c bca2 92be c70b 063d
