checkpoints/reduce_construction/graph_decoder.pth (torch, 44420 bytes, 5 tensors)

decoder.0.weight f4 [128, 64]
00000000: 6213 323d 2849 37bb 6507 25bd 3c81 17bd
00000010: 5eae f6bd 57c1 f4bc 5d1f 853d 4f4e 18bd
00000020: b772 9bbd 76f9 76bc 189d f5bd 8557 9dbd
00000030: eb4b 86bc b934 ac3d 2702 833c 88b2 993d
00000040: 8e84 5ebd 138e 473d 7438 43bd 856a 94bb
00000050: da1a 36be 16df a4bd 598c 9e3d 887a a23d
00000060: 5285 713d 7410 8ebc 9cc9 03bd d227 31bd
00000070: 2b16 213d 9d62 cbbd cf21 93bd a3dc 77bd
00000080: 467b 283c 62b2 a43d 991f e0bd 80e8 11be
00000090: 6a1e f0bd eb51 9cbd 0e82 96bd a0a6 5ebd
000000a0: d8b4 aabd eb15 5e3d 7faa a83d 11c2 a6bd
000000b0: 2dff ff3c 88d0 bebd aee5 cfbc aeb8 c3bd
000000c0: d2b3 c5bd 2206 a7bd 8f32 7c3b 4496 a0bd
000000d0: 7b3f 1bbd fc90 d93c b52f 8a3c 8c8b 17bd
000000e0: 4431 86bc 7224 2b3c b6d9 0dbe dc28 ac3d
000000f0: c042 953d f23a a4bd 31bb 863d 38d4 12be
00000100: 0799 9dbd 2064 5ebe 6d9e 69be ee5b 88be
00000110: f2eb 78bd 3f74 773d 11f6 3bbd 3736 ebbd
00000120: d84b 363a 5b51 0ebd f4c5 ecbd af12 713d
00000130: bba8 593c bb1f 8c3c 88bf f03d 4f24 91bd
00000140: e36a da3d 66f9 213e 9308 903d fa7d 4fbe
00000150: bc1b 27be ec68 ca3d 8b0a d4bd ec9c e73d
00000160: 984b 12be 1f63 3abe 8c1e 6e3c 40f6 15be
00000170: e973 0dbd be8b 3a3d bf0f 90bd 743a 303d
00000180: a31d 0f3e fa78 76bd 2818 223d c57e 07be
00000190: 6065 123c cb06 ccbd 4b25 aa3d b907 973d
000001a0: 2834 1b3d 431c a7ba 625a e03d 29ac 5e3c
000001b0: 1a11 96bd 8ca9 b4bd 5d70 aabc f041 4e3c
000001c0: a2b1 f4bc edc4 29bd a1a6 633d 8ae0 dabc
000001d0: 4ad0 b13d f865 803d 7a9c aebd 0f2b 31bc
000001e0: 12e8 5a3d 72ec 8b3d c5c8 1cbe 5fa2 243e
000001f0: b16f e9bd 754f 713c d309 ccbd 9a01 b93d
00000200: 6e59 dbbd 2c9d a8bd 4cfb f5bc 93f7 123c
00000210: 6522 193b 71b2 07be 0b4a 373d 3128 b5bc
00000220: 402b 393d 938a e23c 8b71 79bd 68c1 bebd
00000230: 3146 9d3d dadf 18bd 4db0 f9bd d66f 2f3d
00000240: 05ab 88bd 9d43 15be 7a7d dc3c ace3 f9bc
00000250: e5bf 84bd 66a0 83bd ed8d 833d 73bf 6cbd
00000260: 6434 d7bd 19b8 23bc df2c 2b3d 461b 8fbd
00000270: fb67 afbd 0e1b 52bd 0137 f1bd fe96 be3d
00000280: 9c1f e8bd a795 5b3c 9f49 4dbd d179 a2bd
00000290: a8f7 a93d dff9 5dbd db42 90bc 4b03 cf3b
000002a0: 15b1 563d e586 85bd 3179 96bd 792a e1bc
000002b0: 6c17 bbbc 1317 313d 0655 fa3b 4441 e3bd
000002c0: 1621 eabc edaf 81bb 0942 27bc 39ce 0cbd
000002d0: d138 c53c e1f1 7b3d e0fc a73d 782f 1a3d
000002e0: aac7 52bb f048 063d 18ed cebc f730 633d
000002f0: c534 e73c fafc a2bd 447c a0bd 3782 2bbe
00000300: ad17 763e 4726 adba ecdb d53d 3644 2bbe
00000310: a219 17bd 2bec 07be e129 a7bd 0397 2a3e
00000320: f3d6 7abd daa8 b2bd 2480 b7bc 14a0 143e
00000330: 93cd 64be f1cb ea3d 59eb b2bd 0d51 fcbd
00000340: 0345 f2bc 6cd7 853d 0cb9 bebd 1184 363d
00000350: a6c8 a7bd 0fa1 f73c 2182 2fbd b9dd ebbd
00000360: ecd6 d1bd 4d98 3bbc d3b0 6ebd e319 d2bd
00000370: 03c6 1a3d ec35 7bbd bbd5 6bbd b7ab e13b
00000380: fada 5c3d 7e77 8d3c 2a8c cc3d 9729 d53c
00000390: 1849 c63d 6772 333e cbb8 0a3d da63 cb3d
000003a0: b440 17be 38e0 cabd 8df7 703c 5010 02bd
000003b0: 23e0 ee3d 1647 33be ebe2 653c 947d 843b
000003c0: e7ec a83c c6ef 1b3e 7e41 65be b6b0 3abe
000003d0: eef1 cfbc e2f1 cfbd 0511 8f3c 558c cc3d
000003e0: 8cf4 b0bc 35ce ddbc d112 49bd 8108 c83d
000003f0: f272 72be 7268 0d3d 3cda b33d 497a 2a3d
0.043475516 -0.0027967189 -0.040290255 -0.036988482 -0.12044977 -0.029877348 0.06500123 -0.037184056
-0.075902395 -0.015074125 -0.11992854 -0.07682709 -0.016393622 0.084084935 0.015992237 0.07504755
-0.054325633 0.048719477 -0.04766126 -0.0045292997 -0.1778368 -0.08050363 0.07741613 0.07933527
0.058965035 -0.01734183 -0.03217469 -0.043250866 0.03932778 -0.09930918 -0.07184183 -0.06051315
0.010283297 0.08041836 -0.10943527 -0.14248848 -0.11724551 -0.07632812 -0.07349025 -0.054358125
-0.083352745 0.05422012 0.082356445 -0.08142484 0.031249607 -0.09317118 -0.025378074 -0.09556709
-0.09653439 -0.081554666 0.0038482284 -0.07841161 -0.037902337 0.026558392 0.016868452 -0.036998317
-0.016380914 0.010445701 -0.13852581 0.08406231 0.07288122 -0.080190554 0.06578673 -0.14338768
-0.07695203 -0.21717882 -0.22814341 -0.26632637 -0.06077189 0.060413595 -0.045888964 -0.1148495
0.00069540506 -0.034745555 -0.11561194 0.05885571 0.013284857 0.017104974 0.11755282 -0.070870034
0.10664918 0.15817794 0.070328854 -0.202629 -0.16319174 0.098832935 -0.103535734 0.11309227
-0.14286649 -0.18201874 0.01453365 -0.14644718 -0.03453437 0.045543425 -0.07034253 0.043024495
0.1397615 -0.060173966 0.03957382 -0.13231952 0.0089353025 -0.09962233 0.08307894 0.0737452
0.037891537 -0.0012749512 0.10954739 0.013590851 -0.073274806 -0.08821401 -0.020805532 0.012588963
-0.029869858 -0.04144757 0.05557883 -0.026718397 0.08682306 0.06269449 -0.08525939 -0.010813489
0.053443976 0.06832208 -0.15310962 0.16077565 -0.113982566 0.014728417 -0.09962811 0.090335086
-0.10710417 -0.08233103 -0.030027054 0.008970159 0.0023366448 -0.13251664 0.044748347 -0.022113891
0.045207262 0.027653968 -0.0608993 -0.09314233 0.076794036 -0.037322856 -0.1219183 0.042831264
-0.066732444 -0.14576574 0.0269153 -0.03050407 -0.064819135 -0.06427078 0.064235546 -0.057799768
-0.105080396 -0.009992623 0.04179084 -0.06987624 -0.085647546 -0.051295333 -0.11778069 0.09306143
-0.11334154 0.013402379 -0.05011904 -0.07933391 0.0829919 -0.054193374 -0.017610004 0.006317531
0.052414972 -0.0651987 -0.07347334 -0.027486073 -0.022838317 0.043234896 0.00763953 -0.11096433
-0.02858023 -0.0039577396 -0.010208615 -0.034376357 0.024074944 0.06150997 0.08202529 0.037642926
-0.0032162466 0.032784402 -0.02525954 0.05546662 0.028223405 -0.07958408 -0.07836202 -0.16748892
0.24032469 -0.001321026 0.104423374 -0.16725239 -0.03688968 -0.13273685 -0.08162285 0.16659169
-0.061240148 -0.08723612 -0.02239997 0.1451419 -0.22344045 0.1146468 -0.08736295 -0.12320147
-0.029573923 0.06535229 -0.09312639 0.044559542 -0.081925675 0.030228166 -0.04284871 -0.115168996
-0.10246071 -0.011449886 -0.0582741 -0.10258844 0.037786495 -0.06133072 -0.057576876 0.006886925
0.05391977 0.017268892 0.09987672 0.026020808 0.0968191 0.1752411 0.03386764 0.099311545
-0.14770776 -0.099060476 0.014707458 -0.031753838 0.116638444 -0.17507586 0.014031152 0.0040432904
0.020620776 0.15228185 -0.22388265 -0.18231472 -0.025383916 -0.10153557 0.01746417 0.09987704
-0.021600984 -0.027075866 -0.04909021 0.09767247 -0.2367666 0.034523435 0.08781859 0.041620526

decoder.0.bias f4 [128]
00000000: 6fe2 cd3c 27d1 25be a160 e9bc 9bee 893b
00000010: 3d3e 26be e464 fc3d 4fc5 dabc ca07 9dbd
00000020: 06e0 3ebe 7205 b23d 739d aabd 0566 cd3d
00000030: 1742 073e e338 253d 10cf 01bb e690 63bd
00000040: 3372 183d cac5 8fbd ecfc b53d 8117 97bd
00000050: bf51 a6bd 13ad b1bd 5c1e fd3d 9c5c d23c
00000060: 33d9 5abd 9921 14be 2eae 903d 2b2d debd
00000070: 476f 1b3d e7d1 4f3e 9592 3f3e 74fa 0b3d
00000080: 4012 4a3e e0ee c93c adfb 8a3d ad27 3bbe
00000090: ded6 03bc c5f3 f8bd 5fb3 25bd f220 8f3c
000000a0: a4da d83b b568 8f3c 16a7 cf3d 981d d03d
000000b0: 6d64 2cbe c87a 323e 0b79 df3d 968c 19bd
000000c0: 5d29 d73d 18e6 483e 0bc8 843e 9cc1 f03d
000000d0: 29c8 51bd 5c1d 323d 2acb 003e 2b6f b23d
000000e0: 6cb4 0f3d ed8d 95bd 14b9 da3d 4d93 ff3c
000000f0: 1b81 643d ba9a ec3d d7ea c6bd 2a2f e83c
00000100: 0c27 a3bd 7790 e93b 9e9e cf3c efaa 913d
00000110: beaa 8bbd 62a5 87bd f178 2dbd e4a2 783d
00000120: cc29 2cbd 3bca 863c 4bf9 b33d f9a1 06bc
00000130: 447f 253e e5d4 0abe 1281 84bd ca56 c4bd
00000140: d947 03be 92b7 edbd caea e13d 1802 b2bc
00000150: c921 093e 68b8 3bbd 9982 06be b7a8 a23c
00000160: f43a 193e 7bf5 773c 83e7 783c 4935 073a
00000170: 6810 20be cc88 c83d cbac 68bd 1eaa ddbc
00000180: 7dad 223e ebb2 673e cff3 5c3e 32d3 32bd
00000190: e49b 22be 303d b93c d923 d6bd 447e c3bd
000001a0: 221b 78bd 70f8 95bd 33f8 373d a98b 3ebc
000001b0: fe9d 08be a8cb 5a3d db13 163c 626d b639
000001c0: e0fa 0bbe 8083 783d 1f69 f43d 17cf 9d3d
000001d0: 842f c8bd 7156 1a3e 7a75 313e 3747 663e
000001e0: 13f4 823d bcfd 333e cf55 333e d672 6b3d
000001f0: 4c27 1d3d c1b4 193e 7efd c0bc d801 27be
0.025132386 -0.16193067 -0.028488459 0.004209352 -0.1623468 0.12323931 -0.026705412 -0.07667501
-0.18640146 0.08692445 -0.08330812 0.10029224 0.13208805 0.040337455 -0.0019807257 -0.055558108
0.037218284 -0.07020147 0.08886132 -0.0737753 -0.081210606 -0.086755894 0.12359306 0.025678925
-0.053429794 -0.14465941 0.07064472 -0.10848459 0.03794792 0.20294915 0.1870826 0.034174398
0.19733524 0.024650037 0.067862846 -0.18276854 -0.008046834 -0.1215587 -0.040454265 0.017471764
0.006617861 0.017505983 0.10139291 0.101618946 -0.16835184 0.1742965 0.10911759 -0.03748759
0.10505936 0.19619024 0.2593387 0.11755678 -0.05121628 0.04348503 0.12577501 0.0871261
0.035084173 -0.07302461 0.10679832 0.031198168 0.055787187 0.11552949 -0.09712761 0.028342802
-0.07966432 0.0071278173 0.02534419 0.07112681 -0.06819676 -0.06623341 -0.042351667 0.06070222
-0.042032048 0.016453853 0.08787783 -0.008217328 0.16161829 -0.13557775 -0.06469931 -0.09586866
-0.12820376 -0.11607279 0.110311106 -0.021729514 0.13391794 -0.04583016 -0.13135757 0.01985584
0.14963895 0.015134211 0.015191915 0.00051577814 -0.15631258 0.09791717 -0.056805413 -0.027058657
0.15886493 0.22626846 0.2157738 -0.043658443 -0.1587978 0.022612184 -0.10456056 -0.09545568
-0.06057275 -0.07322776 0.044914436 -0.011629977 -0.13341519 0.053416878 0.009160007 0.00034795242
-0.1366992 0.060672283 0.11934113 0.07705515 -0.09774688 0.15072037 0.1732997 0.22488104
0.0639421 0.1757726 0.17513202 0.057482563 0.038367555 0.15010358 -0.023558374 -0.16309297

decoder.3.weight f4 [16, 128]
00000000: 231f 17bd 167a 0f3d b6fa d73c 134e b13b
00000010: d1d9 0abe 42df e3bc b805 d13c cf12 b5bc
00000020: 1e43 4cbe 0396 8abe 8a17 d83a 925d 7f3d
00000030: 9db0 41bc b1d1 4e3e 36d8 8cbe 4174 c8bd
00000040: c6d7 b03d fb1b 6f3d c600 a0bd a29e 64bd
00000050: 7688 653d c52b 4dbe 72ec 66bc f169 7b3d
00000060: 718c c93b 839c 36be fcdd b1be e360 983d
00000070: b64b b2bd f2bc 7abe 38d7 93bd 8f0c 3bbe
00000080: 3fff 2e3e a419 bdbd b2b2 79be ce32 313d
00000090: 1f57 93bd a498 1ebd bec6 1c3e 10b5 61be
000000a0: b985 003e 1a10 0f3d 571f e33d 1598 a1be
000000b0: 557a b93d d48f 08bd c243 07bd 55af 843d
000000c0: 80fc 253d 5644 66be 668a 33be e488 d63d
000000d0: ea9e 573e 2f25 0bbe 22e5 dbbe 2f04 c83d
000000e0: 243d 103e 1158 d5bc e66f c3bd b853 b23d
000000f0: b51c 8fbd 9b17 80bd 53a5 09be 5098 82bd
00000100: 309b 863c 8c85 2cbe ffac 0dbe f48f 09be
00000110: a6fa 903c 3889 0abd aef3 163e 77c6 46bd
00000120: 5a3c 053e 2355 c73d f891 f33d 5f76 efbd
00000130: 2765 0e3e 2995 d03d 72f0 323d 4317 1a3c
00000140: e0e3 b63c 66d9 0bbd 5d13 30be 4f02 30ba
00000150: 518e 09be de92 e2bb b730 3cbd bc9b 28bd
00000160: 2210 173e 6fd4 623e d8df e43c dc4a 9abd
00000170: ea56 edbc 32b3 993c 6ae0 993d ad06 3ebd
00000180: 9e81 cabd b239 87be 31e4 0e3d 540f 08bd
00000190: d587 a3bb c85c d8bd 0813 b9bc aec2 af3d
000001a0: fb73 9f3d a965 2d3e 06fc e4bd 26c3 de3d
000001b0: 943d 1dbc dc5e fbbc 2218 10bd 1652 52bc
000001c0: 3ddd 7ebe dfd8 03bd f148 5b3d 7fc6 353c
000001d0: 1b83 a93d 5238 26be b879 f0bd 5220 b2bd
000001e0: d7d1 8ebe b2cd 103e 2749 8e3d e6a5 2bbd
000001f0: 08fb 5ebe cca3 ce3d ebd5 68bd 88fb 063c
00000200: 2c32 2a3b 0939 4c3c 5e2a 703d 3abc 57bd
00000210: 61a0 ae3d c73c 573d 02b5 7bbd 52ec bbbd
00000220: 3f9e bcbd 4a21 5f3d c83e c6bc 4420 ef3c
00000230: f14b 0f3d 700b 3f3d 6884 37bd a984 0fbd
00000240: 378a c33d 811e 88bd 9bb3 ab3c 9155 583d
00000250: 709a 37bc 83bd df3c 71b1 bdbb b396 6b3d
00000260: 3f68 2cbe 4172 98bd dd65 37bd 6153 12b9
00000270: e3f7 e8bd b739 b8bd 47f2 e23c 584d a1bd
00000280: 37d1 96bd eaed 14be 0da0 0dbe 6791 7a3d
00000290: 9539 833d cdeb 063d f255 dc3d 54b7 e0bb
000002a0: 07ce b93b a8b9 b9bd 5c77 8cbd 3951 3d3d
000002b0: fcb8 1e3d 57ee 773c 1162 b0bd ae01 01bd
000002c0: 1b1d 443d eb9f 383d 652a 71bd 1635 cabd
000002d0: 8602 363d 4dad 76bd 92e9 a5bc c682 78bd
000002e0: 6741 b3bb 359c adbd 8bdf c8bc 7aac d73c
000002f0: a130 a73d 28d8 ebbd 942c 453d 77c0 92bd
00000300: 6fdb 453c a609 d8bd ff5a 0abe 6f59 c0bb
00000310: a351 15be 2de0 1c3b 4296 9cbd 20c6 9e3b
00000320: 0613 45bd 828d 96bd 142c 14be 121b 373d
00000330: 3454 dbbd 2e1f 29bc cb65 f0bc e4e5 4bbd
00000340: dc01 29bd 3ac5 d03a 4884 38bd e6bf 733d
00000350: 8868 53bd 18b5 51bc 078f 11be 00b6 af3c
00000360: 19b7 9c3b 1bb0 75bc 5e4b 9fbd 7549 16be
00000370: 9e81 70bd 941e 68be 891e b33d a62b 49bb
00000380: af50 f33c 9917 253d 3588 9abd fb62 9abd
00000390: 6578 29bd e6e4 15be 32d0 753d b06e 8dbc
000003a0: 3b23 c5bd ef89 dd3c 29b1 f33d 6903 a1bc
000003b0: 0b45 ae3c 14c5 9e3c 13bd 4a3d 357a d43d
000003c0: 1c40 9a3d 8862 37bc 0e8e a8bd 30d0 6b3d
000003d0: 9d4d 823d 2cb6 893c cfe5 bdbc a37f e53c
000003e0: e6b9 91bd ef1f 81bd 90ac 03be 8491 223e
000003f0: 9d8b b53d 0700 bf3c 2b36 babb 6d08 5cbd
-0.03689493 0.03502854 0.026364665 0.0054109185 -0.13559653 -0.027816419 0.025515422 -0.022103695
-0.19947478 -0.27067575 0.0016486507 0.062345095 -0.011821893 0.20197178 -0.27508706 -0.09787799
0.086349055 0.058376294 -0.078126475 -0.055815347 0.056038342 -0.20036228 -0.014094459 0.06138033
0.006150775 -0.17833142 -0.34739673 0.07440355 -0.08705847 -0.2448614 -0.07218784 -0.1826651
0.17089556 -0.09233406 -0.24384573 0.04326134 -0.071943514 -0.03871979 0.15310189 -0.22041726
0.12551011 0.034927465 0.11089962 -0.31561342 0.09056536 -0.03334029 -0.033023603 0.064787544
0.040524006 -0.22487006 -0.17533264 0.104753286 0.21056715 -0.13588403 -0.42948252 0.09766423
0.14085823 -0.02604297 -0.09542827 0.08707374 -0.06987897 -0.062545024 -0.13441972 -0.063767076
0.016431421 -0.16847819 -0.13835524 -0.1343382 0.017697643 -0.03382227 0.14741394 -0.048529115
0.13011304 0.097330354 0.11893076 -0.11692499 0.13905774 0.101847 0.043686338 0.00940496
0.022325456 -0.034142874 -0.17194887 -0.0006714211 -0.13433196 -0.0069144806 -0.045944896 -0.041164145
0.14752248 0.2215135 0.027938768 -0.075338095 -0.028972108 0.018762205 0.07513507 -0.046393085
-0.09888004 -0.26411206 0.03488559 -0.033217743 -0.0049905577 -0.105645716 -0.022592083 0.08582054
0.077857934 0.16933312 -0.11180882 0.10877065 -0.009597201 -0.03068488 -0.035179265 -0.012836954
-0.24889083 -0.032189246 0.05353636 0.011094688 0.082769595 -0.16232422 -0.11741966 -0.08697571
-0.2789447 0.14140967 0.069475465 -0.04190626 -0.21775448 0.100898355 -0.056844633 0.008238681
0.0025969846 0.01246477 0.058634154 -0.05266974 0.085266836 0.052548196 -0.06145192 -0.09175934
-0.092098705 0.054475106 -0.024199858 0.02919019 0.034984533 0.046641767 -0.044804007 -0.035038624
0.09547847 -0.06646443 0.020959666 0.052815977 -0.011206254 0.027312046 -0.005788975 0.057516765
-0.16836642 -0.07443667 -0.04477488 -0.00013954706 -0.11375406 -0.08995383 0.027703417 -0.0787608
-0.07364123 -0.14543882 -0.13830586 0.061173823 0.06407467 0.03293972 0.1075858 -0.006857792
0.0056703123 -0.09068614 -0.068587035 0.046220038 0.038750634 0.015132508 -0.08612455 -0.031495742
0.04787932 0.045074385 -0.05887832 -0.098734066 0.044436 -0.060223866 -0.020252977 -0.06067159
-0.005470443 -0.0847706 -0.024520656 0.02632736 0.08163572 -0.11515838 0.048138216 -0.07165616
0.012076243 -0.10548715 -0.13511275 -0.0058700363 -0.14581923 0.002393733 -0.07645847 0.0048453957
-0.048113845 -0.07351209 -0.1446994 0.04470355 -0.1070942 -0.010322375 -0.029345414 -0.049779788
-0.04126154 0.0015927919 -0.04504803 0.05950918 -0.05161336 -0.012799524 -0.14214717 0.021449089
0.004782569 -0.0149956 -0.07778047 -0.14676459 -0.058717363 -0.22667915 0.087460585 -0.0030696183
0.029701559 0.040305708 -0.07545511 -0.0753841 -0.041374583 -0.14638099 0.060013004 -0.017264694
-0.0962586 0.02704331 0.11899025 -0.019654946 0.021273157 0.019381084 0.04949672 0.10374872
0.07531759 -0.011192925 -0.0823022 0.05757159 0.0636246 0.0168105 -0.02318087 0.028014963
-0.071155354 -0.06304919 -0.12858796 0.15875822 0.0886452 0.023315443 -0.005682727 -0.053718973

decoder.3.bias f4 [16]
00000000: f235 e03d 92ec c6bd 2d8d 1f3e 0c63 abbd
00000010: cb51 093e 8c46 84bd bbee 4e3d e4f0 aa3d
00000020: 2a1d 00bd dd17 9d3d 24de d73c b6b1 cc3d
00000030: 2220 273e 238f a03c 3b8e ef3b 2966 2d3d
0.10947789 -0.09713091 0.15581198 -0.08368501 0.13410108 -0.06458768 0.05052064 0.083467275
-0.031277813 0.07670567 0.026351042 0.09994833 0.16320851 0.019599503 0.0073106564 0.042333756

decoder.5.weight f4 [1, 16]
00000000: c7d9 87be 6355 17be c437 e83e 2b43 61be
00000010: 7b1c 993e 8834 22be 688e 883e 00f0 a2be
00000020: 6b65 b0bd 3090 22bf e835 0f3f 0e5b cdbd
00000030: 9048 3c3f aa4e aebe d5e8 cabd 2cf6 69be
-0.26533338 -0.14778666 0.45355046 -0.21998279 0.2990454 -0.15840352 0.26671147 -0.3182373
-0.08613094 -0.6350126 0.5594163 -0.10027133 0.7354822 -0.3404439 -0.099076904 -0.22847813
