checkpoints/reduce_construction/graph_encoder.pth (torch, 63070 bytes, 16 tensors)

local_head.gconv.convs.<stroke___ordered_next___stroke>.nn.0.weight f4 [16, 12]
4.5793176 -2.3934088 2.1682758 3.8852348 1.9853144 2.186757 -2.4352357 -0.6719514
-2.44133 -0.03529256 -3.5103076 -4.1894236 -1.2674289 -0.3800365 0.1005307 1.0042778
-0.38994783 -2.0855112 -1.9496504 -0.9507205 1.724317 -1.727746 1.0131445 4.485966
0.10647628 0.20174181 -0.1711545 0.03498003 0.17715445 -0.2719021 0.11083111 0.28236163
-0.24451569 0.11669561 -0.16427734 0.11678493 0.16001147 0.15659636 -0.1077915 0.03831792
-0.13193108 -0.24129616 -0.091041535 -0.16561422 -0.0791896 -0.17082265 -0.16717023 -0.118970886
0.060925364 -0.059244722 -0.02695492 0.16321877 -0.16682936 0.0977999 0.22699785 0.1781759
0.19627723 -0.027609974 0.03656158 -0.07541281 -0.38228765 -0.022200432 -0.80712974 -0.016171753
-0.22508809 -0.81371623 -0.03138415 0.09217758 0.82484066 -0.12915912 0.02416407 0.35922572
-0.2590422 0.003818512 0.22398704 0.1591396 -0.25195387 0.08567855 0.019700766 0.013266712
0.21122819 -0.21562517 -0.17889753 -0.03554654 0.08277956 0.14172772 -0.2721361 0.077171564
0.10053736 0.16011003 0.20937994 -0.15797785 -0.2789938 0.1433984 -0.18391444 -0.09490134
-0.54399914 2.1445591 1.8010247 -2.4735713 -2.3295858 1.334218 3.2433429 1.4674567
-0.39890823 1.9170702 1.9897223 -2.828553 0.04952401 0.18933421 0.20504943 -0.13013972
0.2327978 -0.24168885 0.22889018 -0.2713503 0.21770239 0.054487944 0.019502938 0.19287741
-0.07176353 -0.17083278 -0.26112905 0.023852438 0.08251697 0.08914715 -0.058830157 0.013656855
0.06145239 0.17516342 -0.1311335 0.07912865 -0.27976143 0.20296237 0.09952569 -0.22019966
0.030213356 -0.14354952 -0.20456192 0.17039019 -0.068442985 0.14175668 -0.1407637 -0.09777875
4.8315206 1.3088872 1.057593 0.39440134 -0.1577279 -0.7861519 -1.4905136 0.17256777
0.20446955 -1.7660584 -0.18698855 1.5299829 -0.25893748 0.13508072 -0.15608115 -0.123172
-0.24702083 -0.2834738 -0.16843165 0.099241406 0.05998683 0.21996301 -0.03150022 0.01562941
-0.77926165 0.31499025 0.6052377 -1.4840958 0.8417188 -2.5649748 0.8656622 -2.6190653
-0.32638532 3.7356465 -3.222735 2.8633277 0.1905542 -0.10940507 0.20480555 0.23524314
0.23942351 -0.010778725 -0.029370964 -0.006362498 0.010389268 0.21301556 -0.058876783 0.1377202
00000000: c589 9240 9c2d 19c0 08c5 0a40 b0a7 7840
00000010: c81e fe3f d4f3 0b40 e7da 1bc0 0205 2cbf
00000020: c03e 1cc0 ee8e 10bd e1a8 60c0 c20f 86c0
00000030: 1c3b a2bf 2594 c2be 0ae3 cd3d 2d8c 803f
00000040: 3ea7 c7be 0479 05c0 258e f9bf 6b62 73bf
00000050: 6bb6 dc3f c826 ddbf b8ae 813f 098d 8f40
00000060: 3c10 da3d 6895 4e3e 2043 2fbe 3847 0f3d
00000070: fa67 353e c136 8bbe 6cfb e23d b491 903e
00000080: 5262 7abe 1cfe ee3d 5238 28be f02c ef3d
00000090: 0cda 233e cc5a 203e cac1 dcbd 40f3 1c3d
000000a0: f118 07be 5716 77be fc73 babd c696 29be
000000b0: 282e a2bd 22ec 2ebe ac2e 2bbe 02a7 f3bd
000000c0: e08c 793d 98aa 72bd 90d0 dcbc d222 273e
000000d0: 51d5 2abe 504b c83d 2072 683e be73 363e
000000e0: e6fc 483e 502e e2bc 98c1 153d 0872 9abd
000000f0: 35bb c3be aedd b5bc 0ea0 4ebf a07a 84bc
00000100: 7e7d 66be b54f 50bf ab8c 00bd 99c7 bc3d
00000110: c228 533f 4a42 04be baf3 c53c 6fec b73e
00000120: 2ea1 84be 0040 7a3b dc5c 653e 7ef5 223e
00000130: 1900 81be 3c78 af3d 8063 a13c a05c 593c
00000140: 344c 583e d8cc 5cbe ea30 37be 4099 11bd
00000150: 5488 a93d 1221 113e 6c55 8bbe 200c 9e3d
00000160: 88e6 cd3d e2f3 233e b267 563e f2c4 21be
00000170: 46d8 8ebe 08d7 123e 1154 3cbe a25b c2bd
00000180: 8743 0bbf 7540 0940 fa87 e63f fe4e 1ec0
00000190: ef17 15c0 a8c7 aa3f ee92 4f40 9fd5 bb3f
000001a0: b33d ccbe 8e62 f53f 38af fe3f 0307 35c0
000001b0: b0d9 4a3d d4e0 413e 7af8 513e 5943 05be
000001c0: 8c62 6e3e 487d 77be 3062 6a3e 6dee 8abe
000001d0: 60ed 5e3e c02e 5f3d a0c4 9f3c a881 453e
000001e0: c2f8 92bd caee 2ebe b5b2 85be 3066 c33c
000001f0: a8fe a83d c892 b63d e4f7 70bd 00c1 5f3c
00000200: 80b5 7b3d 0a5e 333e dc47 06be 340e a23d
00000210: e43c 8fbe 5ed5 4f3e 20d4 cb3d 057c 61be
00000220: 0082 f73c a5fe 12be ae78 51be c47a 2e3e
00000230: d62b 8cbd aa28 113e 5c24 10be 3a40 c8bd
00000240: d19b 9a40 9e89 a73f 355f 873f f9ee c93e
00000250: 6c83 21be 4041 49bf 26c9 bebf 9bb5 303e
00000260: 7760 513e 340e e2bf ed79 3fbe 7bd6 c33f
00000270: 7493 84be 9a52 0a3e bdd3 1fbe 9a41 fcbd
00000280: 07f3 7cbe 7a23 91be 5979 2cbe 143f cb3d
00000290: c0b4 753d fc3d 613e 6006 01bd 4009 803c
000002a0: b17d 47bf 6746 a13e dcf0 1a3f daf6 bdbf
000002b0: e27a 573f 8c28 24c0 0a9c 5d3f c49e 27c0
000002c0: fa1b a7be d514 6f40 4a41 4ec0 c340 3740
000002d0: a420 433e c40f e0bd 8cb8 513e 94e3 703e
000002e0: 702b 753e 4099 30bc 609b f0bc 807c d0bb
000002f0: c037 2a3c c020 5a3e c828 71bd 8606 0d3e

local_head.gconv.convs.<stroke___ordered_next___stroke>.nn.0.bias f4 [16]
0.0153928185 -0.0013856429 -0.1015524 -0.26967457 -0.026313514 -0.042480484 -0.23005998 -0.20971832
0.17312822 -0.09865205 -0.15392998 -0.12514323 0.067815006 -0.07146108 -0.028373282 -0.030638725
00000000: 2932 7c3c 769e b5ba b4fa cfbd c912 8abe
00000010: 708f d7bc 0400 2ebd d894 6bbe 66c0 56be
00000020: 8648 313e 160a cabd d29f 1dbe 8c25 00be
00000030: 98e2 8a3d 305a 92bd 166f e8bc 10fe fabc

local_head.gconv.convs.<stroke___connected_to___stroke>.nn.0.weight f4 [16, 12]
-0.079688355 0.091782 0.03932783 0.047267377 -0.039209798 -0.015537322 -0.27957475 -0.009428531
-0.037477106 -0.10997361 -0.106108606 -0.103535905 -1.604353 -0.52814054 -1.6023928 3.0617793
0.52987987 -1.0731814 2.8293452 -0.56519514 2.25078 -2.8882706 -0.52243835 -0.4945452
2.9950204 0.9245864 0.8190333 2.4889345 -1.5585343 -0.22513288 -2.9004965 -0.68793476
-0.23495972 0.019076584 2.1042619 -2.613456 0.06502721 -0.0049088895 -0.052738726 -0.1911639
-0.07059729 -0.2653069 0.1657753 0.0072294176 0.05588278 0.09319574 -0.05540757 -0.24628742
-0.24940845 -0.13122527 0.09615043 0.22285795 -0.2584117 -0.23426044 0.22278559 0.24096847
-0.2181627 0.26528376 -0.09855814 0.1985231 -2.6710765 -1.9950092 -0.34146762 0.25298178
-0.7780156 1.0379303 2.5061314 1.7347599 0.24931374 -0.08650625 0.022135073 -1.2305548
1.9488629 0.2385535 2.0416245 -2.3544204 -0.07065643 0.93513024 -3.3989317 0.17180654
-0.3415746 2.946666 -0.44069198 -0.52510947 0.25823736 -0.17195228 0.015043318 -0.18672183
-0.14099585 0.06188667 0.18177697 0.15466133 -0.26070344 -0.19290769 -0.17723316 0.061657608
0.06284794 -0.10594469 0.28753048 -0.023064911 -0.25227198 -0.23717238 -0.06973511 0.18058524
0.13884503 -0.19211496 0.13631138 0.14653453 -3.7871041 0.6184284 0.64979976 -0.4827188
0.19809528 1.939668 3.10218 -0.4367833 -1.8133899 -0.88445514 0.241704 -0.244916
0.12109643 -0.038248837 -0.0083244145 -0.2284271 -0.1964381 0.25001943 0.04645422 -0.22556719
0.26363152 -0.14330421 -0.24333127 0.27224654 1.4985175 2.280565 0.89213586 -4.5403438
-0.73090917 -1.9119606 -2.8633835 -1.8299303 -0.4032036 3.4797766 1.6658969 1.8992149
0.0075886548 -0.07550162 -0.00245741 0.08531314 0.23534691 0.0063591897 0.19544551 -0.2211358
0.13216922 0.23149794 -0.12931226 0.03320852 0.3460855 -1.5854477 1.4653716 3.4318366
0.33679456 1.4051666 0.8593859 1.5130124 -2.415585 -1.9567192 -0.4704577 -0.91988856
0.49835494 0.31479204 -1.1562508 0.34223485 2.742173 -1.5595542 -0.8689249 -0.9660666
3.4639504 0.49404642 -2.311443 2.0299232 0.029213475 8.032302e-05 0.16182756 0.20698416
-0.09767362 0.2865807 0.17755352 0.19674087 -0.24142991 -0.0017148092 0.31361803 -0.19254665
00000000: a633 a3bd 34f8 bb3d 3816 213d 709b 413d
00000010: 749a 20bd 4090 7ebc 6c24 8fbe 207a 1abc
00000020: 9881 19bd d839 e1bd 784f d9bd a20a d4bd
00000030: 705b cdbf 3834 07bf 351b cdbf 31f4 4340
00000040: 35a6 073f 025e 89bf fe13 3540 a1b0 10bf
00000050: c80c 1040 6dd9 38c0 85be 05bf 0735 fdbe
00000060: 6aae 3f40 b2b1 6c3f 2bac 513f b44a 1f40
00000070: 0d7e c7bf 3c89 66be bca1 39c0 7e1c 30bf
00000080: 4899 70be 7f46 9c3c 3aac 0640 dd42 27c0
00000090: fc2c 853d c0da a0bb 9004 58bd 78c0 43be
000000a0: 5095 90bd 4ed6 87be 00c1 293e c0e4 ec3b
000000b0: 58e5 643d 68dd be3d 0cf3 62bd c532 7cbe
000000c0: ee64 7fbe eb5f 06be 84ea c43d e034 643e
000000d0: 8a4e 84be f8e1 6fbe e821 643e 70c0 763e
000000e0: 0b66 5fbe 46d3 873e dad8 c9bd a449 4b3e
000000f0: ebf2 2ac0 765c ffbf d8d4 aebe d486 813e
00000100: 082c 47bf e6da 843f 7564 2040 9d0c de3f
00000110: 1a4c 7f3e 302a b1bd 9d54 b53c d282 9dbf
00000120: 5774 f93f 5e47 743e faa9 0240 d3ae 16c0
00000130: 52b4 90bd b264 6f3f 1988 59c0 0eee 2f3e
00000140: dee2 aebe 2d96 3c40 61a2 e1be 936d 06bf
00000150: b037 843e 4214 30be 4078 763c 0234 3fbe
00000160: 3761 10be e07c 7d3d be23 3a3e 8a5f 1e3e
00000170: ec7a 85be 9889 45be 9c7c 35be b08c 7c3d
00000180: 6cb6 803d 88f9 d8bd 3237 933e a0f2 bcbc
00000190: cb29 81be 51dd 72be 48d1 8ebd 56eb 383e
000001a0: 642d 0e3e c9b9 44be 3695 0b3e 260d 163e
000001b0: ea5f 72c0 5351 1e3f 4759 263f eb26 f7be
000001c0: 7dd9 4a3e 0b47 f83f 1e8a 4640 10a2 dfbe
000001d0: 291d e8bf a76b 62bf 4181 773e 43cb 7abe
000001e0: 6801 f83d d0aa 1cbd 2063 08bc cbe8 69be
000001f0: 1227 49be 8c02 803e c846 3e3d 16fb 66be
00000200: b6fa 863e 57be 12be d52b 79be e663 8b3e
00000210: 6ccf bf3f c7f4 1140 0463 643f 7f4a 91c0
00000220: dd1c 3bbf 20bb f4bf ad41 37c0 283b eabf
00000230: b470 cebe a9b4 5e40 1c3c d53f 7919 f33f
00000240: 40aa f83b 98a0 9abd 800c 21bb a8b8 ae3d
00000250: c8fe 703e c060 d03b de22 483e 6c71 62be
00000260: 5e57 073e cc0d 6d3e 6f6a 04be a805 083d
00000270: 1e32 b13e f3ef cabf 4c91 bb3f 36a3 5b40
00000280: 5670 ac3e 80dc b33f b700 5c3f 64aa c13f
00000290: f298 1ac0 c675 fabf d5df f0be d17d 6bbf
000002a0: 6128 ff3e 6c2c a13e 0700 94bf 6839 af3e
000002b0: c37f 2f40 799f c7bf dd71 5ebf 2450 77bf
000002c0: 5db1 5d40 a7f3 fc3e afee 13c0 43ea 0140
000002d0: 1951 ef3c 1873 a838 20b6 253e a8f3 533e
000002e0: 1b09 c8bd b5ba 923e 97d0 353e 7076 493e
000002f0: 6739 77be 73c3 e0ba 8b92 a03e f32a 45be

local_head.gconv.convs.<stroke___connected_to___stroke>.nn.0.bias f4 [16]
-0.2664816 0.0825212 0.04794803 -0.24714103 -0.17141703 0.19844595 0.07698069 -0.03271866
-0.17478243 0.05911833 -0.10045163 0.0890584 -0.08285862 0.06458731 0.17924859 -0.02077595
00000000: 4770 88be e000 a93d 2765 443d 8a12 7dbe
00000010: f287 2fbe 6a35 4b3e 0da8 9d3d 0004 06bd
00000020: 2afa 32be 1026 723d 96b9 cdbd 4064 b63d
00000030: c8b1 a9bd 5a46 843d f18c 373e 5332 aabc

layers.0.mlp_edge_conv.gconv.convs.<stroke___ordered_next___stroke>.nn.0.weight f4 [32, 32]
-0.32991657 0.1605045 0.6606509 -0.14456792 -0.08656809 0.08501959 0.08848878 -0.029897243
-0.19709152 0.021025993 0.14901514 0.16375056 -0.19971722 0.13214602 0.16775042 -0.011816122
-0.54901963 -0.6416334 -0.8712378 0.13347034 -0.048614338 -0.7921303 -0.7959451 -0.12855507
0.20216718 -0.6474478 0.145748 -0.64668447 -0.105879486 -0.69986 -0.49947688 0.021207675
-0.13402505 0.23000395 -0.17687616 0.042508528 -0.046346754 0.31110248 0.06326527 -0.068582155
-0.19187696 0.06840949 -0.16773792 -0.35601968 -0.098470986 0.29400876 0.31743023 0.14453469
3.313195 -0.009466233 0.8065506 0.013127029 0.1688811 0.18024032 0.7796131 -0.033385158
1.3003682 0.020482685 0.037672773 0.5335254 -0.25828466 0.5318129 0.23356652 0.0019224742
1.3745649 -0.30408207 0.43766823 0.076132014 0.10025297 -0.105671 -0.08863061 0.13834117
0.49444714 0.19134648 -0.10758092 -0.12615125 -0.15054418 -0.22020072 -0.7022562 -0.105059676
0.07825511 0.15459907 -0.407077 0.14571024 -0.16058584 0.036714643 0.75314724 -0.123343155
1.1266512 0.50308645 0.061076075 1.0072458 1.4890461 0.3919427 0.7210331 0.07497577
-0.8807537 0.5306442 0.061386902 -0.03252086 0.09782235 0.21910663 -0.47588888 0.10325064
-0.75522226 -0.16038401 -0.07180189 0.4013659 -0.4406825 -0.6200486 0.4355247 0.008009898
0.047066364 0.21244696 0.15266794 -0.08448224 0.022494808 0.46768448 0.18576276 -0.12517978
0.32190886 -0.04925111 -0.09049704 -1.2825446 -1.4936649 0.8758679 0.07941075 0.15340093
-0.57941586 0.2898518 -0.2794559 0.16985224 -0.17252246 0.3385622 -0.18310182 0.068968296
0.06693164 0.9146104 0.102017745 -0.21455516 -0.5463615 0.06085289 -0.25863495 -0.050042033
0.21848105 0.06982242 -0.063911505 -0.044324696 -0.012607709 0.32464483 0.86636275 0.16882454
-0.23650709 -0.4122428 0.045325905 1.277012 2.6176376 0.044177722 0.8935233 0.11077649
0.19580741 0.02504709 0.23588365 0.11476414 -0.17015369 0.21348141 0.22340791 -0.00054873526
-0.029215539 0.30096844 0.13616233 0.25178972 0.13488127 0.062831394 -0.014717239 -0.19063544
0.8481972 -0.7778368 -0.7707974 -0.08726747 -0.17024145 -0.30012608 0.33249572 -0.061102897
0.6012366 -0.21726146 -0.01319696 0.37534353 -0.29466435 -0.6007694 0.02358077 -0.16239928
0.064881176 -0.1258361 -0.17060299 0.1148216 -0.007182345 -0.054002825 -0.12672517 -0.1313567
-0.28449836 -0.15431422 0.053818315 -0.024541365 -0.14632887 -0.19520417 -0.0421688 0.0011710061
-0.15660475 0.06764182 0.015525489 -0.13486521 0.036536574 -0.07555135 0.022877496 0.06138453
0.19884743 -0.04666225 -0.06530555 0.10520844 -0.13190408 -0.036824793 -0.07893844 -0.07293048
-0.39132828 -0.3989869 -0.11434509 -0.08185316 -0.17188261 -0.64828855 -0.08390813 0.11743571
0.04958031 -0.5589818 -0.020915985 0.30339342 0.21950091 -0.8925036 -0.27753443 -0.18582849
0.65471035 1.274071 1.3376955 -0.092468016 -0.09851181 1.5437856 1.030254 -0.16935433
1.2144848 1.7262033 -0.0048193485 1.0917326 -1.6936821 1.2984735 1.1225542 -0.17324673
00000000: d3ea a8be 4b5b 243e 6b20 293f 9d09 14be
00000010: 9c4a b1bd c01e ae3d 9b39 b53d 10eb f4bc
00000020: 5cd2 49be b43e ac3c 6d97 183e 3aae 273e
00000030: ac82 4cbe 4951 073e c4c6 2b3e 6898 41bc
00000040: 8d8c 0cbf 1642 24bf 7109 5fbf 73ac 083e
00000050: d41f 47bd 0dc9 4abf 0fc3 4bbf f1a3 03be
00000060: ea04 4f3e 24bf 25bf f73e 153e 1d8d 25bf
00000070: 58d7 d8bd 062a 33bf 6fbb ffbe b8bb ad3c
00000080: dd3d 09be 2886 6b3e 061f 35be 6c1d 2e3d
00000090: 18d6 3dbd d348 9f3e 3991 813d cd74 8cbd
000000a0: 657b 44be 461a 8c3d 7dc3 2bbe 3648 b6be
000000b0: 28ab c9bd 5188 963e 3786 a23e e700 143e
000000c0: 630b 5440 4218 1bbc 1a7a 4e3f c012 573c
000000d0: 2bef 2c3e eb90 383e b994 473f e0be 08bd
000000e0: 7772 a63f 4ecb a73c c44e 1a3d 1f95 083f
000000f0: e33d 84be e424 083f 102c 6f3e 88fb fb3a
00000100: bef1 af3f a5b0 9bbe 0d16 e03e 1aeb 9b3d
00000110: 6e51 cd3d 0a6a d8bd f783 b5bd 4fa9 0d3e
00000120: 2d28 fd3e 55f0 433e 6353 dcbd cb2d 01be
00000130: 4128 1abe 4c7c 61be 10c7 33bf 8729 d7bd
00000140: 3744 a03d 384f 1e3e 666c d0be 1135 153e
00000150: 9d70 24be 1862 163d 42ce 403f 569b fcbd
00000160: 1b36 903f 46ca 003f e82a 7a3d 6eed 803f
00000170: 1099 be3f b7ac c83e a095 383f e68c 993d
00000180: 1379 61bf 4cd8 073f d570 7b3d 9834 05bd
00000190: 1657 c83d 7d5d 603e b5a7 f3be 1275 d33d
000001a0: 3f56 41bf b53b 24be df0c 93bd d57f cd3e
000001b0: 23a1 e1be 81bb 1ebf 18fd de3e f23b 033c
000001c0: a9c8 403d b28b 593e fc54 1c3e 0605 adbd
000001d0: 0847 b83c 5774 ef3e 9838 3e3e 212f 00be
000001e0: 3dd1 a43e 88bb 49bd 8356 b9bd 6c2a a4bf
000001f0: 6930 bfbf e138 603f 1aa2 a23d 2215 1d3e
00000200: 9954 14bf 7567 943e d814 8fbe bfed 2d3e
00000210: baa9 30be 0658 ad3e 0b7f 3bbe 403f 8d3d
00000220: 7513 893d e823 6a3f aeee d03d 59b4 5bbe
00000230: 59de 0bbf e140 793d cd6b 84be e0f8 4cbd
00000240: 7fb9 5f3e 0fff 8e3d 09e4 82bd d08d 35bd
00000250: 9090 4ebc d937 a63e f3c9 5d3f 57e0 2c3e
00000260: ea2e 72be 7d11 d3be a8a7 393d 2175 a33f
00000270: 6087 2740 b3f3 343d f1bd 643f c9de e23d
00000280: bd81 483e 8e2f cd3c 7c8b 713e 7609 eb3d
00000290: c53c 2ebe df9a 5a3e 0bc5 643e 00d9 0fba
000002a0: 6d55 efbc 8918 9a3e 236e 0b3e 95ea 803e
000002b0: 511e 0a3e bfad 803d 9320 71bc f035 43be
000002c0: 7423 593f 5020 47bf fa52 45bf 4ab9 b2bd
000002d0: c653 2ebe 20aa 99be e13c aa3e 0847 7abd
000002e0: a4ea 193f ca79 5ebe 1038 58bc 072d c03e
000002f0: 3fde 96be 06cc 19bf 752c c13c ff4b 26be
00000300: 6ce0 843d 2edb 00be 8db2 2ebe 9627 eb3d
00000310: e059 ebbb 1132 5dbd 3ec4 01be 5f82 06be
00000320: c5a9 91be 8c04 1ebe 9870 5c3d f90a c9bc
00000330: 3cd7 15be 9ae3 47be 31b9 2cbd 727c 993a
00000340: ff5c 20be cb87 8a3d 9f5e 7e3c 1b1a 0abe
00000350: 60a7 153d abba 9abd 9669 bb3c 586e 7b3d
00000360: a99e 4b3e ea20 3fbd ebbe 85bd 8677 d73d
00000370: dd11 07be 98d5 16bd 7aaa a1bd 935c 95bd
00000380: 2e5c c8be 0348 ccbe c22d eabd a1a2 a7bd
00000390: ff01 30be 3df6 25bf 07d8 abbd 2282 f03d
000003a0: b914 4b3d 6e19 0fbf 0058 abbc 6256 9b3e
000003b0: d9c4 603e 1e7b 64bf fe18 8ebe d349 3ebe
000003c0: 199b 273f c214 a33f 9b39 ab3f df5f bdbd
000003d0: 8fc0 c9bd c49a c53f 5ddf 833f 396b 2dbe
000003e0: 3d74 9b3f 3bf4 dc3f a0eb 9dbb e5bd 8b3f
000003f0: 93ca d8bf 6134 a63f dbaf 8f3f 9767 31be

layers.0.mlp_edge_conv.gconv.convs.<stroke___ordered_next___stroke>.nn.0.bias f4 [32]
-0.28173456 -0.0750823 0.030477898 -0.41328406 -0.3936604 0.15985757 -0.13525648 -0.06649846
-0.14452639 -0.101615995 0.2811999 -0.12431193 -0.3439914 0.046436213 -0.13541369 -0.08639107
-0.16811313 0.1127348 -0.0034311716 -0.3598246 0.35654515 -0.038444337 0.19046645 -0.097444974
-0.31207162 -0.022764284 0.34787646 -0.20161165 -0.07219652 -0.0125970915 0.28870702 0.15484914
00000000: 833f 90be c0c4 99bd c9ac f93c f899 d3be
00000010: db8d c9be b4b1 233e ad80 0abe 5830 88bd
00000020: bafe 13be 0c1c d0bd 6ff9 8f3e 4197 febd
00000030: a41f b0be e633 3e3d e3a9 0abe cded b0bd
00000040: d925 2cbe 81e1 e63d 82dd 60bb ee3a b8be
00000050: 168d b63e cf77 1dbd a309 433e 3b91 c7bd
00000060: dac7 9fbe 2a7c babc dd1c b23e 4973 4ebe
00000070: c5db 93bd 0864 4ebc 68d1 933e c690 1e3e

layers.0.mlp_edge_conv.gconv.convs.<stroke___connected_to___stroke>.nn.0.weight f4 [32, 32]
0.42936546 -0.5650091 -0.17409913 0.15205376 -0.15945518 -0.4262081 0.09644129 -0.056821056
0.3557487 -0.79634994 0.14370851 -0.39597172 0.67144334 -0.4049225 -0.45329535 -0.04742922
2.9559703 0.12383484 0.71332765 0.15021618 -0.13306281 0.43201926 0.9128512 -0.08867992
1.6869032 0.9224701 -0.13327542 1.2523911 0.5153752 0.8300637 0.23527507 0.10147857
-0.67927426 0.15086351 -0.21127018 0.13067336 0.16076322 0.325946 -0.23179401 -0.11129522
-0.012855174 -0.33661285 -0.00023046136 -0.13549747 0.053234886 0.2140324 0.126879 0.14165482
-0.047994588 0.5089471 0.26454046 0.000813365 -0.12596117 0.34076187 -0.2791238 0.024203882
-1.0078193 1.678877 0.13480587 -0.20589201 -1.417378 0.61296827 -0.08201978 0.1329617
-0.63871133 -0.17069867 0.43599874 0.06103857 0.078063056 -0.2939023 0.21714728 0.008732423
0.5166086 -0.16440804 0.09736411 0.65334004 0.5434284 -0.33688697 -0.26393732 -0.16645417
-0.09851481 0.25679487 -0.8629019 -0.119038925 -0.0652252 0.23894651 -0.37890762 0.15611409
-4.306997 0.49638754 -0.014496446 -0.88506836 -1.8949038 0.62527215 0.47572777 0.10471491
0.62247264 -0.37563547 -0.07501943 -0.07045678 -0.13870513 -0.31796482 -0.6492715 0.0959826
0.07839883 -0.4929205 -0.00029022992 -0.2566734 0.19456214 -0.44119447 -0.5194912 -0.07950557
0.09073414 -0.37595624 -0.7481432 -0.06325517 0.051983103 -0.48232552 -0.18884961 0.16051807
-0.68459505 -0.53571725 -0.06147141 -0.64802885 -0.3574351 -0.32575753 -0.50236636 -0.032047424
0.3451551 -0.22482224 -0.48790166 0.0012177974 -0.076379485 -0.23446415 -0.47646683 0.13589521
0.89564544 0.30658424 0.10394032 -0.03941579 0.1419042 -0.34865245 -0.44101417 -0.1502145
-2.7014112 0.475045 0.89355177 -0.035957962 0.1674781 0.35466316 0.615083 0.074150994
-1.603514 -0.030516323 0.07751031 0.57709444 -1.2319952 -0.19407883 0.47719744 -0.09068394
-0.23929618 -0.58225536 0.17241229 0.15532981 -0.034408942 -0.32606173 -0.14071323 -0.007867023
0.5491176 -0.051634233 -0.15262271 -0.39339232 0.5653445 -0.237162 -0.40708014 -0.11449481
-0.76314914 0.77348876 -0.21724142 -0.1461705 -0.14454234 0.3941607 -0.14804116 -0.07224273
-1.2355072 0.4189571 -0.12408043 0.22416028 -2.1488612 0.057098743 0.7307523 0.12243516
-0.35872084 0.42938474 0.56143504 0.07991271 0.0077399313 0.15762681 0.32754365 0.09411605
0.13745944 0.13555707 -0.16115896 0.22616027 0.25567323 0.46528488 0.40302214 0.127412
0.021676917 1.0393184 0.68023 -0.020815104 0.013512939 1.1281054 1.047066 -0.050114393
2.163497 0.691213 0.17465751 0.7651769 1.2693996 0.7151826 1.6794665 0.21577722
-0.013886858 -0.027890798 -0.14386794 -0.09832261 0.16217192 -0.020621268 -0.19589472 0.055095598
-0.08367803 0.03807362 0.03787294 -0.072632976 0.10226256 -0.076170035 -0.12420777 -0.012715682
-0.030299693 -0.15411505 -0.069656424 0.01725939 0.06646201 -0.013132723 0.067268476 -0.06423306
-0.13400145 -0.058631998 0.028851435 -0.20278999 -0.1991554 -0.048162714 0.13574074 -0.058606453
00000000: cad5 db3e 70a4 10bf 0b47 32be fbb3 1b3e
00000010: 3848 23be f337 dabe 0383 c53d 32bd 68bd
00000020: b224 b63e 97dd 4bbf 5328 133e cebc cabe
00000030: b6e3 2b3f 0052 cfbe 5416 e8be 2445 42bd
00000040: 9e2e 3d40 1f9d fd3d a49c 363f 45d2 193e
00000050: 9e41 08be a131 dd3e 9eb0 693f d19d b5bd
00000060: 72ec d73f 0027 6c3f 5a79 08be 5a4e a03f
00000070: a1ef 033f 0e7f 543f f3eb 703e ffd3 cf3d
00000080: ebe4 2dbf f77b 1a3e 3657 58be 3dcf 053e
00000090: 1d9f 243e 65e2 a63e 695b 6dbe c0ee e3bd
000000a0: 829e 52bc 8558 acbe 00a8 71b9 d9bf 0abe
000000b0: d30c 5a3d 4f2b 5b3e 92ec 013e f60d 113e
000000c0: f995 44bd 5b4a 023f d971 873e 0038 553a
000000d0: f7fb 00be 5778 ae3e 51e9 8ebe 3847 c63c
000000e0: 3900 81bf 71e5 d63f 8d0a 0a3e 5bd5 52be
000000f0: a46c b5bf 7deb 1c3f fdf9 a7bd 1d27 083e
00000100: 9682 23bf a2cb 2ebe 3a3b df3e 9403 7a3d
00000110: 86df 9f3d 5d7a 96be db5b 5e3e 7012 0f3c
00000120: 7640 043f 955a 28be d666 c73d 4b41 273f
00000130: 201e 0b3f 737c acbe cb22 87be f672 2abe
00000140: 22c2 c9bd 9e7a 833e 24e7 5cbf aeca f3bd
00000150: ca94 85bd 65ae 743e 2e00 c2be 5fdc 1f3e
00000160: ebd2 89c0 8226 fe3e 8082 6dbc d793 62bf
00000170: 358c f2bf d611 203f 9792 f33e c574 d63d
00000180: 5e5a 1f3f 4b53 c0be c9a3 99bd a54b 90bd
00000190: b808 0ebe 49cc a2be a836 26bf 8692 c43d
000001a0: 918f a03d 1360 fcbe 002a 98b9 b26a 83be
000001b0: 4c3b 473e 3ee4 e1be 60fd 04bf d1d3 a2bd
000001c0: d2d2 b93d 567d c0be 5086 3fbf ed8b 81bd
000001d0: 3cec 543d 5ff3 f6be cb61 41be d95e 243e
000001e0: 9f41 2fbf c424 09bf 72c9 7bbd 38e5 25bf
000001f0: bc01 b7be b1c9 a6be 159b 00bf 2944 03bd
00000200: 2bb8 b03e cd37 66be 3fce f9be 809e 9f3a
00000210: d96c 9cbd 5f17 70be 76f3 f3be 1d28 0b3e
00000220: 0549 653f 9cf8 9c3e aade d43d 7472 21bd
00000230: 564f 113e 9382 b2be 9ccc e1be d4d1 19be
00000240: ece3 2cc0 1939 f33e cfbf 643f a848 13bd
00000250: 617f 2b3e 6996 b53e 1476 1d3f 7adc 973d
00000260: f23f cdbf 5efd f9bc babd 9e3d 76bc 133f
00000270: 05b2 9dbf 9abc 46be 3953 f43e 80b8 b9bd
00000280: 0f0a 75be b00e 15bf d98c 303e c70e 1f3e
00000290: 64f0 0cbd 90f1 a6be 2117 10be b0e4 00bc
000002a0: f992 0c3f 6b7e 53bd 2149 1cbe b86a c9be
000002b0: 6bba 103f 98da 72be cf6c d0be 417c eabd
000002c0: be5d 43bf 5c03 463f 8974 5ebe b8ad 15be
000002d0: e802 14be 6ecf c93e 1a98 17be fff3 93bd
000002e0: 1a25 9ebf 8c81 d63e e11d febd 468a 653e
000002f0: f186 09c0 5fe0 693d 9512 3b3f 49bf fa3d
00000300: 42aa b7be 51d8 db3e 35ba 0f3f 46a9 a33d
00000310: 409f fd3b ec68 213e cdb3 a73e eabf c03d
00000320: 2bc2 0c3e 79cf 0a3e db06 25be 8f96 673e
00000330: 9ae7 823e d239 ee3e eb58 ce3e 4b78 023e
00000340: ca93 b13c 6308 853f 8e23 2e3f 7084 aabc
00000350: 6065 5d3c c265 903f 4206 863f c044 4dbd
00000360: bc76 0a40 56f3 303f 6bd9 323e a2e2 433f
00000370: b07b a23f 3516 373f c2f8 d63f b4f4 5c3e
00000380: b485 63bc 3e7b e4bc 1e52 13be 5d5d c9bd
00000390: 6510 263e efed a8bc a098 48be ecab 613d
000003a0: 635f abbd 16f3 1b3d a820 1b3d 99c0 94bd
000003b0: 086f d13d 09ff 9bbd a560 febd 7055 50bc
000003c0: 1037 f8bc 56d0 1dbe 07a8 8ebd 9063 8d3c
000003d0: 3c1d 883d a22a 57bc 0ec4 893d 9f8c 83bd
000003e0: ad37 09be 1b28 70bd d859 ec3c 2ea8 4fbe
000003f0: 65ef 4bbe 4446 45bd 9fff 0a3e 520d 70bd

layers.0.mlp_edge_conv.gconv.convs.<stroke___connected_to___stroke>.nn.0.bias f4 [32]
0.86862004 0.06685368 0.15400952 0.35248536 0.6567174 0.69769293 0.15818591 -0.17866398
-0.15865162 0.44901016 -0.13180687 0.026660101 -0.20538436 0.3801777 -0.18089634 0.50008357
-0.11951001 -0.40878516 0.39688733 0.3814214 -0.013313604 0.14173599 -0.18696763 -0.26057154
-0.020638727 -0.09817608 0.34464744 0.54879427 0.09233489 0.7900163 0.089172274 0.026676677
00000000: e25d 5e3f 95ea 883d acb4 1d3e f678 b43e
00000010: a21e 283f 019c 323f 7dfb 213e b1f3 36be
00000020: 9275 22be a9e4 e53e 61f8 06be 4966 da3c
00000030: 4750 52be a7a6 c23e e43c 39be 7a05 003f
00000040: aac1 f4bd 4a4c d1be d134 cb3e aa49 c33e
00000050: 4d21 5abc 3d23 113e 7174 3fbe a269 85be
00000060: 8c12 a9bc 8a10 c9bd a175 b03e c87d 0c3f
00000070: 131a bd3d 823e 4a3f f49f b63d 0c89 da3c

layers.0.projection.weight f4 [32, 16]
-0.47482646 -0.21413884 0.6191132 -0.039588958 0.19782078 -0.3136148 0.2732306 -0.18739486
-0.4253463 -0.4710158 0.09532562 0.24334107 -0.25270143 -0.12347128 -0.039437875 0.14444011
-0.43349656 0.24450071 -0.44808516 -0.09987426 0.1842832 0.19579633 -0.053711876 -0.036030084
-0.066346325 0.43750513 -0.15565053 -0.27778578 -0.12798925 0.3435381 0.27655476 0.057699464
0.8335516 -0.10913846 -0.48175257 0.06612232 0.14969286 0.2621148 0.022044374 0.23610577
0.5792198 0.3638237 0.045737 -0.47781885 -0.56898093 0.15571737 -0.15510212 -0.123999104
-0.39344883 0.025707146 -0.14050402 -0.119276345 0.24538663 -0.25263417 -0.40036768 -0.09888023
-0.061604355 0.17747931 0.19659862 0.13630196 0.020684082 -0.40344018 -0.24023601 -0.22201887
0.51003224 0.117898725 -0.19174978 -0.05067578 -0.008894384 0.34389874 0.26202738 0.17758021
0.105616495 0.11942142 -0.1609278 0.16886626 -0.5697219 -0.25128883 -0.23089033 -0.0991538
-0.45825922 -0.29650196 0.12156404 0.005761087 -0.16083536 -0.06869678 -0.0017899073 -0.1771158
-0.21138735 0.21161251 -0.06292349 0.29340422 -0.38991952 0.32853952 -0.19804122 -0.16588219
0.004845584 0.33197686 0.34929788 -0.1414392 -0.06173688 0.03046219 0.054482996 -0.017159075
-0.18255648 -0.16677567 0.06484595 0.14411111 0.14191055 0.013378523 0.11602506 -0.14635545
-0.6127659 0.189586 -0.34424767 -0.102095634 0.043167323 -0.106970504 -0.17904699 0.017442346
-0.11739949 0.22363378 -0.055440247 -0.0032684414 -0.011819466 -0.010364253 0.084142566 0.15705691
0.89828646 -0.29363772 -0.048327975 -0.078511626 0.08197743 -0.2217778 -0.18981665 0.13337946
0.008018264 -0.35918152 -0.17001253 -0.5601217 -0.10438965 -0.21239977 -0.2816325 -0.240492
-1.0929843 0.06815064 -0.19176276 -0.025847167 -0.12645423 -0.36175194 -0.061604768 -0.11720464
-0.08943105 0.031735756 0.006719619 -0.06716404 -0.23160796 -0.37588158 0.08164661 0.07004027
-2.4209552 -0.031590912 -0.33187112 0.21736348 -0.048698217 -0.3494428 -0.3188469 0.010702431
0.27400595 0.14574936 0.048715085 0.22142121 0.17088406 -0.38158315 -0.2176622 -0.060957357
-3.0423179 0.46853566 -0.71231115 -0.09672752 -0.24455991 0.08216553 -0.34865594 0.24366635
-0.23896642 -0.61031234 0.04018253 0.6447293 -0.06990767 -0.47535503 0.39244977 -0.13928401
0.3705351 -0.06562898 0.1259778 0.09440932 -0.11107007 -0.1021795 0.2302949 -0.17618516
0.11069957 0.19938532 -0.18477952 0.10004498 0.115262546 0.33509803 -0.09737045 -0.11025603
-0.4658975 0.17609079 -0.13019249 -0.19755268 0.031623214 -0.26314685 0.3410185 0.09526184
-0.06793361 -0.36536887 -0.10356188 0.07463342 -0.21339029 -0.5188031 -0.1422171 -0.2463932
-0.20642859 -0.1966637 -0.09108404 -0.18956819 -0.14743993 0.075632066 -0.2294938 -0.11485672
0.116554305 -0.112576514 -0.16072455 0.021675661 -0.0040698918 -0.3553432 -0.47601008 0.08391721
0.5692984 0.04319502 0.22409858 0.103642344 0.058125913 0.10316546 0.08634029 -0.21478683
-0.30020595 -0.12317717 -0.12169629 -0.16892911 -0.10319052 -0.005281302 0.09760926 -0.19873035
00000000: 741c f3be 3647 5bbe 347e 1e3f 0828 22bd
00000010: 8891 4a3e 1e92 a0be e2e4 8b3e 70e4 3fbe
00000020: fdc6 d9be fc28 f1be 143a c33d 672e 793e
00000030: 1562 81be 83de fcbd 9c89 21bd 1ce8 133e
00000040: 43f3 ddbe 655e 7a3e 6b6b e5be e08a ccbd
00000050: bcb4 3c3e d57e 483e fc00 5cbd 4894 13bd
00000060: 95e0 87bd ac00 e03e da62 1fbe f039 8ebe
00000070: 9d0f 03be 3ae4 af3e 9698 8d3e 4656 6c3d
00000080: a363 553f fc83 dfbd 46a8 f6be 246b 873d
00000090: 1649 193e e933 863e 6796 b43c b6c5 713e
000000a0: c047 143f 1a47 ba3e b856 3b3d aca4 f4be
000000b0: bca8 11bf 6074 1f3e 17d3 1ebe 3ef3 fdbd
000000c0: 2072 c9be cb97 d23c 49e0 0fbe 2847 f4bd
000000d0: a246 7b3e 4459 81be fefc ccbe b881 cabd
000000e0: d954 7cbd 23bd 353e 2651 493e be92 0b3e
000000f0: aa71 a93c b68f cebe 6e00 76be ea58 63be
00000100: 7991 023f e374 f13d 0e5a 44be 6891 4fbd
00000110: c0b9 11bc 7f13 b03e 7428 863e 96d7 353e
00000120: 764d d83d 3893 f43d 42ca 24be 47eb 2c3e
00000130: 4bd9 11bf eea8 80be 846e 6cbe 2611 cbbd
00000140: f4a0 eabe 1bcf 97be 91f6 f83d 80c7 bc3b
00000150: 06b2 24be e6b0 8cbd 539b eaba d85d 35be
00000160: ed75 58be f3b0 583e 08de 80bd 1439 963e
00000170: 88a3 c7be 5536 a83e 51cb 4abe 05dd 29be
00000180: b4c7 9e3b dff8 a93e 2cd7 b23e 70d5 10be
00000190: d0df 7cbd d88b f93c 9029 5f3d 3091 8cbc
000001a0: 16f0 3abe 3ec7 2abe f4cd 843d dd91 133e
000001b0: 0051 113e 9831 5b3c 8c9e ed3d 34de 15be
000001c0: 3ade 1cbf d522 423e 3b41 b0be 8417 d1bd
000001d0: 38d0 303d 5a13 dbbd 1858 37be 40e3 8e3c
000001e0: 256f f0bd 4100 653e 5015 63bd 5933 56bb
000001f0: 6fa6 41bc d4ce 29bc f052 ac3d 87d3 203e
00000200: 1af6 653f af57 96be 8ef3 45bd b4ca a0bd
00000210: c8e3 a73d b819 63be 4c5f 42be a094 083e
00000220: 095f 033c a4e6 b7be c417 2ebe 2364 0fbf
00000230: 3eca d5bd 537f 59be 2332 90be 8943 76be
00000240: e9e6 8bbf 9092 8b3d 755d 44be 70bd d3bc
00000250: 387d 01be 8d37 b9be 4855 7cbd fc08 f0bd
00000260: a027 b7bd 5afd 013d 4030 dc3b 4d8d 89bd
00000270: a32a 6dbe 8d73 c0be 5636 a73d 4671 8f3d
00000280: eef0 1ac0 7965 01bd 03eb a9be 8894 5e3e
00000290: c877 47bd 2bea b2be e73f a3be 4059 2f3c
000002a0: 824a 8c3e 523f 153e 7889 473d 3ebc 623e
000002b0: 3bfc 2e3e de5e c3be d7e2 5ebe 6cae 79bd
000002c0: 56b5 42c0 e8e3 ef3e 065a 36bf 1419 c6bd
000002d0: ea6d 7abe 6746 a83d 0883 b2be ac83 793e
000002e0: 9db3 74be 6e3d 1cbf 7096 243d fb0c 253f
000002f0: c12b 8fbd bc61 f3be 2def c83e 78a0 0ebe
00000300: c7b6 bd3e 7d68 86bd 5300 013e ac59 c13d
00000310: b478 e3bd 7c43 d1bd 6dd2 6b3e e269 34be
00000320: 75b6 e23d aa2b 4c3e d836 3dbe 62e4 cc3d
00000330: c50e ec3d f891 ab3e 296a c7bd eacd e1bd
00000340: 1e8a eebe 2551 343e 2e51 05be 404b 4abe
00000350: 5887 013d 2fbb 86be fa99 ae3e a418 c33d
00000360: c720 8bbd a111 bbbe 4018 d4bd 68d9 983d
00000370: fc82 5abe 48d0 04bf 5ca1 11be 804e 7cbe
00000380: 0462 53be 3562 49be 458a babd 2a1e 42be
00000390: 7efa 16be fce4 9a3d 6c00 6bbe 003a ebbd
000003a0: 06b4 ee3d 848e e6bd fa94 24be 2891 b13c
000003b0: ba5c 85bb 8bef b5be 98b7 f3be c9dc ab3d
000003c0: 8abd 113f 43ed 303d 197a 653e 7042 d43d
000003d0: 7015 6e3d 6a48 d33d 2ed3 b03d 14f1 5bbe
000003e0: 98b4 99be 5044 fcbd e83b f9bd c1fb 2cbe
000003f0: 8d55 d3bd c60e adbb 5de7 c73d f87f 4bbe

layers.0.projection.bias f4 [32]
0.0011968146 -0.28711596 -0.20638438 -0.014658951 -0.33938333 -0.27646005 -0.25446838 -0.19110186
0.11443316 -0.075567745 0.1753161 -0.014637588 -0.19601859 -0.012980583 0.07091116 -0.20758504
-0.22397958 -0.08209672 -0.19532609 -0.1281472 -0.21146987 0.2298122 0.22134101 0.009936856
0.089678384 0.035661716 0.046668734 -0.26712596 -0.26549932 -0.21718845 -0.091453284 0.056003723
00000000: 6fde 9c3a dd00 93be 6d56 53be 192c 70bc
00000010: a7c3 adbe 2c8c 8dbe ae49 82be 35b0 43be
00000020: ef5b ea3d 43c3 9abd 1086 333e 7ed2 6fbc
00000030: 19b9 48be 83ac 54bc df39 913d 2c91 54be
00000040: e75a 65be 5322 a8bd 9003 48be 0539 03be
00000050: 8f8b 58be e453 6b3e 38a7 623e 32ce 223c
00000060: 4da9 b73d 0512 123d b727 3f3d bcc4 88be
00000070: 87ef 87be a666 5ebe dc4b bbbd 2964 653d

layers.1.mlp_edge_conv.gconv.convs.<stroke___ordered_next___stroke>.nn.0.weight f4 [64, 64]
0.5858879 -0.28206202 0.15461825 0.28070927 0.07672683 0.40414643 1.0970991 -0.42895612
0.4295782 -0.3389622 0.3646199 0.4157523 -0.5394044 0.21219338 0.11551257 -0.45748585
-0.59904766 0.15786642 -0.41222957 0.4957831 -0.07981868 0.6389159 -0.34127536 0.3007192
-0.1261875 -0.30060312 0.031198153 0.03780373 -0.08479609 0.1708722 -0.10687696 0.46688393
0.2679117 0.4393873 0.14431296 -1.6914313 1.3125539 0.54089636 0.7367102 -0.42211094
-0.06582692 -1.0487586 -0.14641087 -1.1525648 -0.45530626 -0.3748446 -0.71433175 0.19616869
0.33003712 -0.23189838 0.05125923 0.4013526 -0.78946054 -0.8222226 1.390326 1.174935
0.2575076 0.5995819 0.7845075 0.72892094 1.048635 1.1295298 -0.35570735 -0.1765872
-0.85777813 0.2447396 -0.0015326496 0.10269958 -0.44434294 -0.20347174 -0.25596035 -0.24518193
-0.3891521 0.26837116 -0.24482596 0.21941972 0.36256573 0.18367673 0.328491 0.067610994
0.4849044 -0.36855707 -0.06909219 0.07609961 0.3230961 -0.26674515 -1.3209686 -0.057692926
-0.35233656 -0.44929975 -0.39259338 -0.0063801724 0.32014495 0.34228176 -0.025958138 -0.40148595
0.83989686 -0.33958247 0.15738411 1.3821865 0.69872653 0.7357246 0.07842453 -0.71350396
0.9528592 0.29069057 -0.18341269 -0.17519778 0.06776081 1.5848243 0.31399632 0.63979053
0.031163719 -0.61959916 1.2444861 0.2616498 -0.92369854 1.1042948 0.8020227 0.6178181
0.046528075 -0.06823407 -0.29482827 0.3427211 -0.3719668 -0.20056601 1.6165189 0.8464928
0.16017656 0.46211162 -0.016869893 0.1625844 0.016355515 0.054853927 0.46596676 -0.26082647
-0.07748604 0.22123049 0.35715038 0.2734741 -0.22072218 0.20943525 0.020598339 0.09498671
-0.37730527 -0.03208879 0.32674298 0.4036279 0.06870809 0.058527265 0.14625567 0.12313199
-0.49853617 -0.08650834 -0.08075162 -0.31476894 0.36230382 0.1681157 0.17119104 0.21350875
-0.3527492 0.74991053 1.0288321 -0.8388038 1.268465 0.6955186 0.8091433 0.17000215
0.114183925 -0.63397247 -0.27105737 -1.0764245 0.71961904 -0.4816209 -0.8610561 -0.013562841
0.8136252 0.09255027 0.22869654 -0.050667565 0.16962478 -0.5342526 0.13258338 0.60564244
0.07587104 -0.36984292 -0.59184444 0.3129862 0.9943861 -0.001618496 -0.53547156 0.052481037
0.3783666 0.2703789 0.42409682 0.27440938 0.5931017 0.4458367 0.38182193 0.5327024
0.037234906 0.20509534 -0.0006667464 -0.32296163 0.20926857 0.5037368 -0.45426053 0.39613774
0.2851127 0.061293993 0.10259927 -0.16715242 -0.008673372 -0.2560728 0.35307446 0.19999348
-0.15502429 0.65665084 0.41840085 0.27806833 0.19216865 -0.5888278 -0.29876608 -0.22133282
1.5115556 -0.1843187 -0.920111 -1.295558 -0.51064557 -0.64601743 -0.17527778 0.15895201
0.06964215 -0.9051846 -0.8420481 0.00093862583 0.25837064 -2.3676639 0.4483977 -0.9405397
-0.73260087 0.34442255 -1.0597054 0.44529083 0.45597264 -0.51425594 0.5767261 -0.41256616
-0.57572335 -0.5543317 -0.4347603 -0.029520947 0.58048457 0.37771982 -0.41950858 -0.28520346
00000000: c0fc 153f 6f6a 90be 3f54 1e3e 20b9 8f3e
00000010: f522 9d3d 48ec ce3e be6d 8c3f 23a0 dbbe
00000020: adf1 db3e 748c adbe 76af ba3e 7cdd d43e
00000030: 6816 0abf 3949 593e db91 ec3d 963b eabe
00000040: 305b 19bf bca7 213e c10f d3be 48d7 fd3e
00000050: fa77 a3bd fe8f 233f a5bb aebe def7 993e
00000060: 4c37 01be a7e8 99be 4593 ff3c 16d8 1a3d
00000070: 93a9 adbd 1ff9 2e3e 4fe2 dabd 690b ef3e
00000080: b92b 893e 5ff7 e03e c7c6 133e d280 d8bf
00000090: c401 a83f 2f78 0a3f 0a99 3c3f ed1e d8be
000000a0: 44d0 86bd b93d 86bf bbec 15be 3e87 93bf
000000b0: e71d e9be a2eb bfbe 72de 36bf 72e0 483e
000000c0: a0fa a83e c576 6dbe 33f5 513d 177e cd3e
000000d0: 161a 4abf 2e7d 52bf 34f6 b13f 4564 963f
000000e0: 09d8 833e 337e 193f 7cd5 483f 909a 3a3f
000000f0: ac39 863f 6f94 903f 461f b6be 46d3 34be
00000100: 5997 5bbf 059d 7a3e 30e3 c8ba 2854 d23d
00000110: eb80 e3be e55a 50be 3c0d 83be f910 7bbe
00000120: f23e c7be f267 893e a8b3 7abe 90af 603e
00000130: 37a2 b93e c115 3c3e f92f a83e a277 8a3d
00000140: 6445 f83e 83b3 bcbe 3580 8dbd 1dda 9b3d
00000150: da6c a53e d292 88be 8015 a9bf 6b4f 6cbd
00000160: 7565 b4be 9e0a e6be 0002 c9be c410 d1bb
00000170: 0aea a33e 8e3f af3e 29a6 d4bc 918f cdbe
00000180: 7b03 573f c1dd adbe 4d29 213e 7deb b03f
00000190: bedf 323f 7358 3c3f 0a9d a03d 32a8 36bf
000001a0: 95ee 733f 65d5 943e 89d0 3bbe 0c67 33be
000001b0: 2ec6 8a3d 86db ca3f 20c4 a03e 50c9 233f
000001c0: 0e4b ff3c 0d9e 1ebf 524b 9f3f f6f6 853e
000001d0: 8277 6cbf 8859 8d3f 5c51 4d3f 5429 1e3f
000001e0: 3994 3e3d 4ebe 8bbd bbf3 96be 2479 af3e
000001f0: 6f72 bebe 2d61 4dbe 17ea ce3f c1b3 583f
00000200: 5305 243e e599 ec3e bb32 8abc 867c 263e
00000210: 00fc 853c 83ae 603d 3293 ee3e 0c8b 85be
00000220: 00b1 9ebd 3f8a 623e 6adc b63e cc04 8c3e
00000230: ff04 62be 3276 563e d9bd a83c 6488 c23d
00000240: 282e c1be 896f 03bd db4a a73e 51a8 ce3e
00000250: d4b6 8c3d 49ba 6f3d 0cc4 153e a02c fc3d
00000260: 2240 ffbe 492b b1bd 1b61 a5bd 6529 a1be
00000270: e37f b93e 8626 2c3e b44c 2f3e 0aa2 5a3e
00000280: 8b9b b4be 23fa 3f3f c5b0 833f d9bb 56bf
00000290: 105d a23f 820d 323f 0424 4f3f 0b15 2e3e
000002a0: 43d9 e93d 054c 22bf 08c8 8abe 47c8 89bf
000002b0: f438 383f 0497 f6be 2c6e 5cbf ae36 5ebc
000002c0: be49 503f ff8a bd3d 6d2f 6a3e cb88 4fbd
000002d0: 1eb2 2d3e c7c4 08bf f0c3 073e 620b 1b3f
000002e0: 4762 9b3d 0d5c bdbe 1e83 17bf ba3f a03e
000002f0: 1690 7e3f b723 d4ba aa14 09bf 5bf6 563d
00000300: 44b9 c13e 1a6f 8a3e 3823 d93e 637f 8c3e
00000310: 83d5 173f b544 e43e 2a7e c33e 2f5f 083f
00000320: a183 183d 8304 523e 98c8 2eba 3a5b a5be
00000330: 804a 563e e5f4 003f d694 e8be 91d2 ca3e
00000340: 4bfa 913e 690f 7b3d 911f d23d 012a 2bbe
00000350: c21a 0ebc f91b 83be 2dc6 b43e 17cb 4c3e
00000360: b0be 1ebe 451a 283f a338 d63e f95e 8e3e
00000370: dcc7 443e 6bbd 16bf def7 98be 12a5 62be
00000380: a77a c13f 0bbe 3cbe 658c 6bbf d8d4 a5bf
00000390: abb9 02bf 6661 25bf 057c 33be 51c4 223e
000003a0: 8ba0 8e3d 2eba 67bf 7790 57bf 1d0e 763a
000003b0: 2849 843e ce87 17c0 6294 e53e 36c7 70bf
000003c0: bb8b 3bbf 2758 b03e 6da4 87bf 29fd e33e
000003d0: 3f75 e93e 47a6 03bf 52a4 133f df3b d3be
000003e0: 9b62 13bf afe8 0dbf e798 debe ead5 f1bc
000003f0: a39a 143f 7e64 c13e d4c9 d6be 3006 92be

layers.1.mlp_edge_conv.gconv.convs.<stroke___ordered_next___stroke>.nn.0.bias f4 [64]
0.10243478 -0.1538973 0.20266484 0.039416246 -0.21240704 -0.21225707 -0.8779114 -0.16126709
-0.67004365 -0.8368046 0.028885769 -0.48868686 -0.4919169 -0.23916467 -0.013638962 0.5103305
-0.040687736 -0.2860002 -0.12187983 -0.005454206 -0.17187165 0.22225457 -1.1004705 0.07041266
-0.218479 -0.07896996 -1.1515552 -0.39348367 0.4635484 0.05111228 0.1034088 -0.12307407
-0.10213694 -0.16955929 0.051218573 -0.421849 -0.5569241 0.36343077 0.050602462 -0.07894283
-0.53537786 0.018469075 0.19951525 0.13844718 0.014730418 -0.4526149 0.15960501 -0.52179265
-0.85422826 -0.2874054 -0.22938934 0.24370568 0.32456538 -0.44377735 0.022937464 -0.5168157
-0.1598377 -0.16604102 0.088753 -0.3930118 0.16367881 -0.66387206 -0.3212558 -1.0996634
00000000: 53c9 d13d 4197 1dbe 5f87 4f3e ee72 213d
00000010: 3b81 59be eb59 59be cdbe 60bf 3323 25be
00000020: fb87 2bbf d438 56bf d9a1 ec3c 2a35 fabe
00000030: 88dc fbbe 95e7 74be f475 5fbc 05a5 023f
00000040: 2fa8 26bd 9e6e 92be 229c f9bd 32b9 b2bb
00000050: 1fff 2fbe b496 633e 38dc 8cbf 8334 903d
00000060: f5b8 5fbe 01bb a1bd 2966 93bf b176 c9be
00000070: 3756 ed3e 1c5b 513d fec7 d33d 420e fcbd
00000080: 2c2d d1bd f3a0 2dbe 91ca 513d 98fc d7be
00000090: 9492 0ebf 9913 ba3e 8744 4f3d c7ac a1bd
000000a0: 860e 09bf 754c 973c ba4d 4c3e 19c5 0d3e
000000b0: da57 713c 24bd e7be 7f6f 233e 3494 05bf
000000c0: b4ae 5abf cd26 93be 0ae5 6abe fb8d 793e
000000d0: 6f2d a63e c936 e3be 59e7 bb3c 094e 04bf
000000e0: 7eac 23be a806 2abe 22c4 b53d d838 c9be
000000f0: 6b9b 273e 85f3 29bf a47b a4be c5c1 8cbf

layers.1.mlp_edge_conv.gconv.convs.<stroke___connected_to___stroke>.nn.0.weight f4 [64, 64]
0.0970575 -0.09630361 0.20512317 -0.4949493 0.314426 0.24526194 0.30405506 -0.09222963
0.21273878 -0.7602277 -0.14880428 -0.09754067 -0.12262218 -0.64130604 -0.88055027 -0.10997229
-0.057614014 0.19095504 -0.24046138 -0.29282242 -0.26933786 -0.2141672 0.19246814 0.3615672
-0.052569333 0.2466484 0.03019017 0.21153863 0.12961046 0.08253798 -0.08158013 0.19067638
-0.60389745 0.35909203 -0.45787 0.31213546 -0.7894474 -0.824628 0.02302992 -0.3337067
-0.24238886 0.4196836 0.3376522 -0.19532584 -0.14705619 0.53312695 0.20144726 -0.22165087
0.40373677 0.0016909874 -0.18407749 0.1498096 0.50135756 -0.04657098 -0.41261217 -0.25820422
-0.0017522828 -0.23175785 -0.007974535 -0.3247693 0.029507158 0.094998986 0.4669467 -0.044499107
-0.007829506 -0.453363 -0.83578086 0.23778103 -0.24987547 -0.5523189 -0.3044766 0.25446582
0.3237668 -0.043839082 -0.20900257 0.3377853 0.51367575 0.46575406 -0.085786015 -0.34885687
0.118260965 -0.4636462 -0.054151148 -0.3342529 -0.28470922 0.37849727 0.2867747 -0.089804135
0.18695329 -0.121342406 0.043421064 0.019579196 -0.3895808 -0.036879875 0.49625748 0.2736659
-0.4045071 0.35536513 0.27945367 -0.21487589 -0.1138856 -0.11643761 0.20507067 0.32367486
-0.16434439 -0.14092675 0.6255797 0.4385271 0.010093351 -0.38069567 -0.32229778 -0.12319811
0.31664586 0.08095061 0.81961924 0.3949921 0.6551266 -0.3602587 -0.32660985 -0.17186582
-0.07880452 0.38477442 -0.057742126 0.11317118 0.6518483 0.12610099 -0.24479687 -1.1279954
-0.024033463 -1.1093167 -1.1958357 0.032249164 0.00091469154 0.05448787 -1.0184335 -0.038249128
0.82691884 -0.5587515 0.11105269 0.049352214 -0.10918614 0.1886292 -0.6521339 -0.53471047
-0.7294931 0.13536352 0.03708157 0.26548392 -0.9709742 1.5078361 -0.011286859 0.31976408
-0.14890043 -0.082193606 0.8954461 -0.87017137 -0.69200486 0.48005822 -0.11257637 0.3957621
-0.096641295 0.7618784 0.52857137 0.090172976 -0.59967077 0.7318002 0.31057322 -0.2439257
-1.2311245 0.23880936 -0.69769645 -0.3512753 -0.34613517 0.011701146 0.38398424 0.62569696
0.43747064 -0.2149962 0.817885 -0.1490046 0.67797446 -0.553477 -0.33065465 -0.83669364
-1.4961709 0.90823543 -0.32252553 0.18847802 0.24541089 0.048223857 -2.206354 -1.2824941
-0.35738996 -0.3175244 -0.26306435 0.18079415 -0.117913276 -0.32145518 0.046669725 0.6902391
0.34458095 0.23105623 -0.6419986 -0.3469509 0.41607788 0.28565222 0.11248247 -0.011612339
-0.27818534 0.17019981 0.24554542 -0.20982428 0.035555486 0.44095534 -0.19485578 0.3814049
0.29272774 -0.09780628 -0.037047863 -0.1498623 -0.46064854 0.05298835 0.61404485 0.17976104
-0.27158818 -0.4017981 0.37311012 -0.15525429 -0.36391315 -0.39251 -0.6530351 0.32472977
-0.0839683 -0.09000616 0.089205146 0.44332656 0.039852533 -0.45365423 -0.13411206 -0.2638504
-0.12402352 0.91029274 -0.32076538 -0.20433736 0.53540903 0.12829986 -0.4053747 0.32679516
-0.4492934 -0.023573734 -0.79833597 -0.36943266 0.033468746 -0.37337372 0.35166603 0.061616015
00000000: 15c6 c63d d43a c5bd cf0b 523e ff69 fdbe
00000010: 72fc a03e f225 7b3e 1bad 9b3e e3e2 bcbd
00000020: 32d8 593e 489e 42bf 2660 18be 67c3 c7bd
00000030: 5621 fbbd a22c 24bf be6b 61bf 2739 e1bd
00000040: acfc 6bbd b889 433e 823b 76be d2ec 95be
00000050: a7e6 89be a54e 5bbe 5e16 453e 561f b93e
00000060: f152 57bd 6691 7c3e 6051 f73c 959d 583e
00000070: 9bb8 043e ac09 a93d 7c13 a7bd ab40 433e
00000080: 0699 1abf e9da b73e f06d eabe 38d0 9f3e
00000090: 3a19 4abf d21a 53bf 3ea9 bc3c 9bdb aabe
000000a0: c934 78be c5e0 d63e c0e0 ac3e 7f03 48be
000000b0: e695 16be 027b 083f 3148 4e3e 72f8 62be
000000c0: 96b6 ce3e 1fa4 dd3a cf7e 3cbe b067 193e
000000d0: f858 003f 36c1 3ebd e741 d3be 5833 84be
000000e0: dbac e5ba ee51 6dbe a0a7 02bc 2948 a6be
000000f0: ffb8 f13c d48e c23d a313 ef3e b244 36bd
00000100: 5447 00bc 321f e8be bcf5 55bf df7c 733e
00000110: 5bdf 7fbe c564 0dbf 5be4 9bbe 5849 823e
00000120: c3c4 a53e 9c90 33bd c504 56be 32f2 ac3e
00000130: 4180 033f 5177 ee3e 94b0 afbd 5e9d b2be
00000140: ce32 f23d 0963 edbe 98cd 5dbd 3223 abbe
00000150: 68c5 91be 65ca c13e 22d4 923e 3beb b7bd
00000160: af70 3f3e 5e82 f8bd 49da 313d 8d64 a03c
00000170: 2277 c7be 5a0f 17bd 7615 fe3e f01d 8c3e
00000180: 8e1b cfbe 6bf2 b53e 8d14 8f3e 6d08 5cbe
00000190: da3c e9bd d776 eebd 0cfe 513e b6b8 a53e
000001a0: e549 28be 1a4f 10be fe25 203f a086 e03e
000001b0: 955e 253c 8bea c2be 3704 a5be 4a4f fcbd
000001c0: 681f a23e 6fc9 a53d 91d2 513f 683c ca3e
000001d0: 60b6 273f d473 b8be 6839 a7be 98fd 2fbe
000001e0: 4464 a1bd 2701 c53e 0283 6cbd 4bc6 e73d
000001f0: 88df 263f 9e20 013e 08ac 7abe 2762 90bf
00000200: d3e1 c4bc 17fe 8dbf 2511 99bf b317 043d
00000210: e9c7 6f3a ac2e 5f3d 075c 82bf 1eab 1cbd
00000220: f4b0 533f 570a 0fbf 986f e33d 8c25 4a3d
00000230: fc9c dfbd 0328 413e 3ff2 26bf c9e2 08bf
00000240: 0fc0 3abf bc9c 0a3e d8e2 173d 82ed 873e
00000250: c491 78bf c600 c13f 85ec 38bc 1eb8 a33e
00000260: 5b79 18be 1f55 a8bd f53b 653f 8dc3 5ebf
00000270: 3b27 31bf 31ca f53e 718e e6bd 54a1 ca3e
00000280: dfeb c5bd 760a 433f 7450 073f 9cac b83d
00000290: 0684 19bf 4257 3b3f 7403 9f3e a9c7 79be
000002a0: 7d95 9dbf 718a 743e 3c9c 32bf 5bda b3be
000002b0: a138 b1be 2ab6 3f3c 9599 c43e ad2d 203f
000002c0: 27fc df3e f727 5cbe e960 513f a994 18be
000002d0: bc8f 2d3f abb0 0dbf 914b a9be 8e31 56bf
000002e0: 8782 bfbf 1e82 683f 1122 a5be 6200 413e
000002f0: fe4c 7b3e 6186 453d e734 0dc0 c428 a4bf
00000300: d1fb b6be 8f92 a2be 5fb0 86be 1a22 393e
00000310: 847c f1bd c695 a4be c128 3f3d 82b3 303f
00000320: ea6c b03e 019a 6c3e 055a 24bf 8ca3 b1be
00000330: 2908 d53e 0241 923e 365d e63d ae41 3ebc
00000340: 4f6e 8ebe dc48 2e3e 4270 7b3e 2ddc 56be
00000350: a1a2 113d e6c4 e13e 4688 47be 8147 c33e
00000360: 69e0 953e a94e c8bd 80bf 17bd 8175 19be
00000370: 20da ebbe 500a 593d 0b32 1d3f 4713 383e
00000380: 9b0d 8bbe 7bb8 cdbe 4a08 bf3e fbfa 1ebe
00000390: d352 babe 12f7 c8be 4f2d 27bf fb42 a63e
000003a0: 92f7 abbd 2655 b8bd 30b1 b63d b3fb e23e
000003b0: 693c 233d 5e45 e8be ac54 09be 6617 87be
000003c0: 0b00 febd f208 693f 5c3b a4be d03d 51be
000003d0: 9110 093f 0a61 033e 468d cfbe b251 a73e
000003e0: c909 e6be b41d c1bc bf5f 4cbf 4726 bdbe
000003f0: 8616 093d d72a bfbe 920d b43e 1361 7c3d

layers.1.mlp_edge_conv.gconv.convs.<stroke___connected_to___stroke>.nn.0.bias f4 [64]
-0.2108567 -0.59391665 0.057515215 -0.45790794 0.19809091 -0.1548009 -1.0132023 -0.3878146
-0.27567503 -0.39904556 -0.46429485 -0.46389943 -0.6410202 0.12991859 -0.428859 -0.35027292
-0.310983 -0.08507463 -1.0347841 -0.40057072 0.10928933 -0.35488313 -0.9000297 0.08677645
-0.4669144 -0.8940519 -0.8682487 -0.28558743 0.008464108 0.4727034 0.007102457 -0.37727937
-0.32795486 -0.045140754 -0.2100708 -0.4267272 -0.5492352 0.35222924 -0.07889386 -0.1329854
-0.7010027 -0.25413635 0.1988422 0.3852413 -0.08617837 -0.5030343 -0.25102898 0.13685769
-0.5989547 0.11842493 -0.0060277674 0.0034329914 -0.13820373 -0.49736813 -1.1498907 -0.24930821
-0.2079569 -0.47945458 0.20969296 -0.10081476 -0.00010445138 -0.67857754 -1.0401533 -0.86157334
00000000: d2ea 57be ec0a 18bf 1395 6b3d e972 eabe
00000010: 58d8 4a3e 2184 1ebe 9db0 81bf a38f c6be
00000020: 4725 8dbe b34f ccbe 0eb8 edbe 3a84 edbe
00000030: e619 24bf 6109 053e 6893 dbbe f956 b3be
00000040: 2a39 9fbe 9c3b aebd ce73 84bf 9b17 cdbe
00000050: 16d3 df3d 3eb3 b5be 5968 66bf dab7 b13d
00000060: 670f efbe 96e0 64bf 8c45 5ebf 8438 92be
00000070: 0bad 0a3c 2e06 f23e babb e83b c32a c1be
00000080: b3e9 a7be 83e5 38bd cd1c 57be fd7b dabe
00000090: ae9a 0cbf 6457 b43e 1b93 a1bd 532d 08be
000000a0: ea74 33bf 291e 82be 4a9d 4b3e 593e c53e
000000b0: 497e b0bd dbc6 00bf df86 80be 6c24 0c3e
000000c0: 1855 19bf c588 f23d 9484 c5bb 0afc 603b
000000d0: 4785 0dbe 09a7 febe 9e2f 93bf a74a 7fbe
000000e0: a7f2 54be 127b f5be c0b9 563e f877 cebd
000000f0: e80c dbb8 42b7 2dbf be23 85bf 1290 5cbf
