checkpoints/reduce_construction/graph_encoder.pth (torch, 131562 bytes, 20 tensors)

local_head.gconv.convs.<stroke___ordered_next___stroke>.nn.0.weight f4 [16, 12]
00000000: 929e aabd 510b 06be 7591 8cbe 6ab3 453e
00000010: 8087 47bc cea2 0bbe 1067 f63c bed6 37be
00000020: 80b8 e43c 2077 81bc 3051 05bd 004d ccbc
00000030: f2b6 ccbe d2bd d93f 1f79 403f ae34 73bf
00000040: 2ef2 1a40 dd29 0dbf b3e6 1340 f761 84c0
00000050: 95db 713f f913 3640 0749 84c0 aaf3 ad3f
00000060: a246 30be f8b5 923e 60ec 9fbd 4629 4d3e
00000070: 6007 c9bd 9a9a 6fbe 1008 c23d 6f0e 70be
00000080: 18e9 cf3d 6ab0 5dbe 3240 913e 5955 63be
00000090: f653 85be ac69 08be 380a 35bd 64aa 763e
000000a0: 60b3 babc fc30 7b3e 6433 233e b4be 0f3e
000000b0: 58c3 07bd a49c 54be 847e 403e 80de 3d3d
000000c0: ce90 e93f 99e3 01bf 243c 793f f5fd 1fbe
000000d0: eee9 793f 4e54 a7bf 41d6 f5bf 3632 113e
000000e0: aa40 f7be 9828 02bf e8f1 4bbd 3c75 223f
000000f0: 98fd 453e f8d6 673e 352e 66be 7c2c eb3d
00000100: 084f 84be b918 91be 0cbb ec3d d097 d13c
00000110: d0a1 f53c 84bb 9a3d e4c9 ad3d 085a 343e
00000120: 9e00 93be d81b 9cbd 04c6 143e 200d 223e
00000130: d2bc 18be 0457 fb3d 0c55 673e dfe2 8cbe
00000140: 9495 ba3d 68d1 543d eb72 3bbe a937 85be
00000150: f016 883e f42c 103e c25d 3f3e 6df1 12be
00000160: a1e2 17be e018 433c 82dc 39be cc22 e43d
00000170: e270 2f3e c6d6 70be de9f c6bd 4381 82be
00000180: 3392 e53f ec51 e43f d584 bdbf bb37 24bf
00000190: 2fab 623c 8f68 553c 9c73 143f fe38 a33e
000001a0: 6939 633f 1259 c33f 78e2 a3bf 21bc be3f
000001b0: a8be 5f3e d84a 973d 28c0 613e aa7e a1bd
000001c0: bc69 90be 2c28 79bd 1425 9f3d 24b3 b1bd
000001d0: a226 53be 8473 913d f0c4 a5bd 40ad 243c
000001e0: f506 74bc 6af7 d7be d8f6 bc3e 91dd dcbe
000001f0: ec49 5f3d 3eb6 d83b 4f58 623d 1acf aebe
00000200: f8f4 e1be 6f2f e23e 5802 ae3d 3816 253d
00000210: b856 d23d 1848 9c3d 0e2e 57be 6aeb 133e
00000220: 2259 933e a61a 273e 7f1e 8dbe 3877 c6bd
00000230: b5f9 34be 0ae6 b6bd 0051 f3ba 3241 41be
00000240: 4af3 6fbe b41c 563e d3bc 89be d4ad 653e
00000250: c66e 90be c6e3 4b3e 21ac 7abe 20f4 bdbc
00000260: 6256 b1bd a42d 53bd 5038 023d 20a2 6f3e
00000270: 0066 b2ba 489e 533d ea2d fbbd 4094 843e
00000280: 96fd 053e 30ee f83d 2eb8 283e 346a 24be
00000290: 6af5 82be 888e 5f3e e65a 70be b0fd b7bc
000002a0: 7a66 40bc 5576 a1be ff69 263e b9f1 b0bd
000002b0: 3381 843e 8225 80be 80ff ee3d 5997 7fbe
000002c0: 1433 72be c568 fdbd 41ad 57be cd9e 1a3e
000002d0: 40ff 2240 c558 b83e f993 a4bf cee3 33bf
000002e0: b584 0dbf 3fd2 29c0 afea e8bf 6c38 fabe
000002f0: 35c8 873f 705d 09bf 7447 153f cbe3 0f40
-0.08331026 -0.13090254 -0.27454725 0.19306722 -0.012178302 -0.13636324 0.03007844 -0.17953011
0.027920008 -0.015803874 -0.03254813 -0.02493906 -0.39983326 1.7011054 0.75184816 -0.9500226
2.4210315 -0.55142003 2.3109558 -4.1369586 0.9447568 2.844969 -4.1339145 1.3589985
-0.17214444 0.28654456 -0.07808757 0.20035276 -0.0981586 -0.2339882 0.09474194 -0.23443006
0.10151881 -0.21649328 0.2836929 -0.22200526 -0.2604062 -0.1332156 -0.0441992 0.24088436
-0.02279061 0.24530405 0.15937573 0.14037591 -0.03314528 -0.20762879 0.18798262 0.04635477
1.8247316 -0.5073791 0.9735739 -0.1562422 0.97622573 -1.3072603 -1.920601 0.1417931
-0.48291522 -0.5084319 -0.049791247 0.63460135 0.1933502 0.22640598 -0.22478564 0.11483094
-0.25841546 -0.28339174 0.11559114 0.025585085 0.029984385 0.07555297 0.08485773 0.17612469
-0.28711408 -0.07622498 0.14528662 0.1582532 -0.14915779 0.12272456 0.22591037 -0.2751684
0.09110561 0.051957518 -0.18305556 -0.26019028 0.2658 0.14079648 0.1868811 -0.14349909
-0.14832546 0.011907786 -0.18150523 0.111394495 0.17132905 -0.2351943 -0.09698461 -0.25489244
1.7935241 1.78375 -1.4806162 -0.6414754 0.013834759 0.013025417 0.57988906 0.3187942
0.88759476 1.5261557 -1.2803488 1.4901162 0.21850073 0.07387322 0.22045958 -0.078854874
-0.2820567 -0.060829327 0.07770744 -0.086767465 -0.20620206 0.07102111 -0.080942035 0.010051072
-0.014894237 -0.4218095 0.36907077 -0.43137792 0.054513857 0.006613522 0.05526 -0.3414238
-0.4413221 0.44176814 0.08496541 0.040304393 0.102704465 0.07630938 -0.21013662 0.14445272
0.2877894 0.1631876 -0.2756233 -0.09690708 -0.1767338 -0.08930595 -0.0018563569 -0.18872526
-0.23432651 0.20909387 -0.26901874 0.22429591 -0.28209513 0.19911107 -0.24479724 -0.023187697
-0.08659054 -0.0515572 0.031791985 0.2340169 -0.0013610721 0.05166462 -0.12264617 0.25894356
0.13085017 0.12154806 0.16476509 -0.16056138 -0.2557786 0.21831715 -0.23472175 -0.022459835
-0.011743182 -0.31535593 0.16251372 -0.08639855 0.2587982 -0.25028616 0.116698265 -0.24960078
-0.23652297 -0.12373499 -0.21062185 0.1509964 2.5468292 0.36005226 -1.2857658 -0.7026948
-0.5528062 -2.6534574 -1.819662 -0.4887117 1.0607973 -0.536582 0.58312154 2.2482784

local_head.gconv.convs.<stroke___ordered_next___stroke>.nn.0.bias f4 [16]
00000000: 2209 03be ed54 4139 5ab1 a9bd caa0 c2bd
00000010: ef83 203d 142a 74be ccff 5bbd e07d 1cbd
00000020: 18ab b33e 34ed 80be cc96 24bd f732 0fbe
00000030: 6e6c 91bd a61a 47be 22a0 7dbc 5484 1f3d
-0.12796453 0.00018437552 -0.0828578 -0.09503324 0.03918832 -0.23844177 -0.053710744 -0.03820598
0.35091472 -0.25180972 -0.040182874 -0.13984285 -0.071007594 -0.1944376 -0.015480073 0.038944557

local_head.gconv.convs.<stroke___connected_to___stroke>.nn.0.weight f4 [16, 12]
00000000: 5bc4 e53d e687 c8bf 53af bdbe 1846 0e40
00000010: df3b 02bf 2e6b 84be eda7 ac3f 9680 833f
00000020: 52c5 f53e f71d a6bf 8349 e73e cfa5 403d
00000030: 8b0f 993f 2e37 553e a4dd 183f 1b4c 313f
00000040: f429 823f 0da5 ec3e f934 c9bf 1e82 e83e
00000050: 6cfd 44bf 11cc e4be 044c 963e 664a f2be
00000060: aeed 02be e820 483d 1660 6abe c820 7d3d
00000070: 809a a53d 8c41 6ebe 74a6 703e 2a50 11be
00000080: 2036 01bd 8a5d d2bd fed1 18be 34d3 2a3e
00000090: 6077 033e 4219 1fbd 471a d83b 5616 693e
000000a0: 0f2d 5dbe e29c 823e b932 b6bc 371a 4f3e
000000b0: 9db6 903e 789d 0c3e 38da 093e e0d1 293e
000000c0: 20aa d43f f066 893f ecb2 edbd 4a11 3f3e
000000d0: 2773 973f dd05 3abf 7aff 2ebf c102 89bf
000000e0: 7749 2b3f 2a0e 2a3f 2ce7 f73d 0230 dfbd
000000f0: c44d ff3d ea44 4a3e 9844 d63d f4b0 733e
00000100: 52ff 1d3e e49e 0c3e 2d81 68be 065c 093e
00000110: 985d 70be c825 adbd d80b 003d 3ad4 0f3e
00000120: a3bb 99bf 05f0 5cbf 1ca3 38bb ed60 9f3e
00000130: 7cfa ba3b bf6d e7be 594e 8c3f 72ef b53e
00000140: ade6 a1be 818c 18be bc97 b43f 638e 253f
00000150: aaa0 923e 2320 76be c8c1 72be 96c8 5bbe
00000160: 00f8 863b 48ad 9abd 209f 8a3e 6c69 fd3d
00000170: b252 57be 2811 9b3d 36e0 49be 1c43 5fbd
00000180: 408b ff3c 7c40 7ebd c2c1 babd 1c8c 913d
00000190: 94c6 5f3e 5a5b 1f3e 3c4c 783e 4031 b6bb
000001a0: b05f d6bc a405 183e 1008 f7bc 181e 25be
000001b0: 0067 8cbc 000a 65bb b47a 49be 00bb 0d3d
000001c0: ba15 1e3e 3e7a 81be 6425 d9bd 899b 03be
000001d0: bee6 cdbd 70ac bbbc 0ad1 893e 1010 13bd
000001e0: f32a 20bf 44f7 4dbc 6202 ca3f e8d7 3dc0
000001f0: 512c 0c3e 803c 623f 9b80 ddbf a581 953e
00000200: 74c7 8cbf 0dbd 8a3f 673c 7b3f 65d2 8abf
00000210: 8f55 22bf 7d8f c0bf 774a 9e3d 4673 0e40
00000220: e832 103f 9960 4c3f 605e 7b3f 7273 b13f
00000230: eb9c 99bd 70e7 a3bf 853a 04be d81e 41bf
00000240: b0b0 853e e439 873d 3009 483e 0b55 8ebe
00000250: c065 c93d a47c 84be 9290 08be 80b8 693c
00000260: 70b6 6e3e f6ff 123e 3edd 143e ae99 5cbe
00000270: 803d 5fbb 48bb 69be 3062 193e 8218 523e
00000280: 2a76 443e 14ff e53d 2044 103c a0c9 f83d
00000290: bd99 88be 4e17 05be fa8d 86be a464 91be
000002a0: a166 dfbf 3d7f 21bf debb 50be 696c 8e3f
000002b0: 5780 01be 2607 6a3f c9ea e93f 57a4 b23f
000002c0: 3b53 51bf 1f6a 5dbf 675a d43f e202 b8bf
000002d0: 738c 0240 3870 573e aefe 683c 050f 5cbf
000002e0: 4fbc 42bf 293c 9fbf 048d ebbf 0ba2 0dbf
000002f0: 8e66 013f b1d8 533f 4a15 453f 1bf5 8cbe
0.112190925 -1.5666473 -0.37047824 2.2230282 -0.50872606 -0.25863022 1.3488747 1.0273616
0.48002106 -1.2977895 0.45173272 0.047033127 1.1957868 0.2082183 0.59713197 0.6925675
1.0169053 0.46219674 -1.5719291 0.45411772 -0.7694919 -0.4468694 0.2935487 -0.47322387
-0.1278598 0.048859507 -0.22888216 0.06179884 0.08086109 -0.23267192 0.23500997 -0.14190736
-0.03154576 -0.102717474 -0.14923856 0.1668213 0.12838507 -0.038842447 0.0065949294 0.22762427
-0.2159922 0.25510317 -0.022240983 0.20224844 0.28264323 0.13731945 0.1346215 0.16583967
1.6614418 1.0734539 -0.11606392 0.18658939 1.1832017 -0.72665197 -0.68358576 -1.0703965
0.66908973 0.6642786 0.121046394 -0.10897829 0.124660045 0.19752851 0.10462302 0.23797971
0.15429428 0.13732487 -0.22705527 0.1341401 -0.23473203 -0.08454472 0.031261295 0.14045802
-1.2010387 -0.8630374 -0.0028173393 0.31128636 0.0057061296 -0.45200917 1.096141 0.35534245
-0.31621304 -0.14897348 1.4108806 0.6467039 0.28638202 -0.24035697 -0.23706734 -0.21463236
0.0041189194 -0.07552582 0.27074528 0.12373623 -0.2102764 0.07571632 -0.19714436 -0.05450736
0.03119433 -0.062073216 -0.091189876 0.07106802 0.21853095 0.15562192 0.24247831 -0.0055600703
-0.026168674 0.14845902 -0.030155212 -0.16124761 -0.017138958 -0.0034948587 -0.19675714 0.034602165
0.15437976 -0.25288576 -0.10602835 -0.128523 -0.10053776 -0.022909373 0.26917297 -0.03590399
-0.62565535 -0.01257116 1.5781977 -2.9663029 0.1368878 0.88373566 -1.7304872 0.29200473
-1.0998368 1.0838944 0.9813904 -1.0845457 -0.634118 -1.5043789 0.07729047 2.2257857
0.56327677 0.79834896 0.9819088 1.3863356 -0.07500633 -1.2805004 -0.12912948 -0.7543769
0.26111364 0.06602839 0.19534755 -0.27799258 0.098338604 -0.25876343 -0.13336399 0.01426518
0.23311782 0.14355454 0.14537522 -0.21542999 -0.0034063756 -0.22825348 0.14978862 0.20517161
0.19185701 0.11230293 0.008805305 0.12147832 -0.26679793 -0.12997171 -0.26280195 -0.28397095
-1.7453195 -0.63084775 -0.20384166 1.1126834 -0.12646614 0.9141716 1.8274776 1.3956403
-0.81767625 -0.8649005 1.6590089 -1.437588 2.0398223 0.21038902 0.014220877 -0.8596042
-0.76068586 -1.2440234 -1.840241 -0.5532538 0.5054711 0.8275252 0.7698561 -0.2753075

local_head.gconv.convs.<stroke___connected_to___stroke>.nn.0.bias f4 [16]
00000000: 9b63 ee3b 47f6 9c3c b471 84bd 259c 97bc
00000010: 8b5f 4f3e f5eb 4cbe 2c0e 163e baf5 c1bd
00000020: a31d 1bbe 4357 7dbe 72fe 753d 2941 2d3d
00000030: b05f c4bd 0c64 9dbd 79e7 113e 772c 423d
0.0072750575 0.019160403 -0.06467 -0.018507073 0.2025129 -0.20011885 0.14653844 -0.09470697
-0.15148024 -0.24740319 0.06005711 0.04229847 -0.095885634 -0.07685098 0.14248456 0.047405686

layers.0.mlp_edge_conv.gconv.convs.<stroke___ordered_next___stroke>.nn.0.weight f4 [32, 32]
00000000: 0b78 093d 7213 fbbd a6a7 c03d 0e05 00be
00000010: 8702 f3bd b194 043e 796e a1bc 8e5d 863d
00000020: ca03 083e 593e 133e 02f2 d1bd 93ee f83b
00000030: c051 0e3c e8dc 8d3c e134 573e 5310 253e
00000040: c81a 9b3c a9c9 1fbf d088 35bc febb e03d
00000050: 4309 96be 42c6 f6bd cfcb 26be b01d 93bc
00000060: 8459 0440 5ef8 03be 1caf efbd 7d7d 30be
00000070: 40ba d13c 787b 20be 7f99 e1bd 1b4a 01bf
00000080: a9ce 0a3f e370 06bf 485a 22bd f0c2 e6bc
00000090: 6fa1 823e e8f9 2bbd 42ad 263e 1ba1 23be
000000a0: 45ef 52be a4a1 7b3d 7aec 113d bc23 333e
000000b0: 6876 3fbd 0ae6 d03d 258f a93e 3e01 d3be
000000c0: 46cf c73d 82d3 183e be42 b23d 7161 353d
000000d0: fdd6 3f3f dc44 2f3d 4d59 4b3f 4a0e ca3d
000000e0: c37e 1fbf 2a17 f33d 4c6f b23e 32af 273f
000000f0: 596f aabd 1052 7d3c 6c18 5d3f 25fa 8d3e
00000100: af98 1f3e 023b 8a3e a0a2 0ebd de5a d9bd
00000110: 2dc0 75bc c5ae 16be 15a7 c4bd a416 95bd
00000120: e61f 3b3e c670 17be d597 1abe 6b97 15be
00000130: eee5 bf3d fa45 873d ca8a a6bd 41cc 993e
00000140: 27ab 28bd 746c a33e e09a 28be 2326 a0bc
00000150: cb1b 823c 0003 5f3b 5fd3 de3d 53f7 9dbd
00000160: b49c 82bf 3f62 15be 4f3c 133f 694b ad3e
00000170: a22c 01be 5b0e 283e 1866 523e 9f2f bcbe
00000180: 92e6 1cbf c29a 883e c413 a2bd 9e40 d0bc
00000190: 4b8f babe d2b2 91bd e72b 69bf 7e9a bdbd
000001a0: 596c f33c eba2 333e 7710 94bf 7f0e 58bf
000001b0: 2089 65bc 2083 d0bc 5102 52bf f04d 8a3c
000001c0: 65b2 f1be 29f0 cd3e b4c5 3ebd 0a6a 2d3c
000001d0: 5c8d 13bf d4d1 533d b749 11bf 1003 0abc
000001e0: c948 29be cae7 cc3d ac21 b5be 4470 cdbe
000001f0: dfbf 88bd 2e69 31be 72b0 0fbf 26f9 1fbf
00000200: 64eb b2bd 0124 4a3e 77d3 abbd f829 183b
00000210: 5fc7 593e a4b1 42bd 2ce8 5c3e a8ce 613d
00000220: fc14 4f3e 346e 5d3d 64f1 3cbd 5770 b2bd
00000230: 060a 1cbe 4663 b13d 57f5 383e 6a0a b93e
00000240: 206f d1be 0d91 fabd fa13 b43d 10d4 9cbc
00000250: 2db4 983e 9a85 86bd 289e adbd e9ce 283e
00000260: b4b4 253e 8601 b53d 1659 ff3e 9572 90bd
00000270: 38ce 163d 2c55 22be 81e5 2c3e 4da0 f73e
00000280: b80a febe 4c6c aabe f3d4 063e f42e 973d
00000290: a778 7d3e 4e90 af3d dd10 f5bd 0d31 cfbd
000002a0: 7412 093e 55d5 2cbe 983e e4bd 7d1a 3cbe
000002b0: bf35 2abe e486 ecbd ffa1 313d 042a eb3c
000002c0: 6674 65bf a846 883e 92d8 cc3d deae aebd
000002d0: 07a3 97bd 06c5 d13d b950 bbbe 6253 943d
000002e0: 2b14 d53f fce9 18be 28e2 ff3d 8ff3 2abf
000002f0: 8145 03be 5912 0e3e 7ec3 a9be dfd0 933f
00000300: 28de 04be d819 443d d663 8b3d 60e9 ba3d
00000310: 2164 593d ebe3 89bd fd64 2f3e ca93 15be
00000320: 3b6a d5bd 087f 25bd 4f4a a13e ca44 713d
00000330: 8040 b0ba 16e0 8fbd 8720 6a3e c2a1 a73e
00000340: 0004 6abe fddd f53e 2f80 31be f576 36bd
00000350: be6c 223e b542 17be 1b80 27be d178 25be
00000360: 14ad 763f d235 60bd 652b d43d 831b ed3c
00000370: 8a37 04be d0ab c2bc f0ca 3cbd 74ef 0fbe
00000380: 1040 16be efb8 f33d 077e 27be e7c8 023e
00000390: 0db5 95bc 1039 9b3c 0e9b 23be bc26 03bd
000003a0: be19 a73d a831 e9bc d678 e9bd 3531 68be
000003b0: 50df 2cbd 8fb5 2a3e 8976 13bc 8167 62be
000003c0: 0d44 cbbd 2f5d 8f3d ff59 a9bd fcb5 093e
000003d0: 5697 06be 4ef8 a23d 52c5 f6bd b858 24be
000003e0: 6c8e 01bd 10fa f33c 2127 133c ca76 2c3e
000003f0: 8d02 2a3e 9bf3 283e 3ccb 02be 3b94 023e
0.033561748 -0.12259568 0.094069764 -0.12501928 -0.118657164 0.12947346 -0.019705998 0.06560813
0.13282695 0.14379252 -0.102512375 0.0075967996 0.008686483 0.01731725 0.21016265 0.16119508
0.018933669 -0.62417084 -0.011079982 0.10973357 -0.2930394 -0.120495334 -0.16288684 -0.017958492
2.0679636 -0.12887713 -0.11703321 -0.1723537 0.025601506 -0.156721 -0.11015605 -0.505037
0.5422159 -0.52516 -0.03963688 -0.028169125 0.2551379 -0.041986376 0.1627703 -0.15979426
-0.20599087 0.06143345 0.035625912 0.174941 -0.04674378 0.102001265 0.33117023 -0.41211885
0.09756331 0.14924434 0.08704136 0.04428238 0.7493742 0.04279028 0.7943314 0.09866007
-0.623028 0.118696526 0.34850538 0.655017 -0.08322019 0.01546146 0.8636539 0.27729908
0.15585588 0.26998144 -0.03482306 -0.10613035 -0.014999432 -0.14715107 -0.09602181 -0.07279709
0.18273887 -0.14789113 -0.15096982 -0.14608543 0.093700275 0.06605144 -0.08131941 0.30038646
-0.04117885 0.3191868 -0.1646533 -0.019549435 0.015882393 0.0034028888 0.108801596 -0.07713189
-1.0204072 -0.14588259 0.575139 0.33846596 -0.12614682 0.16411726 0.20546758 -0.36755082
-0.6128932 0.2668057 -0.07913926 -0.025421437 -0.3643745 -0.071141854 -0.91082615 -0.09257983
0.02971475 0.17542617 -1.1567525 -0.8439712 -0.014009744 -0.02545315 -0.82034785 0.016882867
-0.47206417 0.4022229 -0.046575263 0.010584364 -0.5763757 0.05171378 -0.56753105 -0.008423582
-0.16531672 0.10005148 -0.35377252 -0.40124714 -0.066772215 -0.17325279 -0.5612861 -0.62489545
-0.087363034 0.19740297 -0.08389943 0.0023218375 0.2126746 -0.047532693 0.21572942 0.055128723
0.20222849 0.054060176 -0.046128646 -0.087128334 -0.15238199 0.08661513 0.1806234 0.36140758
-0.40905094 -0.122346975 0.08792873 -0.019144088 0.29824963 -0.06568451 -0.084774315 0.1648518
0.16182214 0.08838181 0.49872655 -0.07053105 0.03681776 -0.15852803 0.16884424 0.48364487
-0.49617553 -0.3328575 0.13167171 0.073820025 0.24753056 0.08572446 -0.11966107 -0.101167776
0.13385946 -0.16878255 -0.11144751 -0.1836948 -0.16622065 -0.11549166 0.043367382 0.028706558
-0.89630735 0.26616406 0.10002245 -0.08529447 -0.07404142 0.10242657 -0.36585024 0.072424665
1.664678 -0.14933008 0.12494308 -0.6677789 -0.12819482 0.13874187 -0.3315696 1.1548117
-0.12975371 0.04787621 0.068061516 0.09126544 0.053074006 -0.06732925 0.17128368 -0.14607158
-0.104206525 -0.04040435 0.31502005 0.058903493 -0.0013446957 -0.07025163 0.2286397 0.327406
-0.22853088 0.48020926 -0.17334054 -0.04454704 0.15861794 -0.1477154 -0.16357462 -0.16159369
0.96357846 -0.054738827 0.10359839 0.028943783 -0.12911811 -0.023763567 -0.046091974 -0.14056188
-0.14672875 0.11900508 -0.1635667 0.1277195 -0.018274808 0.018948108 -0.15977117 -0.03201936
0.08159207 -0.02846606 -0.11400001 -0.22675021 -0.042205155 0.16670822 -0.009000429 -0.22109796
-0.09925089 0.07000195 -0.082691185 0.13448328 -0.13143668 0.079575166 -0.120493546 -0.16049469
-0.031629965 0.029782325 0.008981497 0.1684219 0.16602536 0.16499178 -0.1277284 0.12751858

layers.0.mlp_edge_conv.gconv.convs.<stroke___ordered_next___stroke>.nn.0.bias f4 [32]
00000000: a7e6 2ebd 207c f33d 6af7 cf3c 2807 293e
00000010: bc71 083b 34b8 193e 8f60 3abc bbee 25bd
00000020: 79a6 d1bd c051 bbbd 3399 25be be66 54be
00000030: a9fb a23e a364 f33d 5bd5 3fbe 5a42 aabd
00000040: 5aa8 023d 00e3 4e3d d51f 32bd ab96 c43d
00000050: cef7 9ebc 5ccc 553e 02e0 1abd 4061 afbd
00000060: 0733 3fbe 34ab 14bd 535f 06be f83c 9f3e
00000070: eca7 7bbd 6908 9dbc 9149 2abe 4c69 0cbd
-0.042700436 0.11888909 0.02538653 0.16506636 0.0020819744 0.15011674 -0.01137556 -0.040510874
-0.1023683 -0.09146452 -0.16171722 -0.20742318 0.31832626 0.11884429 -0.18733732 -0.08313437
0.031898834 0.050509453 -0.04348739 0.0959905 -0.019405272 0.20878738 -0.037811287 -0.08563471
-0.18671809 -0.036296085 -0.13122301 0.31101203 -0.06143944 -0.01916905 -0.16629626 -0.034280106

layers.0.mlp_edge_conv.gconv.convs.<stroke___connected_to___stroke>.nn.0.weight f4 [32, 32]
00000000: c71b 86bc ff34 89be 4787 cebd b1dc bdbc
00000010: c0a1 8dbe 9f0c d4bd 0f79 bdbe a443 953d
00000020: 60f7 403c 4a2d 22be f4b3 e0be 6554 c4bd
00000030: 28ca 28be 4e95 d53d 917b dbbe e7f4 afbd
00000040: b344 46be 6605 05bf 8722 0dbe 3117 29be
00000050: f3c1 c9be 27e3 31be ca44 04be c677 fbbd
00000060: 952a c63d 9f40 1dbe 8cce 5cbe 6e71 3fbe
00000070: 100c d03c c59d 81bd 3c86 d8be 4f25 babe
00000080: 74d5 113e c489 98bd 38e9 703d 3a52 b6bc
00000090: b415 89bd 3aea 34be 0163 2f3e fdcf 043e
000000a0: 5912 49be c04d 2c3b d442 6ebd 15a5 153e
000000b0: 607f 9e3c 27af 133e 7e3d e43d 14f7 a93d
000000c0: 1672 0c3e bcac 403d f23c 27be 8f7e 85bd
000000d0: 9f8a 6ebd da21 b3bd 4caa 83bc 1291 dcbd
000000e0: 5a47 fa3f 1f34 8abd 7258 3e3e 4c70 b03d
000000f0: b002 31be e3b6 0bbe 9fd6 923d 1640 093e
00000100: 894b 5d3e a31e 863d 50d5 55bc 528d cf3d
00000110: dbae 0b3e 2d86 95bd 6733 e13d dce8 f4bd
00000120: fbce 353e 8828 4c3d c6e7 973e 894f df3d
00000130: 09f4 053e 066e e53d 5839 adbd 80a9 993e
00000140: d840 d3bd 5c91 b3be ff79 243e 7b1b f5bb
00000150: 399e 113f 1b4b 103e 1fe4 9f3e 7404 72bd
00000160: 4437 21be 2352 0f3e b420 aa3e c2bb a03e
00000170: 792a 13be c04f 54bb c662 5d3e ae38 af3c
00000180: 3f25 8f3c 5e60 2bbf 0c66 d8bd 7b5e be3d
00000190: 2731 04bd fe98 fc3d 1adf 183e ac61 7c3d
000001a0: 42ac f83b 1905 1ebe 690c d4bd bc1e 9b3c
000001b0: dc8a 163d 00cd 433b fbe2 373c 7ff9 e93c
000001c0: 34df 8f3e 33da 323f 801b 693d 7df9 a3bd
000001d0: 316a e63d 669c 9a3d 3ff5 623d 1d85 cabd
000001e0: a2db 4bbf a63d cb3d 0ff6 49be fe6d d8bc
000001f0: fa87 973d ba3c e93d 463f 18be f847 563d
00000200: 03e0 89bf d948 e7be 00c8 7ebb 6c1d 3f3c
00000210: d3ef 27bf eb5f 183e fa62 0ebf 694b 243e
00000220: bd84 2a3f b8ec 073d b12f 4fbf 0a9a 60bf
00000230: a08e 03bc 4020 ba3c 0942 42bf 9b3c 0ebf
00000240: 1ed5 f43e db6a f0be b8f1 a4bd f561 1fbe
00000250: 2800 953e 6b4f 1f3e b663 4b3e d3b0 2b3e
00000260: 90b0 68bf e0ad 9fbc 2e63 253e e4cc b13e
00000270: 143d 56bd b5c8 263e 3e4d 0d3e 3cf2 c13e
00000280: d1dc 22be 63c9 8e3d c024 2ebe f9e2 d7bc
00000290: 1709 a6bd 022e 24be 0525 15bd 202b 4b3d
000002a0: 3621 ffbd d3a5 25be 3966 aa3d 30f4 1fbe
000002b0: 33bf 073e d6f6 22be bfb1 b63d 49b1 3bbe
000002c0: ecd7 1cbc 36af 2d3e 30de bc3c 87e4 853d
000002d0: 392a 28be d8f7 8cbc 8198 d5bc 0c6e 0fbd
000002e0: 107a 18bf 347f 5cbd 4eb1 2abd aa6d 623d
000002f0: 3325 31be 5030 18be a215 e13d c934 043e
00000300: d38f 22bf 4f2f 69be 0090 f9b9 6510 01be
00000310: 2daa d6be 72e5 5dbd e897 a8be 96ef 973d
00000320: faf4 f13e 1009 063d 6aee 8cbe 95ff bbbe
00000330: ab00 233e 3fb0 033e 9fe4 95be 0fc6 6fbe
00000340: 7ee7 e83d 28e3 e83e 001c 7cbb 3bd2 623c
00000350: 2af5 c73e f6c0 e6bd 454c 8d3e 8f34 213e
00000360: a3f4 cfbf f0be 45bd 28ac fb3e 02e2 9b3e
00000370: a07b 97bb e9c2 02be c395 913e d0bf b03d
00000380: 3271 bc3c 2895 a6bd 2362 04be a271 edbd
00000390: 9d3b 833c 886e e13c fe96 0dbd 73ba 133e
000003a0: 01b6 3dbd 3932 e8bd dc8e 3cbe 2a49 ad3d
000003b0: b3df 26be 9a16 8a3d a74f a5bd 4d7f 8abd
000003c0: c358 b43d d7c7 07be 67bf 193e f507 933d
000003d0: e218 04bd 8fcb 0f3e f58e 06bd 2804 90bc
000003e0: 9903 c0be 3208 dd3d 388c a2bd c550 493e
000003f0: ead7 31be a046 793d 8b44 d7bc b9f1 35be
-0.016370667 -0.26798245 -0.10084396 -0.023176523 -0.27662468 -0.1035397 -0.37006423 0.07288292
0.011777729 -0.15837589 -0.43887293 -0.095864095 -0.16483366 0.10428868 -0.4286771 -0.08591633
-0.19362144 -0.5196136 -0.13782702 -0.16512753 -0.39405784 -0.17371808 -0.12916866 -0.12278704
0.09676091 -0.15356682 -0.21563166 -0.18695614 0.025396377 -0.0632892 -0.42289913 -0.3635659
0.14241582 -0.07448152 0.058816165 -0.022256006 -0.06693593 -0.17667475 0.1712761 0.12969966
-0.19635905 0.002629146 -0.0581692 0.14613755 0.019347847 0.14422284 0.11144541 0.082990795
0.13715395 0.047039732 -0.16331843 -0.0651828 -0.058237668 -0.08746691 -0.016072415 -0.107698575
1.9553025 -0.067482226 0.18588427 0.08615169 -0.17286181 -0.13643984 0.07169842 0.13403353
0.21610846 0.06548812 -0.013051346 0.101343766 0.13640921 -0.073009826 0.10996132 -0.11958477
0.17754738 0.04984334 0.29669017 0.10903842 0.13081373 0.11202626 -0.08458203 0.3001213
-0.10315102 -0.35071838 0.16062163 -0.0074800826 0.56882054 0.1409115 0.3122873 -0.059086278
-0.15743738 0.13996176 0.33228076 0.31393248 -0.14371671 -0.0032396168 0.2161971 0.021389332
0.017473815 -0.6694392 -0.10566339 0.092953645 -0.032273438 0.123338684 0.14928856 0.061616585
0.007588894 -0.15431632 -0.103539295 0.018935554 0.03675352 0.0029876828 0.01122355 0.028561352
0.28099978 0.69864196 0.05691099 -0.080065705 0.11250723 0.07549362 0.055409666 -0.098886706
-0.7963201 0.09923868 -0.1972277 -0.026419636 0.07398982 0.11388536 -0.14867887 0.05231473
-1.0771488 -0.45172766 -0.0038876534 0.01166473 -0.6560032 0.1488034 -0.55619776 0.16044392
0.6660879 0.033184737 -0.80932146 -0.87735045 -0.00802961 0.022720456 -0.7588201 -0.55561227
0.47818846 -0.46956524 -0.08053917 -0.15564711 0.29101682 0.1555764 0.19862255 0.16766672
-0.90894413 -0.01949209 0.16151115 0.34726632 -0.052304342 0.16287501 0.13798997 0.37880123
-0.15904547 0.06972005 -0.17006207 -0.026353346 -0.081072025 -0.16033176 -0.036412258 0.049601674
-0.12457506 -0.16176538 0.08320279 -0.15620494 0.1325653 -0.15914473 0.08920621 -0.18329348
-0.009572964 0.16961369 0.023055166 0.06537729 -0.16422357 -0.017208025 -0.026073696 -0.03501706
-0.5956125 -0.053832248 -0.041672997 0.055280365 -0.17299347 -0.1486218 0.10990454 0.12910761
-0.6350071 -0.22771953 -0.0004760027 -0.1260391 -0.4192671 -0.054173894 -0.32928395 0.07418744
0.47257215 0.032723486 -0.27525645 -0.3671843 0.15918224 0.12860201 -0.29275987 -0.23415397
0.11372279 0.45485806 -0.0038468838 0.013844068 0.39054233 -0.11267273 0.27597252 0.15742706
-1.6246532 -0.048277795 0.49154782 0.30445868 -0.0046228915 -0.12769665 0.28434572 0.08630335
0.023003194 -0.08133918 -0.12928061 -0.11593939 0.016019637 0.027518526 -0.034567825 0.14426593
-0.04631615 -0.11337704 -0.18413872 0.084612206 -0.16296272 0.06742592 -0.08071833 -0.06762562
0.088059925 -0.13259827 0.1501442 0.07179252 -0.032250293 0.14042495 -0.03285118 -0.017580107
-0.37502745 0.10792579 -0.07936901 0.19659717 -0.17367521 0.06085837 -0.026277801 -0.17767991

layers.0.mlp_edge_conv.gconv.convs.<stroke___connected_to___stroke>.nn.0.bias f4 [32]
00000000: c934 a13e ede7 dc3d f976 383e 7b94 f63d
00000010: 5848 033f 4705 8fbe a209 023f 563a 0fbe
00000020: 393a a9bc 74f5 913e e178 d0bc 05f0 d33d
00000030: dc54 7e3e 268f 0e3e bc12 213e 0134 493d
00000040: 10cf 67ba 27ea 603c 8cf3 9c3e 9a20 9b3e
00000050: af1f 933e c218 bb3d 0bbb 0cbd c807 123e
00000060: c989 873d a79d 3c3e aea3 4f3e 3cb9 643e
00000070: 8c89 31be aa7e abbc fc5b 1dbd 4cee 1f3c
0.31485584 0.10786424 0.18014134 0.12040039 0.5128226 -0.27933714 0.5079595 -0.13987097
-0.020657646 0.28507578 -0.025448265 0.103485145 0.24837059 0.13921794 0.15729803 0.04912186
-0.00088428054 0.013727701 0.30654562 0.3029831 0.2873511 0.091355816 -0.034358066 0.14260781
0.06618077 0.18419515 0.20277283 0.22336286 -0.17337626 -0.020934422 -0.0384178 0.009761404

layers.0.projection.weight f4 [32, 16]
00000000: e6ac 8ebb fa91 00be e0b9 14bd 6d4f 12bd
00000010: 29c2 7ebe b03d 863c 4aac 8ebe e68e 49be
00000020: a5af 343e 3a54 37be 4945 c63d 587d adbd
00000030: b84b 683e 903f 29bd 8e53 c2be 2cfb 9a3e
00000040: 3f49 963d c5d4 99be 361d 1ebe 01c3 173e
00000050: 8777 55be 30e7 5c3d 5a29 78be 204c 5ebc
00000060: a851 583d a8c5 5e3d 775a 683c f36c 923e
00000070: bc9c 733e 102f 383e 5701 1e3e f3b3 0fbf
00000080: e3b0 89be 288f e43e 863c 133e 9662 8bbc
00000090: 63c4 173e 5081 e13c 8ba4 673e c26d 603e
000000a0: d441 8b3d 809f c9bb 11e0 613e c295 b4bd
000000b0: 989f 2a3e 6c4b 5dbe 8798 7bbe 0143 b33e
000000c0: 6a13 3abc 4850 15be 6832 e1bd 23f4 fa3d
000000d0: b2db d8bd 9cd2 363e f8dc 8fbe 40a6 a83d
000000e0: 2995 a33c 9405 d0bd 9bc5 673d 6378 55be
000000f0: 4477 593e 1615 28be 1e8d 593d d8d0 193e
00000100: 8f52 313d 4170 84bd e869 97bd dea8 f7bd
00000110: c925 933e b079 ffbd ef32 303e 5c72 523e
00000120: c09a 47be 20d4 f93c 0d60 2ebe de99 85be
00000130: 4059 85bd 02dd 58be d5b4 9cbc b96e babc
00000140: be37 acbe d25a 17bf 6e4b 64be f226 2dbd
00000150: 5640 cd3d 7a26 7abe 44fc b33d ecf4 5d3e
00000160: 7cd1 88be 2065 75be 5aa0 743d b3e6 efbe
00000170: 807c 523b c0d8 f83b ec63 a7be 2006 0e3e
00000180: 66c1 1cbe 070b 93bd 8e2e 6e3e 9896 60be
00000190: a3cc b1bc d843 50bd afeb 283e 1641 4fbe
000001a0: f90b 333c 1447 31be 8da9 703d 455a 82be
000001b0: 1050 6b3d 4014 263c 75ce 833d 07a7 82bc
000001c0: a0a6 b1be d0cf a4be 7c87 0e3e 6f54 0cbe
000001d0: ea17 34be 74da dc3d 1993 0dbe 0c66 bcbd
000001e0: 5da3 223c 906d b7bd 8fd8 4ebe e043 38be
000001f0: 801b dc3b 9691 4c3e 6b9e 52be 4a25 943e
00000200: 6572 f1be bb87 2bbf dc31 d43d 5c5b 493e
00000210: 895b 51be dc92 1c3e 28cb e93d 3062 f73c
00000220: de4c 5cbe a049 32bc 9b66 a4bd 3df6 cabe
00000230: bc1b 8ebd 6e6f 36be ef52 a0bd b7ff e53e
00000240: b37a aebe 51ef ad3e a050 9f3d f33f 6abe
00000250: cea8 7b3e e0d1 6d3d 920c 99be 843c 25be
00000260: fd0d f43d 80ac b0bb d138 1bbe fe06 42be
00000270: 48ea 99bd b0f1 1bbe 6bc0 55be 578b 5b3e
00000280: c78c 55be 77db 3a3f 00c6 9dba 9738 8e3c
00000290: 2484 493e 2624 7bbe 964d dbbd d00b 053d
000002a0: e1e6 98be 0078 913b 086c 06be 1c03 30be
000002b0: 8011 94bb bc2f 383e c153 97be 71e0 453e
000002c0: 40d6 12bf 79a7 e7be e8a5 163e 7ba8 95bd
000002d0: b2d1 57be 209e 24be 97c9 5f3d 1c32 ad3d
000002e0: edf5 82bd c673 243e 2ff9 1a3d bfa3 b7be
000002f0: c032 fb3c d661 783e f13e cebe 6743 9bbe
00000300: d726 4ebe 2e86 a6bc 982e 7abe b873 6b3d
00000310: c1bd 47be 00cd 70bd fb66 d4be 20e8 70be
00000320: 5618 803e c046 87bd feb6 d0be a577 4abe
00000330: 3c7d 9ebd d83b 3e3e c832 c6be d172 083e
00000340: bb86 8a3d 713c bebe d00a 1dbd 1630 00be
00000350: e5b2 67be 58e3 443e 6902 40bd d8a5 ddbd
00000360: 9478 febd 3214 43be 0312 c2be 3e28 043e
00000370: 04b9 ac3d 38de 28bd 650f 05bd 54b2 d53a
00000380: 205e d1be d7c9 1bbf 7636 3d3e a189 77be
00000390: 8198 163e 0401 66be 3c2f a33a f010 26bd
000003a0: 7140 09bf a8f9 9abd 13b9 103e 670b fcbd
000003b0: 56a0 00be 904c 453e 8087 8e3e 11d9 3bbe
000003c0: a19c 9d3b e000 b63e 5ebc 0cbe b45d 49bd
000003d0: 1ffb d03d e030 86bc 2f17 483d 7895 5ebd
000003e0: b827 12be e0de d93c 7064 a83e 4d6e 463d
000003f0: 04e5 593e 0069 e73a ad98 6cbe a380 c8bc
-0.004354107 -0.12555686 -0.036310077 -0.035720278 -0.24878754 0.016386837 -0.2786582 -0.19683418
0.17645128 -0.17903224 0.09681184 -0.08471173 0.22685134 -0.041320384 -0.37954372 0.30269754
0.07338189 -0.30045143 -0.1544083 0.14820482 -0.20846377 0.053931415 -0.24234524 -0.013567954
0.05281225 0.05438772 0.014181725 0.28598747 0.23790258 0.17986703 0.15430199 -0.56133956
-0.26892766 0.4464047 0.14378557 -0.017014783 0.1482101 0.027527481 0.22621362 0.2191687
0.06799665 -0.006153047 0.22058131 -0.088176265 0.16662443 -0.21610802 -0.24569903 0.35012057
-0.011357168 -0.14581406 -0.10995942 0.12253597 -0.105887786 0.17853779 -0.28098273 0.08234835
0.019968586 -0.10157314 0.056584936 -0.20846705 0.21236902 -0.16414294 0.053113095 0.15021074
0.043291625 -0.06466723 -0.07393247 -0.12092756 0.28739765 -0.12474382 0.1720693 0.20551437
-0.19492626 0.030496657 -0.17028828 -0.26093954 -0.06511164 -0.21178058 -0.019129196 -0.022757875
-0.33636278 -0.59122956 -0.22294399 -0.04227347 0.10022037 -0.2442874 0.0878835 0.21675462
-0.26722324 -0.23964357 0.059723236 -0.46855697 0.0032117665 0.007594198 -0.32693422 0.13869524
-0.1530815 -0.07179838 0.23259947 -0.21932447 -0.021704024 -0.05084595 0.16496156 -0.20239672
0.0109281475 -0.1731227 0.058755446 -0.25459495 0.0574494 0.010136664 0.06435863 -0.015948785
-0.34697437 -0.32189798 0.1391887 -0.13704084 -0.17587247 0.10783854 -0.13825645 -0.091991514
0.009926644 -0.08956444 -0.20199798 -0.17994642 0.0067171454 0.19977412 -0.20568244 0.289347
-0.4715759 -0.67003983 0.103610724 0.19663757 -0.20445074 0.15290397 0.11415702 0.030198187
-0.21513698 -0.010881811 -0.08027383 -0.3964099 -0.06938884 -0.17815945 -0.07828318 0.44921657
-0.34077987 0.33971646 0.0777905 -0.22875957 0.24576113 0.05806148 -0.29892403 -0.16136366
0.119167306 -0.0053916574 -0.15158392 -0.1894798 -0.07515389 -0.15228915 -0.20874183 0.21439873
-0.20854484 0.72991127 -0.0012037158 0.017360969 0.19679314 -0.24525508 -0.10708158 0.03248197
-0.29863647 0.004439354 -0.13127148 -0.17188686 -0.0045186877 0.17986959 -0.29556087 0.19323899
-0.5735817 -0.4524496 0.14711726 -0.07307526 -0.21076086 -0.16075945 0.05463561 0.08456823
-0.06394563 0.16059789 0.037835296 -0.35867116 0.030663848 0.24256071 -0.40282395 -0.3032486
-0.20132004 -0.020327654 -0.24431837 0.057483405 -0.19505979 -0.058789253 -0.41484818 -0.23526049
0.25018567 -0.06605291 -0.40764612 -0.19772203 -0.0773873 0.18577516 -0.38710618 0.13325049
0.06763979 -0.37155488 -0.03834039 -0.12518343 -0.22626837 0.1922735 -0.0468773 -0.10822648
-0.12425342 -0.19050673 -0.37904367 0.12905976 0.084337264 -0.04122755 -0.032485384 0.0016303756
-0.40892124 -0.6085486 0.18477806 -0.24173595 0.14706613 -0.22461325 0.001244999 -0.040543497
-0.53613955 -0.075671494 0.141331 -0.12306862 -0.12561163 0.19267488 0.27837753 -0.18344523
0.0048099314 0.35547543 -0.13743731 -0.049161628 0.102041475 -0.016380727 0.048850235 -0.054341763
-0.14272964 0.026595533 0.32889128 0.048445035 0.21278769 0.0017655194 -0.23105116 -0.024475401

layers.0.projection.bias f4 [32]
00000000: 4935 973d 365f 32be 5b02 7cbe ec44 b0bd
00000010: bf07 febd 61b3 723d 4c27 2cbe 08cb 353e
00000020: 15dc 83be 3187 c3bd d986 6abc 7ad1 dcbd
00000030: 838e edbb 40d3 48be 57be 1fbd 65ea 16be
00000040: 5e01 0dbd 3106 95be 2daa 2bbe 3d1f f1bc
00000050: b6bc f6bd cf2e 4cbe 89a5 b4bd 9dc9 50be
00000060: 24f0 08be 5fc7 b5bd c322 aebe 470a e63d
00000070: c58d a7bc 1a83 2bbd b6c3 be3a f1c4 64be
0.0738321 -0.17419133 -0.24610274 -0.08606896 -0.12403821 0.0592531 -0.16811866 0.17753232
-0.25753847 -0.0954727 -0.014314377 -0.10782142 -0.0072496547 -0.19611835 -0.03899988 -0.14737852
-0.034425132 -0.29106286 -0.16764136 -0.02943384 -0.120477125 -0.19939731 -0.08820636 -0.2038941
-0.13372856 -0.08875918 -0.34010896 0.11232429 -0.020453343 -0.041873075 0.0014554176 -0.22340752

layers.1.mlp_edge_conv.gconv.convs.<stroke___ordered_next___stroke>.nn.0.weight f4 [64, 64]
00000000: ec8a 633d f919 5d3e 6431 8cbd 8614 a4bd
00000010: 35b9 d4bb 1cd7 c9bd c3bd 79be 761e 393e
00000020: d844 85bd 56d6 803d 29ee 6ebd 20bc d5bd
00000030: 818c 52be 9fdd 043c b723 ae3e fb57 f4bb
00000040: f135 12be fcad 3bbe 60ab 08bd 1e0d 8abe
00000050: 5710 1abe 766c 49be 5efa 18be 8512 e1bd
00000060: 0acc 3abd 54f3 1bbe 1e07 d03d 1569 f23d
00000070: a0ba a7bd b15d f4bd 6bbc 4bbe 4467 b3be
00000080: dc82 89bf 557f f1bc 3acf 0b3f 1b0d a93e
00000090: d3ce a8be 782c e0be 4fdd 77be 1bea bdbe
000000a0: fa29 a73e 9111 5cbe f115 883e 55d3 e43e
000000b0: cc8e bb3e 3aff 87be 1323 273d ec79 bdbe
000000c0: 8b8a 8cbe dfc3 71be b829 773c 0726 893e
000000d0: 2e55 893e ed1d 9a3e ae7c 6e3e ecd9 de3e
000000e0: 333c 4c3f 6707 853d be6b 553e 62ec 78bd
000000f0: 54a5 fdbe 1cbb 96bd efe0 84be 8385 b63e
00000100: 2f3c bb3d 9fb5 50be 62a6 e7bd c0e4 c7bd
00000110: bd8a 173e 6908 51be 4a70 6cbe d35f c3bd
00000120: eaac 803e 311a 1eba 9990 af3e 8665 963d
00000130: 4009 d63e 3e4a 913e c632 bdbe ab15 0cbf
00000140: 30bd 833e 9826 a33e 2761 ba3d e0f0 0ebd
00000150: 37c4 8abd b05e abbb 3e6a 8e3d cf2e febd
00000160: 8786 923d 4a1c 923e 87e5 383e 0201 273e
00000170: dfd6 8c3d dd4c 37be af7f e73e 7d3c 1c3e
00000180: 6b19 c7be 1bcd a33e b35f 21bf 7e42 9f3e
00000190: 9008 383d 2dea a4bd 5edb 62be fc7d de3d
000001a0: de8e 9bbe 7bde 863d 72f4 94bf ba05 8bbe
000001b0: eb30 dbbe 62e1 99be 0267 8e3e d90d 3b3d
000001c0: ae2d d33d 5b06 9cbf f998 02bf aad4 bebe
000001d0: 5b61 40bf 6c04 e23e d627 27be 4f2e d43e
000001e0: 5a9d c6bd f94e c8bf cbd3 62bf 143b 8dbe
000001f0: 50e8 ce3c 14e3 2e3f e7e8 c4bf a858 51be
00000200: 249c 54bc 3e24 46bd 31a8 963d e2a3 93be
00000210: 1fcd 363e 3dc0 9abc 10e8 c53e 7330 ea3c
00000220: 8f9b 0f3d 9980 953d ce2d 3d3e 1c9a 393e
00000230: a924 afbe d3df 8dbe 8f0d 893e b134 10be
00000240: 5b6c 603c 16e5 d4bc 00b1 8bbd 7a6c 693d
00000250: e9b4 01bd 0797 2cbe a454 84be d626 c9bc
00000260: b1bf a1bd 26f8 31bd dc23 83bd af5e ad3d
00000270: ec45 09be bc4e 47be 22ca b0bb 95b3 afbe
00000280: e2b4 15bf 8652 80be ea11 2f3f c5a7 2f3e
00000290: 31e9 9e3e 938f 7b3d f6dc ea3e babd 81bd
000002a0: 83ab 703d 65a3 8a3d 52d6 bbbd ff25 1d3e
000002b0: ecea 2a3f 31db 7bbe c76e ca3e b5e0 27be
000002c0: 9c27 9f3d d157 ce3e d3aa d0bd 5813 033f
000002d0: 2622 933e 5b17 e53d 855a c73d 0ede b33e
000002e0: 0cec d93e ab79 913e d425 533b b64a ed3d
000002f0: ab74 55be 91e4 24be 8e42 5cbe 9472 d33e
00000300: 4a80 77be f3e8 96be 19d5 0c3d 13b0 42be
00000310: 12e7 d8be 6798 babe 3e07 4abd 922c c1bc
00000320: d71c 033e 1a4e 3f3e 3f49 9abd c56f 233e
00000330: 5855 3ebe 0750 57be 368b 903e 991c debe
00000340: 1b6e aa3e 5518 dfbc 2406 6bbe 9b09 0e3e
00000350: 70ff 8b3d 41be 363e e470 a7bb fbe5 b83e
00000360: 3a48 90be f542 77be 079b 9ebd 5176 a7be
00000370: 6de6 e9bd d4a7 d9bd 373c e7be 5e2e 9e3d
00000380: 7d5b bfbe 7cfb d93d 6b42 8ebe 2381 043d
00000390: 9aea 88be 5a35 a93d 64c8 613e 1d47 14be
000003a0: 5dd0 c7be 5d1f 57be fd20 cf3d 1263 d9be
000003b0: 7a1a eabd 1b56 a43d 4f2e 8b3d 9f4a 46be
000003c0: 6cab 21bf 1bfb ee3d 309c 98be 119e ce3e
000003d0: db58 e43e daf3 f5bd d1cc 6e3e d9c8 cebd
000003e0: 51d6 5b3e 4290 86bd 7f44 a7be 4127 b53a
000003f0: 003d 383e ef4d 823e fcff 42be 6abf 19be
0.055552408 0.21591939 -0.06845358 -0.08011727 -0.006491805 -0.09855482 -0.24388795 0.18078026
-0.065072715 0.06290881 -0.058332596 -0.104362726 -0.2056141 0.008109479 0.34011623 -0.007456777
-0.1427839 -0.18328089 -0.03336656 -0.26963133 -0.15045296 -0.19670281 -0.14939258 -0.109898604
-0.045604743 -0.15229541 0.101576075 0.11836449 -0.08189893 -0.11931933 -0.19896095 -0.35039723
-1.074306 -0.029479662 0.5461308 0.3301781 -0.32970294 -0.43783927 -0.24205516 -0.3709267
0.32649213 -0.21491076 0.2657924 0.44692484 0.36632383 -0.2656191 0.040804934 -0.37007082
-0.2744945 -0.23609875 0.01508563 0.26786825 0.268228 0.30100957 0.23289749 0.43525636
0.79779357 0.064955525 0.20841882 -0.060772307 -0.49540198 -0.07359907 -0.2595286 0.35648736
0.091423385 -0.20381783 -0.11311032 -0.097604275 0.14799018 -0.20413364 -0.2308971 -0.095397614
0.25131923 -0.00060311245 0.34290007 0.07343583 0.41803932 0.28376955 -0.369528 -0.5472056
0.25730276 0.31865382 0.091005616 -0.034897685 -0.06775706 -0.0052297935 0.06953858 -0.12411272
0.07154565 0.28537208 0.18056308 0.16308978 0.06876921 -0.17900415 0.45214602 0.1525745
-0.3888658 0.3199242 -0.6303665 0.31105417 0.04493004 -0.08052478 -0.22153994 0.10863873
-0.30382437 0.065854035 -1.1637099 -0.27152807 -0.4281076 -0.30054766 0.27812964 0.045667503
0.10311447 -1.218944 -0.5101467 -0.37271625 -0.7514855 0.44144 -0.1632379 0.4144158
-0.09697981 -1.56491 -0.8860442 -0.27584136 0.02525726 0.68315244 -1.5383576 -0.20443976
-0.01297668 -0.048374407 0.07356299 -0.2883597 0.17851685 -0.018890494 0.38653612 0.028587556
0.03506046 0.07299919 0.18474504 0.18125194 -0.34207657 -0.27709827 0.26768157 -0.140826
0.013697709 -0.025988143 -0.068208694 0.056988217 -0.03166667 -0.16854487 -0.25845826 -0.024554651
-0.0789789 -0.043449543 -0.06403324 0.08465325 -0.1340558 -0.19463629 -0.00539519 -0.34316698
-0.5847913 -0.2506296 0.6838671 0.17153843 0.31037286 0.06141622 0.45871705 -0.063350156
0.058757316 0.06769446 -0.09171738 0.15346526 0.6676471 -0.24595334 0.3953764 -0.16394313
0.07771227 0.40301374 -0.10188832 0.5120139 0.2873699 0.11186095 0.09734062 0.35130352
0.42562902 0.28413138 0.0032218592 0.115865156 -0.20845287 -0.16102816 -0.21509764 0.41298354
-0.24170032 -0.294746 0.034382913 -0.1901248 -0.42363793 -0.364444 -0.049323313 -0.023580823
0.1280397 0.18682137 -0.07533502 0.15960605 -0.18587244 -0.21026622 0.2823121 -0.43381193
0.3328713 -0.027233282 -0.22951561 0.13870852 0.0683583 0.17846014 -0.005109893 0.3611296
-0.28180104 -0.24146636 -0.07744413 -0.32707456 -0.11420903 -0.10627714 -0.45163128 0.077236876
-0.37374488 0.1064367 -0.27785048 0.032349717 -0.26741487 0.08262129 0.22049099 -0.14480253
-0.39026156 -0.21008058 0.10113714 -0.42458397 -0.11430831 0.08024236 0.06795942 -0.19364403
-0.63152194 0.11668988 -0.29806662 0.4035497 0.4459904 -0.120094016 0.23320319 -0.100969024
0.21468474 -0.06570484 -0.32669446 0.0013820903 0.1799202 0.25450084 -0.19042963 -0.15014425

layers.1.mlp_edge_conv.gconv.convs.<stroke___ordered_next___stroke>.nn.0.bias f4 [64]
00000000: 9901 db3d 9c55 873b 18a1 94bc 8c8c efbe
00000010: 7b0c 453d 2b5d bdbe 0965 063e 094c 3cbe
00000020: e060 903e fffb 623e 2758 8fbe 4889 a33c
00000030: 498d 76be 8655 9fbe 4e4d e2be d5d1 7a3d
00000040: b83c 82bd 7275 8fbe f52d 063e 905e aebd
00000050: 358e bb3d 53f3 dbbe 3049 2c3e f974 943e
00000060: 2fa0 213e a2f7 2abe af0c a7bc f1e6 88bd
00000070: 20fb a2be 60b9 383d 4f2d cdbc 1c87 b43e
00000080: 094b 28be 5936 cb3d e6d1 10be 46ad 6f3e
00000090: 4bea 02be fe13 80be e60c aabc 66f6 c33d
000000a0: 7f3f 67bd 14f7 98be fce0 e7be a38d a5be
000000b0: f26d a53c 67b4 d2bd 6c0e c33d ed4f 19be
000000c0: 55cb 2fbc 0a4a c13a 2bdd 8a3e 127f 6bbe
000000d0: 8a27 2bbd d27e 26bc 54fd 4c3e 9f0f 8b3d
000000e0: e218 3fbe 9e80 1f3d d565 f2be e5ed 443e
000000f0: bb15 193e 66a4 62be 2ee9 febe 04fb 65be
0.10693664 0.0041300785 -0.018143222 -0.46786916 0.048107605 -0.36985144 0.1312448 -0.1838838
0.2819891 0.22166441 -0.27996942 0.019962922 -0.24077334 -0.31119937 -0.44199604 0.061235268
-0.063592374 -0.2801929 0.13103469 -0.0851413 0.09157983 -0.4295908 0.16824794 0.28995493
0.15783761 -0.16696027 -0.02039179 -0.066846736 -0.31832218 0.045098662 -0.025046019 0.3525933
-0.16434874 0.09922475 -0.1414257 0.23405942 -0.12784688 -0.25015253 -0.020758104 0.09568481
-0.05645704 -0.29876006 -0.45288837 -0.32334623 0.020194028 -0.10288315 0.09524235 -0.14971896
-0.0107296305 0.0014746797 0.27121863 -0.22997692 -0.041785754 -0.010162072 0.20018512 0.06790089
-0.18661836 0.03894102 -0.47343317 0.19231375 0.14949696 -0.22133026 -0.49787277 -0.22459036

layers.1.mlp_edge_conv.gconv.convs.<stroke___connected_to___stroke>.nn.0.weight f4 [64, 64]
00000000: e427 453e 7fa8 183e 2fec c23d aea5 43be
00000010: 5538 2b3e e171 603e 7db1 ad3e e19f 283d
00000020: 6fa3 94bd 8610 d83c b5de fd3d ddda 08bd
00000030: 134e bcbe 2c1c 20be 32cc 473d 4def d3bd
00000040: fbd9 773e fa81 33be 83c6 453e 0a07 2d3e
00000050: ad46 0cbe 9213 083e 1727 83bd 7793 ecbc
00000060: c782 5bbe b441 083e 2530 be3d 5310 de3d
00000070: d082 0abc b5db 7cbd 6124 35be e215 303e
00000080: 72d6 6bbe ebb4 653e 8275 a4bd 93ba 06be
00000090: 4287 0d3f dfbb db3d 87e0 4f3e a0bd 773d
000000a0: e7a5 aa3d 68c3 a53e c3ed 1dbe 5f69 523e
000000b0: 27bf 213f 7041 773d cc4a 463e 6410 c33e
000000c0: 3949 393f de01 773c a6bd 3b3e 8fc3 20be
000000d0: 52ab a1bb 507a 303f 2ca1 bfbd 5043 46bd
000000e0: 1eae 573e 03fe ecbc ecec 4a3e 2ce1 af3d
000000f0: a995 233f 778e 813e 1c59 05be 8357 0ebd
00000100: 3234 a2be 2666 d5bb f144 e6bc bb7f 503d
00000110: 1f53 083e ff3e 7cbe 12f2 13be 37ca 62be
00000120: 40b4 9dbd 284e 2ebd 7bcd 3cbe e98f efbd
00000130: 9827 8dbe 27c9 90bd 39c7 1ebd 2d5b 95bd
00000140: 8395 80be 6d45 e83d b723 2a3e f66a 97bd
00000150: ca25 a1bd a512 d4bc 1e30 ad3d f93b 7a3c
00000160: c95c d03d 104f 073e e000 563d 24cf 43be
00000170: 7ca5 c1bd 456f e1bd a40b 12be b880 a13d
00000180: f614 093f 26ed 353d 36ba a53d 6de0 c33c
00000190: 40f3 8c3d e15e 703e a48a 45bd a178 2cbe
000001a0: 0821 1b3e 719e 92be c18c e7bc 8cc8 1bbb
000001b0: d980 1ebe c430 d43e 9c84 af3e 474e 8e3e
000001c0: ac58 d63e 133c fe3d 8e26 cebb 0e7e 8a3d
000001d0: f4df ec3d 80a3 a4be afd1 653d 2a95 1bbe
000001e0: 94ed 4abd 5ac1 d43d 4644 6f3e 3f8e 36bc
000001f0: 46ae 84bd d23f a0ba 9c43 cfbd 0623 23bd
00000200: 23cc 0dbe 04f5 89bd 37a4 14bd c4a4 0b3e
00000210: d5ff 0bbf 5305 56bd 4332 77be c2e0 cbbd
00000220: a54b 093d 4fea b93d a75c 64be eda4 7abd
00000230: 9437 b73e 46d4 ef3d 1e77 78bc 38e5 653c
00000240: bed0 26be fb8b ae3c b827 29bd 58f3 bbbe
00000250: f1c2 043e f82e 6ebe eae9 26bd f5fb a7bd
00000260: 4f0c 893d e57f 8abe deec 43be 0fab 203e
00000270: 7870 4a3d 4606 723d f0d7 1c3e d407 583d
00000280: f344 f4bd 85a8 ba3d 1c7d da3e 39ad ecbd
00000290: beea cdbd 8757 a83e 31c8 7fbe 94e5 1ebe
000002a0: b065 fb3d d07f 2ebe c988 ac3e 68cd b53d
000002b0: f0a7 2bbd 673b 52be d49b 133e 4545 413e
000002c0: d364 7e3e 7f49 33be 4915 033e f68a 073f
000002d0: 1b80 c93e 5f82 013e ff34 8f3c 4bd1 ab3e
000002e0: d182 a13b 2c1b c6be 8ec1 423e d3da c8be
000002f0: 64ce 68be 725f 1abe 443a 33bd 1dca 9d3d
00000300: 789a 9abe 9375 8a3e 84c1 0dbe 6619 313c
00000310: b9f9 c73d 8a23 19bf f1c2 4b3e 4ef3 203d
00000320: 9eca a0bd 9e88 2c3e b4c9 ebbd 3bd7 22be
00000330: 0a5c c9be 2e3a 0c3e bad3 9bbb f9e8 df3d
00000340: da02 86be 66b9 88bd 2057 8c3d 61de 093e
00000350: 83ed 0d3e d864 c0bc 7814 6d3e 0ef4 463e
00000360: a056 8b3c 4cf1 9cbe bb9f 6fbe d8fb a0be
00000370: f91e 183f 493f 4e3d e95d 8cbd fbad cebe
00000380: f151 a3be cc35 39be 28e8 b23e 2bbb b3bd
00000390: fe81 153d 6271 e93e 3134 92be 8190 73be
000003a0: c16b 2e3e b6e1 453b 4e59 5d3e d3c5 e83e
000003b0: 8d48 693e 78b8 45bc 41c8 263e a839 62bb
000003c0: 391d fb3d 98ec 6f3e 0620 803e d7cd 46be
000003d0: 645d 29bd 692f d7bd eedb c6bd 31b4 10be
000003e0: c9db ad3c c114 ab3e 7e93 203f 9499 f7ba
000003f0: ae09 63be 7c2d 05bf 92ac 1c3f f306 9b3e
0.19253498 0.14908026 0.09517705 -0.1910617 0.16720708 0.21918441 0.33924475 0.041168097
-0.07257735 0.026375066 0.123959936 -0.03341185 -0.36778316 -0.15635747 0.04877872 -0.103483774
0.24204247 -0.17530051 0.19314007 0.16897216 -0.13698836 0.13288715 -0.0640394 -0.02887891
-0.21436606 0.13306314 0.092865266 0.10842957 -0.00845404 -0.061732966 -0.17689659 0.17195848
-0.23031023 0.22432296 -0.08030225 -0.1315711 0.5528451 0.10729193 0.20300494 0.060483575
0.083324246 0.32375646 -0.1542273 0.20548008 0.631823 0.06036514 0.1936447 0.38098443
0.72377354 0.015076129 0.18334064 -0.156996 -0.004933753 0.68936634 -0.09356913 -0.048404038
0.21062514 -0.028929716 0.19816941 0.0858787 0.6390024 0.25304005 -0.13022274 -0.034751426
-0.31680447 -0.006512421 -0.028109046 0.050903063 0.13312958 -0.24633406 -0.14447811 -0.22147451
-0.077003956 -0.042555004 -0.1843776 -0.116973706 -0.2756927 -0.07069617 -0.038764212 -0.07292781
-0.25114068 0.11341367 0.16615187 -0.07393448 -0.07868536 -0.025887797 0.08456443 0.015273088
0.10173947 0.13213754 0.05224693 -0.19121987 -0.09455392 -0.11007551 -0.14262253 0.07885879
0.5354761 0.044415615 0.080921575 0.023910725 0.06882334 0.23473693 -0.04822792 -0.16842891
0.15149319 -0.28636506 -0.028265359 -0.0023770658 -0.15478839 0.41443455 0.3428086 0.27794096
0.41864526 0.12413802 -0.006291217 0.06762324 0.11566153 -0.3215599 0.056108173 -0.1519362
-0.04954298 0.103884414 0.23365888 -0.011142313 -0.064785525 -0.0012226051 -0.10120317 -0.039828323
-0.13847403 -0.06736186 -0.03628942 0.13637072 -0.54687244 -0.05225117 -0.24140267 -0.099549785
0.033519406 0.09077894 -0.22300969 -0.06119244 0.3578459 0.1171041 -0.0151651185 0.014031701
-0.16290566 0.021306982 -0.041297644 -0.36709094 0.12964989 -0.23260105 -0.04075042 -0.08202354
0.06691801 -0.270507 -0.19133326 0.15690254 0.049423665 0.059088014 0.15316749 0.05274184
-0.119272135 0.09114174 0.42673576 -0.11556477 -0.10054539 0.32879278 -0.2497871 -0.15517265
0.12275255 -0.17040944 0.3369811 0.08877069 -0.041908205 -0.20530473 0.14414912 0.1887408
0.24843149 -0.17508505 0.12801088 0.5294641 0.3935555 0.12647389 0.017481325 0.33558115
0.0049289246 -0.38692605 0.19019148 -0.3922945 -0.22734982 -0.15075472 -0.04375674 0.07704566
-0.30195975 0.27042827 -0.13843352 0.010809278 0.09764428 -0.59819853 0.19898583 0.039294533
-0.07851146 0.1684899 -0.11513081 -0.15902416 -0.39328033 0.13694069 -0.0047554644 0.10933108
-0.2617405 -0.06675987 0.06852555 0.13463737 0.13860135 -0.023485586 0.2315234 0.19429037
0.01700908 -0.30652845 -0.23400776 -0.31442142 0.5942226 0.050353322 -0.068538494 -0.40367112
-0.31898454 -0.18086928 0.34942746 -0.08775934 0.036500923 0.45594317 -0.28555444 -0.23785593
0.17033292 0.0030194349 0.21616098 0.45463428 0.22781582 -0.012067907 0.16287328 -0.003451923
0.12261433 0.23430097 0.25024432 -0.19414459 -0.04134883 -0.1050709 -0.09709917 -0.14131238
0.021222966 0.3341427 0.62725055 -0.0018890374 -0.22171661 -0.5202253 0.6120082 0.3027874

layers.1.mlp_edge_conv.gconv.convs.<stroke___connected_to___stroke>.nn.0.bias f4 [64]
00000000: fbac f73c c12d 423c 75a3 28bd ce9c 93be
00000010: f2f7 36bd ce5d 7b3e aed5 a33d 5a08 84be
00000020: 549f 6bbe 417e a7be e8da 97bd 4410 f1bd
00000030: e26f 93bb 6f87 053d da33 20be 1e6e 94be
00000040: da3b 283e 484b 523e 2d33 9fbd a36e b1be
00000050: d469 373e 743a 1a3e 37d1 f5be 0b0b 88be
00000060: 15c5 e7bd 74f9 423e a5bb 28be 6c1f 45bc
00000070: a6b8 aa3e bdeb 48be 4a18 55be 5e06 c5be
00000080: e827 a53c 02ae 403e 4968 993e 1797 26be
00000090: b650 4e3e 8150 bbbd 4a75 8bbe eec1 4c3d
000000a0: e03a 5a3e 3d43 e0be 3d44 303e 847b 983e
000000b0: 8a69 383d f35a 92be 1da4 c4be 5f0d 803d
000000c0: be82 2abe 0ee7 32be 0e4b 5bbd 57ab b03b
000000d0: 0717 27be f0bc b3be 032a 0dbe fa2b 3a3e
000000e0: 468a dd3e 48bb 603e 1b2d cfbd ce64 dc3d
000000f0: 20ac 4b3d c718 73be 747c 053e eddb e63e
0.03023385 0.011851729 -0.04117151 -0.2883057 -0.044670053 0.24547502 0.079997405 -0.25787622
-0.23009998 -0.32713512 -0.074148 -0.117706805 -0.0044994215 0.032599863 -0.1564478 -0.28990263
0.16429082 0.2053653 -0.07773433 -0.34654722 0.17911464 0.1506136 -0.4801118 -0.26570925
-0.11316887 0.19040471 -0.1647783 -0.012031417 0.33344 -0.19621177 -0.20810047 -0.3848142
0.02016063 0.18816379 0.29962376 -0.16268574 0.20147976 -0.09146214 -0.27237922 0.049989633
0.21311522 -0.438013 0.17213531 0.29781735 0.045022525 -0.28585014 -0.38406458 0.0625255
-0.16651437 -0.17470953 -0.053538375 0.005391519 -0.16317378 -0.35105085 -0.13785557 0.18180838
0.43269557 0.21946442 -0.10116025 0.107614145 0.049724698 -0.2373992 0.13035756 0.45089665
