checkpoints/reduce_construction/graph_decoder.pth (torch, 44420 bytes, 5 tensors)

decoder.0.weight f4 [128, 64]
0	0x3e0b39de	0.13596293
1	0xbebdf988	-0.3710444
2	0xbebd938e	-0.37026638
3	0x3ed7de44	0.42161763
4	0x3edbc454	0.42923224
5	0xbeeafa33	-0.45894012
6	0xbcd50a27	-0.026005818
7	0xbf756a39	-0.9586521
8	0x3c03da3b	0.008047636
9	0xbf1a1e40	-0.6020241
10	0xbde38b72	-0.111105815
11	0xbdc473e7	-0.09592419
12	0xbd10f6df	-0.035391685
13	0xbed47f04	-0.41503155
14	0x3f02020c	0.50784373
15	0xbe50a478	-0.2037524
16	0xbf7e115a	-0.99245226
17	0xbea7fc6e	-0.32809776
18	0x3e3ba699	0.1832527
19	0x3e64f589	0.22359289
20	0xbe93bb47	-0.2885382
21	0x3e8bbfe8	0.2729485
22	0xbee0c7a7	-0.43902323
23	0x3e957eb6	0.29198235
24	0x3e06bb7e	0.1315746
25	0xbce46dff	-0.027884481
26	0x3d9f1674	0.077679545
27	0xbeb9a055	-0.36255136
28	0x3d1390a6	0.03602662
29	0xbe8164b4	-0.25272143
30	0xbed5dde4	-0.41770852
31	0xbec133f9	-0.37734964
32	0xbe78d2db	-0.24299185
33	0x3dcef72c	0.10105738
34	0xbf2f70f1	-0.6853171
35	0xbeff76a6	-0.4989521
36	0xbc244e1d	-0.010028389
37	0xbf553b12	-0.8329326
38	0xbd6809d1	-0.056649987
39	0xbe66692d	-0.22501059
40	0xbee7c131	-0.4526458
41	0x3e591048	0.21197617
42	0x3ea7ca3e	0.32771486
43	0x3c6e0f8b	0.014530073
44	0x3db32ff7	0.08749383
45	0xbd03748d	-0.032093573
46	0xbe881a69	-0.2658265
47	0x3e1ac13d	0.15112777
48	0xbec56729	-0.38555267
49	0xbe1827df	-0.1485896
50	0x3da5cd5e	0.08095811
51	0x3ddab47e	0.106789574
52	0xbe2cb0e9	-0.16864361
53	0xbe10f444	-0.1415568
54	0xbda83b2a	-0.0821441
55	0xbe5a4a14	-0.21317321
56	0xbf3a8927	-0.7286553
57	0xbdca8058	-0.09887761
58	0xbdf8d5c5	-0.12150148
59	0xbbfcc68c	-0.0077140983
60	0xbd9888b6	-0.074479505
61	0x3e5e5df4	0.21715528
62	0xbeee896e	-0.46589226
63	0x3ea87417	0.3290107
64	0x3d685980	0.05672598
65	0xbd848a66	-0.0647171
66	0xbc751ad2	-0.014960008
67	0x3ceadece	0.028670695
68	0x3d4ad151	0.049516026
69	0x3d5d7205	0.054063816
70	0xbdd75561	-0.105143316
71	0xbe2d39e6	-0.16916618
72	0xbdc6c54d	-0.09705601
73	0xbe003109	-0.12518705
74	0xbe121eee	-0.14269611
75	0xbd624e82	-0.055250652
76	0xbd5f556b	-0.05452482
77	0xbdf23f8b	-0.11828526
78	0xbd38f800	-0.045158386
79	0xbe20dbad	-0.157088
80	0xbdf89ccf	-0.12139284
81	0xbd868967	-0.06569176
82	0xbd79a8e3	-0.06095208
83	0xbd92b534	-0.07163468
84	0xbdf46729	-0.11933739
85	0xbe0d239d	-0.13783117
86	0x3d314b5d	0.043284763
87	0xbe1872c5	-0.14887531
88	0x3dc129a3	0.0943177
89	0xbdeb266d	-0.114819385
90	0xbb9fed4c	-0.004880583
91	0xbd61a590	-0.055089533
92	0xbda79287	-0.08182245
93	0x3c664aa9	0.014055886
94	0xbe1ea816	-0.15493807
95	0xbd532eb0	-0.051558197
96	0xbddea1de	-0.108707175
97	0x3d0dec47	0.03464916
98	0x3d4d6d26	0.05015292
99	0xbe40025e	-0.18750903
100	0xbe0ffa34	-0.14060289
101	0xbe115f66	-0.14196548
102	0xbc00d409	-0.007863053
103	0xbcfce093	-0.030868804
104	0xbe1de27b	-0.15418427
105	0xbdca9207	-0.09891134
106	0x3d674d27	0.056470063
107	0xbe302ba7	-0.17204152
108	0xbd8024a4	-0.06256989
109	0x3d0ee920	0.034890294
110	0xbdb24f06	-0.08706479
111	0xbe4491be	-0.19196221
112	0x3bdccd03	0.0067383065
113	0x3dd3554c	0.103190035
114	0xbe06ef17	-0.13177143
115	0xbd59e71a	-0.05319891
116	0x3daa08f1	0.08302487
117	0x3c922343	0.01783908
118	0xbdefa346	-0.11701064
119	0xbdb33803	-0.08750918
120	0x3d998197	0.074954204
121	0xbda13b2c	-0.07872614
122	0x3d582453	0.052769016
123	0xbc516aea	-0.012781838
124	0xbc2b75f4	-0.010465134
125	0xbbf53e99	-0.007484269
126	0xbcfb9df3	-0.030714964
127	0xbd9b7957	-0.07591503
128	0x3d50b060	0.050949454
129	0xbd63fe18	-0.055662245
130	0xbdcb4b19	-0.09926433
131	0xbdca77b1	-0.098861106
132	0xbde7aae1	-0.113118894
133	0x3d48e2fa	0.049044587
134	0xbba497ec	-0.0050229933
135	0xbe0dce76	-0.1384829
136	0xbd18704b	-0.037216466
137	0xbcee8e99	-0.02912073
138	0xbd2ec699	-0.042669866
139	0xbe0d1bd2	-0.13780144
140	0xbdb1f806	-0.08689885
141	0xbe1c8c4e	-0.15287897
142	0x3d6d2d88	0.05790475
143	0xbe53b958	-0.20676172
144	0xbe6387e3	-0.22219805
145	0xbd02e368	-0.031955153
146	0x3b959ec8	0.0045660473
147	0xbe45d3c5	-0.19319065
148	0xbdae23b6	-0.08502905
149	0xbd137c39	-0.03600714
150	0xbd7256b1	-0.059164707
151	0x3b1687b6	0.0022969074
152	0x3d95df8d	0.073180296
153	0xbe2d7aec	-0.16941422
154	0x3d9bad6d	0.07601438
155	0xbcf0900a	-0.029365558
156	0xbdbc37ac	-0.09190306
157	0x3bb4f4f0	0.005522363
158	0xbe0d101e	-0.1377568
159	0xbd80b058	-0.06283635
160	0x3d3af158	0.04564032
161	0xbd4ad139	-0.049515937
162	0xbdb70880	-0.08937168
163	0xbe542e53	-0.20720796
164	0x3d841455	0.064491905
165	0x3d671975	0.056420762
166	0x3d0954a8	0.033528
167	0xbd312058	-0.043243736
168	0xbddd346e	-0.10801016
169	0x3d18be90	0.03729111
170	0xbd6c3878	-0.05767104
171	0x3c902be9	0.017599063
172	0xba9044fc	-0.0011006887
173	0xbdeaf0ef	-0.11471736
174	0xbdf8265c	-0.121166915
175	0xbe3cd434	-0.18440324
176	0xbe0501d4	-0.12988979
177	0xbd9bf7a1	-0.07615591
178	0xbd03fbe1	-0.032222632
179	0xbdcce879	-0.10005278
180	0xbde5dbed	-0.11223588
181	0xbdd5e0d0	-0.1044327
182	0x3d1247cb	0.035713
183	0xbd9747f0	-0.07386768
184	0xbd4ebbc1	-0.050472025
185	0x3d5f9260	0.054582953
186	0xbda051eb	-0.078281246
187	0x3d49b1c1	0.049241785
188	0x3d8cf3e1	0.06882454
189	0xbe477095	-0.1947654
190	0x3cfc1ae1	0.030774536
191	0x3bf57954	0.00749127
192	0xbe0c9dfd	-0.13732143
193	0xbd14e955	-0.036355335
194	0xbe5d336e	-0.2160165
195	0x3eb5ce84	0.3550912
196	0xbe947e49	-0.29002598
197	0xbe296df7	-0.16545855
198	0xbf0571e7	-0.52126926
199	0x3ea29b66	0.31759185
200	0xbf1dc70e	-0.6163186
201	0x3a24c474	0.00062853773
202	0xbe418381	-0.18897821
203	0xbc467037	-0.012111715
204	0x3d9d1ec5	0.076718844
205	0x3e9af6da	0.30266458
206	0x3e41a375	0.1891001
207	0xbeca3266	-0.39491576
208	0xbef0e617	-0.47050545
209	0x3df7651c	0.12079832
210	0x3e63f185	0.22260101
211	0x3e73d828	0.23812926
212	0x3df701ae	0.12060867
213	0x3e1c1d7c	0.15245622
214	0xbe1e7d9c	-0.15477604
215	0x3dc83f4d	0.09777699
216	0x3f058773	0.52159804
217	0xbec95221	-0.39320472
218	0xbe923d62	-0.28562456
219	0x3d4ab875	0.04949232
220	0x3db1f956	0.08690135
221	0xbf37714f	-0.7165727
222	0x3e9caba4	0.305997
223	0x3e617e17	0.22020756
224	0xbec09dab	-0.3762029
225	0xbee03b9b	-0.43795475
226	0xbf155ba4	-0.5834296
227	0x3de84040	0.1134038
228	0x3b75348b	0.0037415351
229	0xbe859e35	-0.26097265
230	0x3d455e25	0.048185486
231	0xbd3b6d3e	-0.04575848
232	0x3e6d2aed	0.23160906
233	0x3c236bc4	0.009974424
234	0x3efb44c6	0.49075907
235	0xbe25b9b4	-0.16184121
236	0x3d86514a	0.065584734
237	0xbd0da575	-0.03458162
238	0x3e407da5	0.1879793
239	0xbef0e993	-0.47053203
240	0xbd99a119	-0.0750143
241	0xbf1ca2d3	-0.6118595
242	0x3e562074	0.20910817
243	0xbeabcf7c	-0.33556736
244	0x3d62804c	0.055298135
245	0x3e44c061	0.19214012
246	0xbcf6a61b	-0.030108502
247	0xbe21804a	-0.15771595
248	0x3c95bcb6	0.018278461
249	0xbf06662f	-0.5249967
250	0x3e07d005	0.13262947
251	0xbc8fba82	-0.017544989
252	0xbf4c4863	-0.79797953
253	0x3e7dfeaa	0.24804178
254	0x3e826fc9	0.2547591
255	0xbe5fcc45	-0.21855266

decoder.0.bias f4 [128]
0	0xbea0221a	-0.31276017
1	0xbce663d1	-0.028123768
2	0xbd8ebc89	-0.06969554
3	0xbd443c3e	-0.047909014
4	0x3dee73f8	0.11643213
5	0xbd8a1b99	-0.06743545
6	0xbeeccc98	-0.46249843
7	0xbdb889ea	-0.0901068
8	0x3dd2636f	0.10272872
9	0x3eaac960	0.33356762
10	0xbe449996	-0.19199213
11	0x3e2e6aa4	0.17032868
12	0x3d0e1c38	0.03469488
13	0x3d449f77	0.04800364
14	0x3da00429	0.078132935
15	0xbeb56b28	-0.35433316
16	0x3e7bf9c1	0.24606992
17	0x3e7c77d7	0.2465509
18	0x3e6bbd32	0.23021391
19	0xbe52bf75	-0.20580848
20	0xbe05f6bb	-0.13082401
21	0xbdd3490c	-0.10316667
22	0xbc4ec5cf	-0.012620403
23	0xbec6cdee	-0.38828987
24	0x3e510aea	0.2041432
25	0x3e033f07	0.12817012
26	0x3e93edbf	0.28892323
27	0xbe82296b	-0.25422224
28	0xbd12ff9d	-0.035888303
29	0xbf08c493	-0.5342495
30	0x3de62415	0.11237351
31	0xbf0f33e5	-0.5593856
32	0x3d3263c0	0.04355216
33	0xbf015078	-0.5051341
34	0xbc7b7a15	-0.015348931
35	0x3de90e45	0.11379675
36	0x3df8c0c0	0.12146139
37	0x3ea9839f	0.3310823
38	0x3e49c089	0.19702353
39	0x3dfa1b8a	0.12212284
40	0x3e5ac611	0.21364619
41	0x3e40e89b	0.18838732
42	0x3e8a4adb	0.27010235
43	0xbdc465b7	-0.09589713
44	0x3ea2283a	0.31671315
45	0x3e57a23b	0.2105798
46	0xbedea5fb	-0.43486008
47	0xbe0f529e	-0.1399636
48	0x3e13bcbd	0.14427467
49	0xbefb7d78	-0.49119163
50	0xbe076923	-0.132237
51	0xbf2f40bc	-0.6845815
52	0xbf186069	-0.5952211
53	0x3e243cdf	0.16038845
54	0x3c517bd2	0.012785869
55	0x3e22be2b	0.15892856
56	0x3dba2025	0.09088162
57	0x3ca6bf87	0.020355
58	0xbeb6b769	-0.35686806
59	0xbe5bafb4	-0.21453744
60	0x3e18c9e4	0.14920765
61	0x3e57b0c7	0.21063529
62	0x3e0752a2	0.13215116
63	0x3dcacb54	0.09902063
64	0x3ea96202	0.33082587
65	0xbe29e132	-0.16589811
66	0xbeb04796	-0.34429616
67	0xbee1654d	-0.440226
68	0xbd06fb01	-0.03295422
69	0xbedf41f1	-0.43604997
70	0xbd3e7bf0	-0.046504915
71	0xbeecf525	-0.4628078
72	0xbc0e32b8	-0.0086790845
73	0xbed615d3	-0.41813526
74	0xbe03dedc	-0.12877983
75	0x3ebe4615	0.37162843
76	0xbd950c59	-0.07277746
77	0x3ec00e33	0.37510833
78	0xbedc98a5	-0.4308521
79	0x3ddd8af9	0.108175226
80	0xbe2d23a5	-0.16908129
81	0xbe05afb0	-0.130553
82	0xbe0c196d	-0.13681574
83	0xbe8c813b	-0.27442345
84	0xbe89b469	-0.26895455
85	0xbecf9fd3	-0.40551624
86	0x3e7f9811	0.24960352
87	0xbe025f10	-0.12731576
88	0xbe15df4e	-0.14635965
89	0xbe35f40a	-0.17768875
90	0x3e7cadfc	0.24675745
91	0xbf084337	-0.5322756
92	0x3e4afe18	0.19823492
93	0x3e6c6b2b	0.23087756
94	0x3ddf2874	0.10896388
95	0x3e3e21d1	0.18567587
96	0x3e24077e	0.16018483
97	0xbddd5186	-0.10806565
98	0xbece240e	-0.40261883
99	0xbee6acac	-0.45053613
100	0xbdfab957	-0.12242382
101	0xbd0a9f22	-0.033843167
102	0xbe2652f8	-0.16242588
103	0xbba91f08	-0.00516117
104	0x3d45ed60	0.04832208
105	0xbe4d4f57	-0.20049797
106	0xbdb4928f	-0.08817016
107	0xbe9fcf2e	-0.31212753
108	0xbc8d1687	-0.017222656
109	0xbdaaf0b9	-0.083466955
110	0x3dd9638f	0.106146924
111	0xbdf7c507	-0.12098127
112	0x3e2957b3	0.16537361
113	0xbc349979	-0.011022919
114	0x3e3f82bd	0.18702216
115	0x3da6a516	0.081369564
116	0xbd676667	-0.056494143
117	0x3c92f9ff	0.017941473
118	0xbe8eaf02	-0.27867895
119	0x3e4dbd6c	0.2009179
120	0xbe6f88ed	-0.23392077
121	0xbf194801	-0.59875494
122	0xbecce1a7	-0.4001591
123	0x3df1a348	0.117987216
124	0x3d232886	0.039833568
125	0x3e3325d8	0.17494905
126	0x3e8087f1	0.25103715
127	0xbe241846	-0.16024885

decoder.3.weight f4 [16, 128]
0	0xbe0970dc	-0.13421959
1	0xbcb84a30	-0.022496313
2	0x3c7f4501	0.015580417
3	0xbe94d8fb	-0.29071793
4	0x3f21c302	0.63188183
5	0x3e5c235c	0.21497864
6	0xbe857fe4	-0.26074135
7	0x3e259960	0.16171789
8	0x3e188c55	0.14897282
9	0xbeb01c65	-0.34396663
10	0xbe0220dc	-0.12707847
11	0xbea0339f	-0.31289384
12	0xbebcd9e9	-0.36885002
13	0x3e5b3627	0.21407376
14	0xbeb3a093	-0.35083446
15	0xbe4844e7	-0.19557534
16	0xbcc500c6	-0.02404822
17	0x3d8a164b	0.06742533
18	0x3dd507b8	0.10401863
19	0xbe130793	-0.14358358
20	0xbd387391	-0.045032088
21	0x3e037c98	0.12840497
22	0xbed5773c	-0.4169253
23	0xbdcea4ec	-0.1009005
24	0xbe3e2f01	-0.18572618
25	0x3e91ee94	0.28502333
26	0x3d57344a	0.0525401
27	0xbeb52194	-0.3537718
28	0xbe2c353a	-0.1681718
29	0xbdc59abe	-0.09648655
30	0xbd6342cb	-0.05548362
31	0x3dd41f39	0.10357518
32	0xbf1eb81a	-0.61999667
33	0xbe1a6ded	-0.15080996
34	0x3cb13bb2	0.02163491
35	0xbe31fff7	-0.17382799
36	0xbe745f0c	-0.23864383
37	0x3e98f178	0.29871726
38	0xbe3b3706	-0.18282709
39	0xbe8f3384	-0.2796899
40	0xbe332799	-0.17495574
41	0x3e6960a7	0.22790776
42	0x3ddbf9ea	0.10741027
43	0xbd39b0ba	-0.045334555
44	0xbca7e224	-0.020493574
45	0xbeefa9f3	-0.46809348
46	0xbdafc164	-0.08581808
47	0x3d0a95d5	0.033834297
48	0xbe01acdd	-0.12663598
49	0xbd947887	-0.07249551
50	0xbe51a1a7	-0.20471822
51	0xbe6a01cd	-0.2285225
52	0x3d057189	0.03257898
53	0x3e05b4bc	0.13057226
54	0x3cfbd7c9	0.030742543
55	0x3dd8c3a5	0.10584191
56	0xbd7cb40f	-0.061695155
57	0x3d3b062d	0.045660187
58	0xbda2266d	-0.079174854
59	0x3dc1f4ca	0.09470518
60	0xbf5c6aca	-0.8610045
61	0x3da95265	0.08267669
62	0xbf0c65a3	-0.54842585
63	0xbda20bdd	-0.07912419
64	0xbef753fc	-0.48306262
65	0x3e230cf2	0.15922907
66	0xbee94944	-0.4556371
67	0xbd558693	-0.052130293
68	0x3d81d416	0.0633928
69	0xbe0f61ad	-0.14002104
70	0xbde50deb	-0.11184295
71	0xbe51e566	-0.20497665
72	0xbf04a78e	-0.5181817
73	0xbec2cc61	-0.38046554
74	0xbefa2165	-0.48853603
75	0xbd228db3	-0.039685916
76	0x3d55bf29	0.052184258
77	0xbe52bf98	-0.205809
78	0xbdde8ffe	-0.10867308
79	0x3f0205da	0.5079018
80	0x3b5ee63e	0.0034011747
81	0x3d8aae7d	0.06771562
82	0x3e42d9f8	0.19028461
83	0xbc80e639	-0.015734779
84	0xbeb48084	-0.352543
85	0xbe31758c	-0.17329997
86	0xbc7c25b3	-0.015389848
87	0x3d49356c	0.049123213
88	0x3e2958bf	0.1653776
89	0x3d05568f	0.03255325
90	0xbba4cf44	-0.005029591
91	0xbda95694	-0.082684666
92	0xbed91a12	-0.42402703
93	0x3e9a57ca	0.30145103
94	0xbf11370b	-0.56724614
95	0xbc98a5f6	-0.018633824
96	0x3ec76e4d	0.3895134
97	0x3d08449c	0.033268556
98	0xbedff1e5	-0.43739238
99	0xbe6435c2	-0.22286132
100	0x3da74972	0.081683055
101	0x3dddad6d	0.10824094
102	0xbd4cd5bf	-0.05000853
103	0x3da2fdf1	0.07958592
104	0xbba8498c	-0.0051357206
105	0xbd961e25	-0.07329968
106	0x3d7c22d2	0.061556645
107	0xbe74a63c	-0.23891538
108	0xbd47f201	-0.048814777
109	0xbeecfb33	-0.462854
110	0xbd803844	-0.06260732
111	0xbd013712	-0.03154666
112	0xbe4284e3	-0.18996005
113	0xbec6bf68	-0.38817906
114	0xbee9bcbb	-0.45651802
115	0xbf210b92	-0.6290828
116	0x3dcbd725	0.09953145
117	0xbdede5c9	-0.11616094
118	0x3d66dded	0.05636399
119	0xbf3a9101	-0.7287751
120	0xbf19e6de	-0.601179
121	0xbdb3cd95	-0.08779446
122	0xbe142f21	-0.14471103
123	0x3df50d00	0.1196537
124	0xbca58a6d	-0.020207608
125	0xbf22939b	-0.6350648
126	0x3dd6807f	0.104737274
127	0xbd58ba71	-0.05291218
128	0xbe24bd64	-0.16087872
129	0xb6cb79a4	-6.0640323e-06
130	0x3da3679a	0.07978745
131	0x3ebb9df8	0.36643958
132	0xbeef7b73	-0.46773872
133	0xbf02d07c	-0.5109937
134	0xbc3901e7	-0.011291957
135	0x3dcde04d	0.100525476
136	0x3d8d2894	0.06892505
137	0x3e7d143e	0.24714753
138	0xbe550474	-0.2080248
139	0xbdfd8455	-0.12378756
140	0x3ed3b79f	0.4135103
141	0x3ebfae18	0.3743751
142	0x3eb3e155	0.35132852
143	0x3e872734	0.26397097
144	0x3e221e71	0.15831925
145	0xbde18fd6	-0.11013763
146	0x3e118e58	0.14214456
147	0x3dae1bee	0.08501421
148	0xbd5d7046	-0.05406215
149	0xbf50d577	-0.8157572
150	0xbdb93132	-0.090425864
151	0xbcb135cc	-0.021632098
152	0x3df70236	0.120609686
153	0x3db6990d	0.08915911
154	0xbef8724b	-0.485247
155	0xbd1e5b9c	-0.038661584
156	0xbdcef257	-0.101048164
157	0xbd00cd78	-0.03144595
158	0x3eab438b	0.3344997
159	0xbe333f97	-0.17504726
160	0xbcbe4928	-0.023228243
161	0xbe754b00	-0.23954391
162	0x3d3cdaa8	0.046106964
163	0x3d89212a	0.06695779
164	0xbe5d45bd	-0.21608634
165	0x3e694fdf	0.22784375
166	0xbd5eb88c	-0.054375216
167	0xbf1b30ae	-0.60621154
168	0xbdacbc63	-0.084343694
169	0x3edc96fb	0.4308394
170	0x3d9b854e	0.07593785
171	0xbd478494	-0.04871042
172	0xbd9bad3b	-0.076014005
173	0xbe4ac1ea	-0.19800535
174	0x3e079fcd	0.13244553
175	0x3d658483	0.056034576
176	0x3e50b709	0.20382322
177	0xbde5b9fe	-0.11217116
178	0x3ecba18e	0.39771694
179	0xbd5b5682	-0.053549297
180	0x3d539b72	0.051661916
181	0xbe0e7add	-0.13914056
182	0x3e8cc123	0.27491102
183	0xbd05c6a7	-0.032660153
184	0xbdfde6f8	-0.123975694
185	0x3d836349	0.064154215
186	0xbe793254	-0.24335605
187	0xbe8b1a68	-0.27168584
188	0x3db8e9b4	0.0902895
189	0x3e4390d6	0.1909822
190	0x3e53634e	0.2064335
191	0x3e494834	0.1965645
192	0x3ddfcfe6	0.10928325
193	0x3d2628b5	0.040566165
194	0xbd07b209	-0.033128772
195	0x3e545c80	0.20738411
196	0x3d98e3ac	0.074653
197	0xbd1558a3	-0.036461484
198	0x3e0b2b99	0.1359085
199	0x3e93b4c1	0.28848842
200	0x3e992efd	0.29918662
201	0x3dd4228b	0.10358151
202	0x3e82cc79	0.25546625
203	0x3db9ffd0	0.090819955
204	0x3e07b7a2	0.13253644
205	0xbe3e9b45	-0.18613918
206	0x3e82b628	0.255296
207	0xbecd17fc	-0.4005736
208	0xbc23943c	-0.009984072
209	0x3ded6013	0.1159059
210	0x3e04d173	0.12970524
211	0xbc96f957	-0.018429441
212	0xbeb51f51	-0.35375455
213	0xbe9f0901	-0.31061557
214	0xbdeb2b78	-0.114829004
215	0x3d69b17f	0.05705404
216	0x3d8db7da	0.069198325
217	0x3d94befd	0.072629906
218	0xbe043bc4	-0.12913424
219	0xbd1f37a8	-0.038871437
220	0x3e080213	0.13282041
221	0x3d35c769	0.044379625
222	0x3de0b433	0.1097187
223	0x3c9d4494	0.01919774
224	0x3e16d0d1	0.14728095
225	0xbce83ef4	-0.02835033
226	0xbda56011	-0.08074964
227	0xbdaa0b86	-0.08302979
228	0xbe664642	-0.22487739
229	0xbf4965ab	-0.7867076
230	0xbdab3ada	-0.083608344
231	0xbd1ac75b	-0.037787776
232	0xbece3d8c	-0.40281332
233	0x3d917ee0	0.071042776
234	0xbdab28a1	-0.08357359
235	0x3d05eda4	0.032697335
236	0x3dd5f3ce	0.10446893
237	0x3d3cc6f3	0.04608817
238	0x3db3238e	0.08747016
239	0xbc2db65d	-0.010602561
240	0x3e855205	0.26039138
241	0xbda04eca	-0.07827528
242	0x3ef36732	0.4753967
243	0x3df5967b	0.119915925
244	0xbeca7d02	-0.39548498
245	0xbebe5a19	-0.37178114
246	0xbc20694a	-0.009790728
247	0x3ec34a1a	0.38142473
248	0x3c991ec2	0.018691424
249	0x3e76dc2b	0.24107425
250	0x3defc30f	0.11707126
251	0xbdc34895	-0.09535328
252	0x3e0a6503	0.13515095
253	0x3ddedb2c	0.108816475
254	0x3e6c4e36	0.2307671
255	0x3d8dc4d0	0.06922305

decoder.3.bias f4 [16]
0	0x3f0089fb	0.5021054
1	0x3cd0aad2	0.025472078
2	0x3f01b5a4	0.50667787
3	0xbe53bdc0	-0.20677853
4	0x3dc2354f	0.09482824
5	0xbefe1ccf	-0.49631354
6	0xbec89a2e	-0.3918013
7	0xbf404617	-0.7510695
8	0x3effa7af	0.4993262
9	0x3e899dc2	0.26878172
10	0x3e90b0c5	0.28259864
11	0x3f307868	0.68933725
12	0x3f0e32f9	0.5554653
13	0x3ec39163	0.3819686
14	0x3efab2a6	0.48964423
15	0x3e915d97	0.28391716

decoder.5.weight f4 [1, 16]
0	0xbe70b496	-0.23506388
1	0x3da7ec9e	0.08199428
2	0xbe68548a	-0.22688499
3	0xbe1c36e4	-0.15255314
4	0x3e53333e	0.20625016
5	0x3e33d86c	0.17563027
6	0xbca6104f	-0.020271448
7	0x3d8a1b50	0.06743491
8	0xbe139fee	-0.14416477
9	0x3e65f694	0.22457343
10	0x3eef592f	0.4674773
11	0xbe9b97f0	-0.30389357
12	0x3e6cb13a	0.23114482
13	0x3e97f7a5	0.29681125
14	0xbe6bb1d7	-0.2301706
15	0xbf0d57e7	-0.55212253
