checkpoints/reduce_construction/graph_encoder.pth (torch, 63070 bytes, 16 tensors)

local_head.gconv.convs.<stroke___ordered_next___stroke>.nn.0.weight f4 [16, 12]
00000000: ba0c 7ebe 5bc2 193e 8782 a2be 1753 273d
00000010: c770 a1bc 4fe9 8fbe f54d 5bbe 5b33 c43d
00000020: 703f a03d 6dfb 093d 8961 d23d a51e 85be
00000030: 183d 9abc 2e5c 053e 82af 1e3d 7e2b 903e
00000040: 8006 1d3e 0a4c ac3d ef5d dc3d a0c1 0fbd
00000050: 180f 4cbd 03e6 e93d f947 c5bd 2ce2 ed3d
00000060: 8630 8ebe 82ab 8c3e 1ccf 873e c0a2 db3c
00000070: d1f8 60be f4ce f1bd 8001 7c3b 8c48 57be
00000080: ae54 863e 5fa8 65be 70f2 613e 9c4f 343e
00000090: a7e0 50c0 c14c 0c40 8ac2 1fc0 5a51 0bc0
000000a0: 0678 32c0 45ba 4bc0 a70d 3e40 96c9 993e
000000b0: 8ce4 1c40 6a61 fe3f 97e2 d63f b4f6 1340
000000c0: a275 503e 2612 87be a0e7 a93d a875 213d
000000d0: 742c 993d d8bc 773d 0822 8b3e cc42 ff3d
000000e0: 3021 c5bc d3f3 34be 8011 533c de16 14be
000000f0: 38e0 7c3e f834 aabd 30c6 6c3e 8a40 01be
00000100: 2660 ccbd f89a a03d c87b dcbd 1a3a 4f3e
00000110: c946 80be 90c0 3e3e e47d c63d b62e 2ebe
00000120: bcfa d5be 7d9b cf3e c7fb 4d3e 6c40 d3be
00000130: 2604 723d 36ce 8dbd 4186 973e f67f b1be
00000140: bc89 e03e e8d8 eb3b 6e04 3e3e 0691 c13d
00000150: 7406 57bd c0cd b03c 142f 3e3e 005b 173d
00000160: 2e03 5bbe 2098 b23c 5eb6 88be 5043 593e
00000170: 57a3 37be c0cc f63c 26d4 a6bd f0bc 923d
00000180: 570b e5bf 15c8 1f3f 9883 4f3f 7895 07c0
00000190: 3c19 a0bf 49f0 d33f 6b3c 5f40 af77 d63f
000001a0: afe3 5e3e 16d8 1740 4276 31be b0a3 6ec0
000001b0: 6a4a 3fbe 70ef 323e 3e26 273f 1f27 183e
000001c0: 0ca5 ef3e 0782 6e3e 43d1 16bf 04d1 6dbe
000001d0: 73c4 4abf ae48 44be 1560 3bbf 7c70 b3be
000001e0: 37be 9a3f 05aa b63d c354 423f ba2b 213d
000001f0: 3237 033f 81ff 37be 6f4a 463e 0082 bbbc
00000200: 1089 d8be c00c 23bf 7f80 fdbe 6caa 833d
00000210: d03e f93d 00a2 ff3d 86bb c0bd b901 90be
00000220: 16ac 84be a99f 1cbe 1462 e53d 1e45 433e
00000230: 0095 133d eac4 c9bd 4caa 343e f84e 753e
00000240: f9d9 8abe 285a 683d 0008 26ba dd77 01be
00000250: 5693 53be c43c 2dbd 708c 4e3e 7a28 833e
00000260: ab51 22be a4d1 49be ea3c 8e3e 44ba 35bd
00000270: e784 75be 73da 503e 8431 1d3d 1101 203e
00000280: f9d6 83bd 38e1 a2be fe0b 56be 0a20 733e
00000290: 65d9 c1bc fd1b 04bc 8106 ad3e 7944 5d3d
000002a0: a6f7 a3bf 0845 3abf a6d6 9f3f d10e e6be
000002b0: 2892 cdbf 1dc6 27bf 5c3e 5b40 90ef 1740
000002c0: f2d1 c6be 8489 b83f cf8c 0b40 a144 38c0
000002d0: 7b03 40be 1837 e5bd 40bc 1f3e d894 413d
000002e0: bb6b f73d b9f3 febc 048e d53d 7e0d 133e
000002f0: 65bc 653d 5595 acbd cb46 9bbe 4c74 973e
-0.24809542 0.15015547 -0.3174021 0.040850725 -0.019707097 -0.28107688 -0.21416457 0.09580108
0.078246 0.033687044 0.102725096 -0.25999942 -0.01882796 0.13023445 0.038741596 0.28158182
0.15334511 0.08412941 0.10760104 -0.035096765 -0.049819082 0.114208244 -0.09632868 0.116154045
-0.27771395 0.274746 0.265252 0.026811004 -0.21969916 -0.11807051 0.0038453043 -0.21023768
0.2623648 -0.2242751 0.22065139 0.17608494 -3.2637117 2.1921847 -2.4962487 -2.1768403
-2.7885756 -3.183244 2.9695833 0.3003661 2.4514494 1.9873478 1.67879 2.3119326
0.20357373 -0.26381034 0.08296132 0.039418846 0.07479182 0.06048283 0.271744 0.12463912
-0.024063677 -0.17671137 0.01288259 -0.14461848 0.24694908 -0.08310884 0.23122478 -0.12622276
-0.09979276 0.07842058 -0.10765797 0.20237008 -0.25054005 0.18628144 0.096919805 -0.17010006
-0.41792858 0.40548316 0.20115577 -0.41260087 0.059085988 -0.06924097 0.29594615 -0.3466794
0.43855083 0.007197488 0.18556377 0.09451489 -0.05249639 0.021582484 0.18572646 0.03695202
-0.21387932 0.021801054 -0.26701635 0.21217084 -0.17933403 0.03012693 -0.08145933 0.07164943
-1.7894086 0.62414676 0.8106017 -2.1184978 -1.2507701 1.6557704 3.4880626 1.6755275
0.21766542 2.3725638 -0.17330268 -3.7287407 -0.1868073 0.1747415 0.6529273 0.14858674
0.46805608 0.23291789 -0.5891306 -0.23224264 -0.7920601 -0.1916835 -0.73193485 -0.35046756
1.2089299 0.089191474 0.75910586 0.03934834 0.51256096 -0.17968561 0.19364332 -0.022889137
-0.4229207 -0.6369133 -0.49512097 0.0642899 0.12170184 0.12482071 -0.09410767 -0.28126314
-0.2591254 -0.1529528 0.112003475 0.19069335 0.03603077 -0.098520115 0.17643088 0.23955905
-0.27119425 0.056726605 -0.00063335896 -0.1264338 -0.20661673 -0.04229428 0.2017076 0.2561682
-0.15851466 -0.19708878 0.2778085 -0.04436709 -0.2397648 0.20395832 0.0383773 0.15625407
-0.06437487 -0.31812453 -0.20903012 0.2374269 -0.023663232 -0.008063314 0.33794025 0.05402038
-1.2809951 -0.72761583 1.248738 -0.4493318 -1.6060228 -0.6553667 3.425681 2.3739967
-0.3883205 1.4416966 2.1804693 -2.8791888 -0.18751328 -0.11192149 0.15599155 0.04726109
0.12081095 -0.031122075 0.10427478 0.14360616 0.05608787 -0.0842692 -0.30327448 0.29580915

local_head.gconv.convs.<stroke___ordered_next___stroke>.nn.0.bias f4 [16]
00000000: 3bdd 18bc f9bb 25bc c222 bdbd bdde 2b3e
00000010: 9de2 01be acfa 4cbd 601d 0cbd 223b 8ebe
00000020: 7dbf 0e3e 1a39 80bd 432a 84bd ab51 09be
00000030: 130f 26be aafd 4abc 03a0 023e 0f54 91bc
-0.009330089 -0.010115617 -0.09235145 0.16784187 -0.12684102 -0.050043747 -0.0342077 -0.2777949
0.13940234 -0.06260891 -0.06453373 -0.1341006 -0.16216688 -0.01238958 0.12756352 -0.017740278

local_head.gconv.convs.<stroke___connected_to___stroke>.nn.0.weight f4 [16, 12]
00000000: cd23 af3e de77 c8bf a662 56be 4563 413f
00000010: 3103 de3e 431d e83e 42de e7bf 7866 383f
00000020: 4246 0940 dbf5 a1be 8b01 3cbf 5a26 debf
00000030: 8824 c33d e8a5 6abd 6e3d 8a3e cebd 013e
00000040: d6b5 87be d696 e6bd deb6 933e 8056 953d
00000050: 10f2 583e d847 293e 9804 693e 8008 dbbc
00000060: dd7e bdbd d2e7 04be c68c 1b3e dbca ae3e
00000070: 3a3c 013f 933a 6d3c f765 39bc 5013 29bf
00000080: dcc9 d73e 0679 bdbe be02 c6be 1f99 c03e
00000090: 9038 383d 000b 723e 635d 16be 7419 68be
000000a0: 70e6 4fbe 73dd 90be a8da 0fbd a0f4 643d
000000b0: 72bc 913e 0172 38be aef7 8d3e 889e 2f3d
000000c0: f425 9e3d ac70 673e 78c0 0cbd b4a2 183e
000000d0: 3c93 52bd 404c 8bbb 0050 a23d 0c09 683e
000000e0: 3cee 3c3e e111 30be 0a27 103e f086 0fbd
000000f0: bc50 2bc0 b585 72bf 459e 023d 4f66 4a40
00000100: 0edc a53f 0185 b93f 8eeb 8240 2c29 e23f
00000110: b005 373e 3a4d 16c0 01b3 e3bf 19ba 0ebf
00000120: c211 80bf e2a7 0540 2272 813f 0a11 41c0
00000130: 8bcd 72bf 7cfe b5be 769d 773f 88b0 1fc0
00000140: 43ef dbbe c6ca 1740 0f41 1d40 97c0 993f
00000150: b091 d2bc b09c 4b3e abb1 08be b3f5 7fbe
00000160: 1531 16be 2181 65be aeb0 8f3e c8da 593d
00000170: ee79 ffbd 0050 f539 ecab 7f3e 0485 c13d
00000180: b8ec 83bd 1c2c 96bd 0093 e6bc 0c44 25bd
00000190: 3006 463e c246 4fbe ef90 27be dda1 8dbe
000001a0: 5447 8bbe fab4 f4bd 3cdd 81be e05a 2e3e
000001b0: d27e 53be c492 2bbf 3ee7 2140 b0d3 813f
000001c0: 7b4e 44be 02b3 8c3f 2a01 b4bc b5e8 823e
000001d0: 3090 cdbf 7647 143e b096 113f 99ed c23d
000001e0: 5588 8a40 efe7 7ebd 2025 de3f 6f65 cdbf
000001f0: 1b93 aabf 817c 17bf f0df 69c0 f83b 9ebf
00000200: d1df d8be bab4 0340 2018 af3f f1c6 093f
00000210: 7aca 81be 216e 25be de3b bbbd 18f3 7b3e
00000220: 0c01 923e f0c8 963d 4d58 92be 9a42 263e
00000230: 1ccb 423e 49df 37be 005c f53c aec4 82bd
00000240: 5f56 eebf 3166 97bf 6d7b 6abf 8866 8840
00000250: be4e b9bf 8071 d13e 3466 a740 c631 8b3e
00000260: d4eb e1be 2d4b 38c0 e772 493f 1f20 3cbd
00000270: f262 2840 a800 62bd 1c64 2ebf b7ba 783f
00000280: cfce 943f 7ecd b7bf a2d8 efbf b318 8abf
00000290: 2b2f 2a40 bf2d a23c 0e68 0b3f b25b 17bf
000002a0: 2042 163c 6543 81be 7a86 863e 40b5 ad3b
000002b0: ba48 183e dca4 f1bd f06f 513e 301f 2f3e
000002c0: ffef 23be de4e eabd e43d 573e 006e 443c
000002d0: eac9 26c0 97c2 9d3f 2910 bfbf 653b 79c0
000002e0: 01a8 c33f be7f 24c0 7256 5b3f f139 03c0
000002f0: 3b21 0c40 6e23 e73f bded b0bf 1a54 8e3f
0.34207 -1.566158 -0.20936069 0.755421 0.4336181 0.45334825 -1.8114703 0.72031355
2.1449132 -0.31632885 -0.73439854 -1.7355454 0.09528452 -0.057287127 0.26999992 0.12670061
-0.26505917 -0.112592384 0.28850454 0.07291889 0.2118609 0.16531312 0.22755659 -0.026737452
-0.09252713 -0.12979057 0.1519042 0.3413914 0.50482523 0.014479297 -0.011315814 -0.66045094
0.42146194 -0.37006396 -0.38673967 0.37616822 0.044975817 0.23637009 -0.14684062 -0.2266596
-0.20302749 -0.28293952 -0.035120636 0.055897355 0.28464085 -0.18012239 0.27728027 0.042875797
0.07722083 0.22601575 -0.03436324 0.14905816 -0.051409945 -0.004251033 0.07925415 0.22659701
0.18450254 -0.1719432 0.14077392 -0.035040796 -2.6768026 -0.9473527 0.03188922 3.1624944
1.295778 1.4493715 4.091254 1.7668815 0.17873263 -2.3484635 -1.7789003 -0.5575271
-1.0005419 2.0883718 1.0112956 -3.016665 -0.94844884 -0.3554572 0.9672464 -2.4951496
-0.4295598 2.3717513 2.4570959 1.2011899 -0.025704235 0.1988399 -0.13349025 -0.2499607
-0.14667161 -0.2241254 0.28064483 0.05318716 -0.12474428 0.00046789646 0.24967927 0.09449199
-0.06441635 -0.07332632 -0.028146267 -0.040348098 0.19338298 -0.20241836 -0.16363882 -0.27662554
-0.27202857 -0.11948581 -0.253641 0.17026854 -0.20653847 -0.6702082 2.529739 1.0142727
-0.19170563 1.0992129 -0.021973211 0.25568166 -1.6059628 0.14480385 0.56870556 0.095179744
4.329142 -0.062232908 1.735508 -1.604658 -1.3326143 -0.5917435 -3.654293 -1.2362051
-0.42358258 2.0579057 1.3679237 0.53819185 -0.2534979 -0.16155292 -0.09142278 0.24604452
0.28516424 0.073625445 -0.28582993 0.16236344 0.19022793 -0.1795627 0.029951096 -0.0638517
-1.8620108 -1.1828061 -0.9159458 4.262516 -1.4477155 0.40906906 5.231226 0.27186412
-0.44125235 -2.8795884 0.7869095 -0.04592907 2.6310391 -0.055176407 -0.68121505 0.97159904
1.1625613 -1.4359586 -1.8737986 -1.0788788 2.659129 0.019797204 0.5445565 -0.5912429
0.009171039 -0.2524673 0.26274472 0.0053011477 0.14871493 -0.117990226 0.20452857 0.17101741
-0.1600952 -0.11440824 0.21019703 0.011989117 -2.6060739 1.2325009 -1.4926807 -3.8942502
1.5285646 -2.5702968 0.8567878 -2.0504115 2.1895282 1.8057687 -1.3822552 1.1119416

local_head.gconv.convs.<stroke___connected_to___stroke>.nn.0.bias f4 [16]
00000000: 8974 e13d 47c5 10be 327f debc 0feb 2bbe
00000010: bedc 55be 2543 683d 56e1 eb3c 9857 36bd
00000020: 50f3 1fbe 111d 573e 0de9 563d c84d 68be
00000030: b9cb 293d 31b6 8c3d 88fa c4bd d1a8 023e
0.110085554 -0.14137755 -0.02716026 -0.16788886 -0.20884988 0.05670466 0.028793972 -0.04451713
-0.1562016 0.21007182 0.05246835 -0.22685921 0.04145405 0.06870688 -0.096180975 0.12759711

layers.0.mlp_edge_conv.gconv.convs.<stroke___ordered_next___stroke>.nn.0.weight f4 [32, 32]
00000000: c984 0cbf 71af 29be 62a1 c1bd c0d4 37be
00000010: b89e a43c ba52 29bf 61ba 8e3e 6f9d 173e
00000020: aee0 f23e 6ee7 0abf 8785 02bf f6e4 cd3d
00000030: 2a9a 41bf f026 58bf bf27 8cbd b1a3 11bc
00000040: 21b9 d63f 2581 a63d 6f58 3f3f 6b5a 1fbf
00000050: c4c1 24be 75c5 8a3f a9db e53f c826 36bd
00000060: 1f89 88bb c469 ea3f 2a9a 0940 64d9 0bbd
00000070: 5100 803f c606 bf3f 0d43 553f 5c0c ad3f
00000080: 5ae0 1bbd 7b4a b33d 7990 693c e54d 143e
00000090: 3114 2e3e 964b 46bd add0 a23e 4c3d 1abe
000000a0: 959d f5be 3956 79be 8cb3 c5be 99c3 0c3e
000000b0: 06e8 133e 7c3e 29bf 3cbd 553d bd0b f63e
000000c0: dbd3 2b3f f735 33be e9a9 12be add8 23c0
000000d0: 4089 263c 33ac 9d3f cee6 86bf 026f 54bd
000000e0: 6d5a 9b3f 47a1 963d f36e edbf 860b 853d
000000f0: b790 3f3e 4545 6d3e 2393 16bf 03b0 6c3e
00000100: 3ddf 2fbe 68d2 1fbe 47b6 afbd 12e0 123e
00000110: 3c1c 65bd f0a5 41bd 857f 0c3e 3048 053c
00000120: 9850 733d a76b f5bd c0d0 d7bb b81f dc3c
00000130: 0aab 05be 8a34 e03d d200 9b3d 64ae 16be
00000140: 3479 4fbe 5010 9fbd fe2d 77bd 15c5 06be
00000150: 2017 663c 9fc6 8dbd 8a7f cb3d 604f 8a3d
00000160: cfeb 843d edb9 a53c 84f0 413d 6740 043e
00000170: 1af4 bd3d 64e3 32be a913 213e f692 a8bc
00000180: 3147 08bf 930d dbbd 79a0 8fbd 7041 a83e
00000190: d883 073d d173 0bbf 9e20 5fbe 58f7 afbc
000001a0: 17db 293f fc3d 14bf 73c4 fdbe 5e38 0bbe
000001b0: 57bb b93d 2cfa a0be b462 463f d2f3 2bbf
000001c0: 4471 5b3e 287d 92bc 5aad 04bc b8ed f1bf
000001d0: c0f5 45bd 5df2 c03e 5566 953f a892 523d
000001e0: 1aa7 bcbe eccf 583e 638c 063e ca76 f83d
000001f0: 1ab1 9e3d 49c2 98be 2baa 4ebf 5f68 b93e
00000200: ef77 37bc a0f8 143c 3c8d 0b3d 613d d6bd
00000210: c93c 2bbe 2245 e33c 5cd8 debd 0e9e f5bd
00000220: fbe6 e0bd 62de 16be 6e5e 0ebe 8802 69bd
00000230: d024 323d 0657 cfbd 7bdf 0a3c 35a9 d03d
00000240: fb96 043e b424 663d c7c7 98bd 98f6 fa3d
00000250: a0f5 19be a0ea 6cbb 3580 b3bd 80d6 593c
00000260: 3c63 553e 2b95 9dbd 33f9 e33d 2c3f 07bd
00000270: e155 16be 1a7d 973d 7334 de3d 7b91 acbd
00000280: c313 f73e 89a9 143e f021 15be 11f8 463e
00000290: 84c0 f3bd d3ac c23e dfde 5cbc af25 303e
000002a0: 7fc6 393e fb53 8a3e 7ed4 05bd 4a7f c03d
000002b0: efb9 313f db7e 9dbc 34d5 d13d f760 2f3d
000002c0: b1c5 f3bc c7a7 c0bd e4be e53e 5566 2f3d
000002d0: c07c 3b3d a873 28bf 3e77 2940 3f18 243e
000002e0: 2319 cabf b7ad 3b3e da94 5c3f a262 ab3d
000002f0: 5ced f3bd 2022 143f d65e 64bf 1eeb bb3f
00000300: 0cc3 1039 873d 143c 12a7 43be 87ab a13e
00000310: fa4b d73d ef43 37be a9ce d3be 88e3 53bd
00000320: 5ba7 8b3d 6e40 29be 36b4 90be e6ea e83d
00000330: 9ef5 da3c 47c2 6cbe 40b4 633d 8d28 39bd
00000340: 4c1c f6bf a16f 60bd 7c4a bdbe 9420 dfbe
00000350: 42d6 18be c101 79bf 1f54 9ebf f415 27bd
00000360: bee7 58bf 7d3d 04c0 26db c5bf f7b7 26be
00000370: 15df 03bf f405 cbbf 89dd c1bf 5d66 0bc0
00000380: b6ba 54bd b928 c8bd 9e93 b03d 1200 c3be
00000390: 421e fdbd 13ca 7b3e e225 a7bd 6050 fd3c
000003a0: 1bbe b63e e21f 22be cdc1 c8be 477f 143e
000003b0: fb73 4f3e 2404 7dbf 1c59 103f 62b0 fb3d
000003c0: cf47 2ebd 7b16 693d deb5 593d 7f2d 283f
000003d0: f8ee 05be c278 44be 7ef8 b0be e91c 9abd
000003e0: 9c9b 5bc0 6555 10be d959 10bd 4ed0 c0bd
000003f0: 5f21 cc3e e2ee c53f 062d 71c0 a995 0c3f
-0.54890114 -0.16570832 -0.094546095 -0.17952251 0.020095214 -0.66141856 0.2787657 0.1480615
0.47437042 -0.54259384 -0.50984997 0.100534365 -0.7562586 -0.84434414 -0.068435185 -0.008889125
1.6775247 0.08130101 0.74744314 -0.6224734 -0.1608954 1.0841509 1.795766 -0.04447058
-0.0041667367 1.8313527 2.1500344 -0.034142867 1.0000097 1.4923942 0.83305436 1.3519397
-0.038055755 0.087544404 0.014255636 0.1448284 0.1699989 -0.048411928 0.31799832 -0.15062445
-0.47971788 -0.24349298 -0.38613546 0.1374649 0.14443979 -0.6611097 0.05218242 0.4805583
0.6712014 -0.17501055 -0.14322628 -2.5600998 0.010164559 1.2318176 -1.0539186 -0.051863678
1.2136971 0.0735498 -1.8549484 0.064963385 0.18707548 0.23170955 -0.5881826 0.23114018
-0.17175002 -0.15607607 -0.085796885 0.14343289 -0.05593513 -0.04727739 0.1372052 0.008134887
0.059403032 -0.11983424 -0.0065861642 0.026870593 -0.13053527 0.10947521 0.07568516 -0.14714962
-0.20261079 -0.07766783 -0.060346596 -0.13161118 0.014043599 -0.069226496 0.099364355 0.06753421
0.064902894 0.020230258 0.047348514 0.12915193 0.09275074 -0.17469555 0.15730156 -0.020577889
-0.5323363 -0.106959485 -0.070130296 0.32862425 0.03308472 -0.54473597 -0.21789786 -0.021480247
0.6634993 -0.5790708 -0.4956394 -0.13595721 0.09068935 -0.31440866 0.7749436 -0.67168915
0.21429926 -0.017881945 -0.008097971 -1.8900671 -0.04833007 0.37684909 1.1671854 0.051409394
-0.36846238 0.21173066 0.13139491 0.12132032 0.07748623 -0.29835728 -0.80728406 0.3621244
-0.011198028 0.00909248 0.03407024 -0.10460926 -0.16722406 0.027742926 -0.10881111 -0.11993037
-0.10981556 -0.1473327 -0.1390321 -0.05688718 0.04349214 -0.1012402 0.008476133 0.10188524
0.1294822 0.056187347 -0.074599795 0.12254065 -0.15035105 -0.003615059 -0.08764688 0.01329577
0.20838636 -0.07694467 0.11131515 -0.03301923 -0.14681198 0.07396908 0.10849848 -0.08426186
0.48257264 0.14517798 -0.14563727 0.19430567 -0.11901954 0.3802248 -0.013480871 0.17201875
0.18142127 0.27017197 -0.03267335 0.093992785 0.6942434 -0.019225528 0.102457434 0.042817082
-0.029757353 -0.09407001 0.448722 0.0428222 0.045773268 -0.6580148 2.647903 0.16024874
-1.5788921 0.18327986 0.8616463 0.08368422 -0.11910507 0.5786457 -0.8920721 1.4681127
0.00013805571 0.009047872 -0.19106701 0.31576177 0.10512538 -0.17897008 -0.41368607 -0.051730663
0.0681903 -0.16528484 -0.2826249 0.11372928 0.026728448 -0.23120986 0.05559182 -0.045204688
-1.9227386 -0.054793958 -0.3697089 -0.43579543 -0.14925483 -0.972683 -1.2369422 -0.04079242
-0.8472861 -2.066253 -1.5457504 -0.16281115 -0.5151227 -1.5861192 -1.5145732 -2.1781228
-0.051935874 -0.09773392 0.08621906 -0.3808599 -0.12359287 0.24588804 -0.081615224 0.030922115
0.35691914 -0.15832475 -0.39210358 0.14501677 0.20259087 -0.98834443 0.5638597 0.12289502
-0.04254895 0.056906205 0.053151958 0.6569442 -0.1307944 -0.1918669 -0.34564584 -0.075250454
-3.4313726 -0.14095075 -0.035241935 -0.09414731 0.3986921 1.5463526 -3.768373 0.54915863

layers.0.mlp_edge_conv.gconv.convs.<stroke___ordered_next___stroke>.nn.0.bias f4 [32]
00000000: dfd4 57bd e649 83be ab87 0bbe c668 213e
00000010: 9226 17be 0d66 e7be b6ec 04bf ea55 1fbb
00000020: 310d b93e da7e 70bd a47c 91be 5562 9fbe
00000030: ff4d adba 3f68 73be b7ce 353f e832 d6bd
00000040: b3c7 13be 6d3a 083e 941c 283e e882 07be
00000050: 3290 b1be e0d9 213e 888e 2d3d d135 83be
00000060: d1ce f9be 6bed 94be ed9b bd3e 16e9 343f
00000070: 238d b3be e7c3 dd3c 5834 08be 4fc0 4dbe
-0.052693244 -0.25642318 -0.13625972 0.15762624 -0.14760807 -0.45195046 -0.5192369 -0.0024312683
0.36142877 -0.058714725 -0.28415406 -0.3112971 -0.0013222097 -0.23770235 0.71018547 -0.10458928
-0.14431648 0.13303538 0.16417152 -0.1323353 -0.34680325 0.15805769 0.042372257 -0.25626996
-0.487906 -0.29087386 0.37033024 0.7066816 -0.35068616 0.027070953 -0.13301218 -0.20092891

layers.0.mlp_edge_conv.gconv.convs.<stroke___connected_to___stroke>.nn.0.weight f4 [32, 32]
00000000: 850c 19be 8037 523d 3638 e63d fcb3 ef3b
00000010: 8e93 a93d a3a7 55be 641c 2cbe 1986 23be
00000020: d52a 8a3c 85b1 313d 3cad 79bc a04f 263c
00000030: 3ef3 0abe 13fe 0cbd abba 043d 87d7 96bc
00000040: debe 27be 91f4 28bd 057e 89bd f43f 303d
00000050: 8880 10bd 7e5b 48bd d2db c7bd 161b 8a3d
00000060: 1639 623d fb93 dc3d 48f8 3ebc 178e 213e
00000070: 87cf 78bd 018f a6bd a519 14bd 574e ffbd
00000080: f164 f13e 4f20 a13d 87f8 253e 6414 00bf
00000090: 5fbf 203e 6a89 e33e f727 103f 8eaa b03d
000000a0: cda5 8abd f703 ae3e 83c9 ce3e 605a f1bc
000000b0: c67b d33e f9b1 233f 55d6 663e 6377 c43e
000000c0: 7231 703f 597e 1dbe 0fbb e43e afe3 373f
000000d0: 6112 10be 54f8 0a3f 7101 1c3e 5289 ad3d
000000e0: da69 283f ae25 ac3f a718 ac3f 04ab 3f3d
000000f0: 2878 0d3f 6185 4c3f 0ef5 b6be 44d3 263f
00000100: 4707 11bf c6ce 273e a49c 90bd ab08 883e
00000110: 36af f93d 5739 9cbe f03b 9f3c bcba 883d
00000120: 376e 363f 7966 a8be 6b6a febd 6337 dbbd
00000130: d670 15be 80ae 66be 4b9d 133f 7613 0dbf
00000140: 49f8 0e3f afe1 29be 56fd 5b3e 797a c3bf
00000150: e099 d93b 23f1 f83e f6af 963f 0053 aa3a
00000160: 15d3 b33f 4237 743f 93c0 8d3f eb86 1bbe
00000170: 53d8 af3e 737f e13d c37c be3f 71b1 843e
00000180: c160 a03e f357 223e 6872 8e3e 1066 39b7
00000190: 60e4 8ebb e785 e53e 846c 0b3f 7797 20be
000001a0: 9965 86bd e9ef 0b3f 47e5 8a3e 5403 2dbe
000001b0: bdc4 283f e6ac 743e ba32 ce3d bfdd a83e
000001c0: f4e5 1b3f 950a 34bd 134b 9c3e 8d2c f63f
000001d0: 741a 0bbd 4818 933e ff85 7fbd 5030 28bd
000001e0: 6d65 9c3f 1806 0b3f c4b9 ef3e 41b8 0f3e
000001f0: c82f 953b 1619 b73e a9a4 7f3e 39a5 a33e
00000200: ef32 423e 0dea 7fbd 905f 9d3d fc64 b83e
00000210: b846 c6bc 86b5 ae3b 72e5 debe 7bab a9bd
00000220: 6985 623d 9a78 71bc 6f04 af3c 9b1b 0b3e
00000230: 4cc5 eabd 3a70 00be 7ad5 b03d 1638 aabe
00000240: 4aa1 c6be 28c8 16be ecaa 06be 8884 4a40
00000250: f25a 1cbe 1040 813f 0d22 b43d 0081 6abb
00000260: 6fd3 a040 c891 23bd 30f3 6bbf 76dd 9dbd
00000270: 019a c73f 6363 ddbe a3b0 b640 1be7 acbe
00000280: 8e5b f23d d4c0 f2bd 8304 3c3c c1d9 0fbf
00000290: 44e5 2ebe a054 8e3e 7be8 853e b0b4 97bc
000002a0: fb51 04bf 2cea b53e f4ce 6f3e 084d e7bc
000002b0: e3ae e7bc d12d 893d 3cd9 06bf 3b11 f73d
000002c0: ad18 f83c a4a5 2d3e 55fc 4b3d 12f5 2f40
000002d0: 41e6 0d3e 55b9 c0ba 5b2c 38be 0ee5 da3d
000002e0: d43d 573f e530 28be 1152 34be e223 17be
000002f0: 7f50 163f d144 babd 3004 2a3f 6179 273e
00000300: b850 17be c873 6a3d b0e7 97bd 4d76 0c3d
00000310: 2276 d03d d210 54be 7a34 9a3c 7ce1 ebbd
00000320: c1cf 3cbe 6813 bbbb e488 90bd 005b d33c
00000330: 74ea da3d 2359 78bd b9ae 99bd e37c fabd
00000340: 1d28 dd3c e5ff b83d e4cb c73c ba9a f83d
00000350: 55c4 153e 5b30 12be d441 d83d 00de 383d
00000360: 85c7 b73d f9b0 aabd 13be b2bd 8a2a 9c3d
00000370: c299 6c3d a0ca b03d 1a43 453d b664 fcbd
00000380: 1d95 32bf dccd b73d 2a6c 9fbd 2986 09be
00000390: b0b6 cabc 6d0f ecbe c23a 7bbe 3bdd 21be
000003a0: 3f3a da3e 33b8 f4be 219e 0bbf c4d1 563d
000003b0: 560c d0be 1651 1ebf 4d2f de3e 268f 14bf
000003c0: a1a8 38bf 7103 64bd 6c9b 8bbe 363c 6c3f
000003d0: fafa 64bd caaf 1cbf 5812 10bf 0e33 c73d
000003e0: 8918 31be 34f2 42bf b10b 10bf ee57 c43d
000003f0: fc43 0bbf 8f60 eebe cf3d babe 10f7 8abe
-0.14946182 0.05132246 0.1124119 0.007315157 0.08280097 -0.2086473 -0.16807705 -0.15969123
0.016866127 0.043382186 -0.015239056 0.01015082 -0.13569352 -0.03442199 0.032404583 -0.018413318
-0.16381404 -0.04124886 -0.067134894 0.04302974 -0.035278827 -0.04891538 -0.09758724 0.067434475
0.055230223 0.107704125 -0.011655875 0.15776859 -0.06074479 -0.081327446 -0.03615727 -0.12466114
0.47147325 0.078674905 0.16208087 -0.50031114 0.15698002 0.44440776 0.5631098 0.08626281
-0.06769905 0.339874 0.40388116 -0.02946204 0.4130537 0.6394344 0.22542699 0.38372335
0.9382545 -0.15380229 0.44673964 0.7183179 -0.14069511 0.5428517 0.15234925 0.084734574
0.65786517 1.3448999 1.3445023 0.046793953 0.5526147 0.7989102 -0.35733837 0.65166116
-0.5665173 0.16387472 -0.07061127 0.26569113 0.12191622 -0.30512497 0.01943776 0.06676242
0.71261925 -0.3289068 -0.12422641 -0.107039236 -0.14593825 -0.22527504 0.57661885 -0.5510782
0.55847603 -0.16589998 0.21483359 -1.5271751 0.006640658 0.48621473 1.1772449 0.0012994707
1.4048792 0.95396817 1.1074394 -0.15188186 0.3434473 0.11010637 1.4881824 0.25916627
0.31323817 0.15853862 0.2782166 -1.1050623e-05 -0.0043607205 0.44828722 0.54462457 -0.15682779
-0.06562347 0.5466295 0.2712805 -0.16895801 0.659252 0.2389408 0.10068269 0.3298168
0.60897756 -0.043955404 0.30526027 1.9232346 -0.033960775 0.28729463 -0.062383648 -0.0410617
1.2218453 0.54306173 0.46821415 0.14035131 0.004552815 0.35761327 0.24965157 0.31961992
0.18964742 -0.062479068 0.07684243 0.36014545 -0.024203643 0.005331698 -0.43534428 -0.082846604
0.05530301 -0.014738226 0.021364419 0.1358475 -0.11463413 -0.12542811 0.086344674 -0.33245915
-0.3879493 -0.14724791 -0.13151139 3.164339 -0.15269068 1.0097675 0.08795557 -0.0035782456
5.02581 -0.03993395 -0.9216795 -0.07708256 1.5593873 -0.4323989 5.709062 -0.3377007
0.11833869 -0.11853185 0.011475685 -0.5619164 -0.17079645 0.2779894 0.2615393 -0.018518776
-0.5168759 0.3553022 0.2341879 -0.028234974 -0.028281635 0.06698192 -0.52675223 0.12063833
0.030285204 0.16957718 0.04980119 2.749333 0.13857366 -0.0014703671 -0.1798567 0.1068822
0.8407872 -0.16424902 -0.17609431 -0.14759782 0.5871658 -0.09095157 0.6641264 0.16354896
-0.14776886 0.057239324 -0.07417238 0.034292508 0.10178782 -0.20709541 0.01882385 -0.11517617
-0.18438627 -0.0057091005 -0.0705736 0.025800228 0.1068925 -0.060631882 -0.07504029 -0.122308515
0.026996667 0.09033183 0.024389215 0.12138887 0.14625676 -0.14276259 0.10559431 0.04513359
0.08973602 -0.08334536 -0.0872766 0.07625301 0.057763822 0.08632398 0.048159696 -0.123238966
-0.6975878 0.089748114 -0.077843025 -0.13430084 -0.024745315 -0.4610552 -0.24534133 -0.15807049
0.42622563 -0.47796783 -0.5453816 0.05244614 -0.40634412 -0.6184248 0.43395463 -0.5803093
-0.7213231 -0.055667344 -0.27267015 0.92279375 -0.055903412 -0.6120573 -0.5627799 0.09726535
-0.17294516 -0.7615082 -0.5626784 0.09587084 -0.5440061 -0.46558043 -0.3637528 -0.2714162

layers.0.mlp_edge_conv.gconv.convs.<stroke___connected_to___stroke>.nn.0.bias f4 [32]
00000000: 74ee 5ebe 8ce0 63bd e0c0 4d3f 0056 1bbd
00000010: c2da 7cbd d5f9 00bf 2c7f a1bd 0662 d13e
00000020: b776 89be a3cf cb3e 7a45 ebbd 3172 8b3e
00000030: 1cfd 56be 58ea 40bc 90a2 9cbd e46c 1e3f
00000040: e845 19be 6e0c d9bd d522 2a3e 0899 10be
00000050: cab1 093f a8bd 7abc 2309 2abd 7531 debd
00000060: e485 133f 1384 8b3e c4e1 42be a1bf 493f
00000070: f12b a0bd cd46 023f 410c 8a3e cc43 603e
-0.2177065 -0.055634066 0.8037243 -0.037923813 -0.06173206 -0.50381213 -0.07885584 0.40895098
-0.26848385 0.39806852 -0.11487861 0.2723556 -0.20994991 -0.011774622 -0.07648194 0.61884904
-0.14968073 -0.10598074 0.1661485 -0.14120877 0.5378691 -0.015304007 -0.04151262 -0.10849277
0.57626176 0.27249202 -0.19031435 0.7880803 -0.07820881 0.50889283 0.26962474 0.21900862

layers.0.projection.weight f4 [32, 16]
00000000: 74ad e13c 4f15 6ebe aa42 1e3d f215 94be
00000010: ea94 23be f43a 89be 6784 ab3e 9624 3abe
00000020: 86fe 113e 9c28 23bc f507 24be 9a7c 77be
00000030: c690 b83e 2f18 a13d 74af cdbe 8d7f 863e
00000040: e728 1fbe ae50 1a3d d4bb c33d 9953 2fbf
00000050: 5856 0f3e 97bb a9bd b3f7 1f3b 48e3 fcbd
00000060: bc44 e2bd cd62 5b3d c3c3 773d c0f7 9e3c
00000070: 94a2 a0bd dc2f 8abb 5488 98be 4db5 adbd
00000080: b699 df3d 0b1a 2abe ba6c d13d 08ce 4fbf
00000090: 5c8b 2b3e 895e 573d 7b58 aa3e be87 1c3e
000000a0: 37ae 2dbf a166 d83e 93f6 373e a8d6 24bd
000000b0: 63df 2dbe eca8 f2bd a0e5 3ebf 6178 92ba
000000c0: b6f0 bfbe 1271 4dbe b452 18be df10 053e
000000d0: c4ef 7c3e b271 b0be 4613 3a3c 1ca0 eebd
000000e0: 64bf 833e 27cd cabd 5ce4 9ebe 46a8 1ebe
000000f0: c9da 3d3e b9f0 64be 50e3 d4bd 4605 80bd
00000100: a23f 5ebe 4350 76be d220 6f3e 0328 91be
00000110: 243a 91bd b05f 443d 08ad 04bf 5015 83bc
00000120: fbe7 8bbe 8d8c 833d f12e c0be f606 023e
00000130: 6ffc 413e e027 5abd 2d3e ab3d 8798 aebd
00000140: 550b ccbe aa6a 64be c308 f8bd 0b2a bd3e
00000150: 8ad4 433e 4162 e03d c0d5 0ebf 7440 7e3e
00000160: 8451 203f 3e6c ccbe c88a ffbe 246f b4bd
00000170: f13d 8ebd 5bcf 2bbf 5ef0 013f 99fb b2be
00000180: f299 7d3d 8ae8 66be a902 0f3e 99de 78bd
00000190: 78de ea3d d4c7 9ebe bc43 07bf 4226 543e
000001a0: 9209 fdbe 4110 97be de15 123e 3260 1cbe
000001b0: aa93 4dbe 0a0d 823e 81ec 8abd 1b8f 45bd
000001c0: 96e7 87bd 7148 2f3e d535 a8be 5c60 04bf
000001d0: b0c8 cf3d 5522 94bd daf3 dfbe 1ca1 b4bd
000001e0: 509a a0be b194 aabe a00e 0e3b 384b c6bd
000001f0: 2fdd a0bd 962b 1fbe 0d18 96be 7352 13bf
00000200: 0ff3 51bd 80e7 6fbe 4b3e fabd 832d 74be
00000210: fe6b 783e 2955 7c3d 0209 0bbf b058 bb3c
00000220: 5965 5fbe b371 653d f1d9 22bf 848e 533e
00000230: c1f0 983e 4997 debe 9d3c 81bd 7432 d3bb
00000240: c4f6 ce3d 8374 ca3d a675 8e3d c644 11bf
00000250: a4a7 083e 0fa4 c2bd b808 8c3c e28d 32be
00000260: 0271 23bf ebc2 a1bd 8aa6 89be 2cfc b03d
00000270: 5a9d 7abc b5af 3e3e e994 d9be 1380 8e3e
00000280: d898 8f3d 536e 4cbe 1fb2 07be 1eeb 2d3f
00000290: 12fc 59be d3fc db3d 768c 28bd d052 89bc
000002a0: c4d6 bb3e 18c4 a1be 8c8b 85be 2cb2 133e
000002b0: ac3f 913e d284 c73e bafc 073e aab1 853e
000002c0: a986 463e 608f 583e 3e08 e53d 649e 0abe
000002d0: a097 7c3d 2891 00be 7dae 5abe 204b 793d
000002e0: a5eb d1be c7fa b0bd 6739 04be 2871 a9bd
000002f0: 41e2 c4be 2591 9a3e 3f70 38be 9ffa b83e
00000300: faff a4be ba2e 0dbe 9184 41be d69f 023f
00000310: 60a2 7abc 4282 d3bd e73c 483e e495 debd
00000320: 20b3 433e cda0 88be 530e c9be e023 643e
00000330: 38a2 8ebe 2144 f9be 2de0 903e 0c95 12bd
00000340: 6cf8 433e 6dfa 57be f53b 1bbd 5bae 04be
00000350: dc0e 423e edb7 2dbe e3ee 7dbd e42e e43d
00000360: 0315 da3e 2f5a 30bd 0d62 2b3e 30f3 4e3d
00000370: 152b c9be bd92 9f3e f9bc a0bc 4c77 903c
00000380: fece e6be 9114 50be 1d3f 8dbd c797 5bbe
00000390: 68c4 78bd 9fec 97be e5a4 f8be 2695 0cbe
000003a0: 42a0 b43e 8861 d4be bd3b 9abe b0f7 f93c
000003b0: cd1c 97bd ff13 02be 9e90 dbbc 7f33 2ebf
000003c0: fde8 ac3d 847d 6e3e 1eeb 013e d962 a23e
000003d0: 20d4 74bd 2987 89bd 1ee8 ba3e ccc2 26be
000003e0: 680d 25be f4f1 f13e 816c a8bc 30a8 e9bd
000003f0: 080c 2f3e 77e0 313d 22c6 35be 6bc6 1a3c
0.02754853 -0.23250316 0.038637795 -0.28922993 -0.15974775 -0.2680279 0.33499452 -0.18178019
0.14257249 -0.0099584125 -0.1601866 -0.24168625 0.36047953 0.07865941 -0.40172923 0.2626919
-0.15542947 0.0376746 0.0955731 -0.68486935 0.13997781 -0.08287733 0.0024409115 -0.12348038
-0.11048266 0.05356102 0.060489427 0.019405246 -0.07843509 -0.004217131 -0.2979151 -0.08481846
0.1091799 -0.16611497 0.10225816 -0.81173754 0.1675238 0.05258039 0.3327063 0.15286157
-0.67843956 0.422658 0.17965154 -0.040243775 -0.16979747 -0.118486255 -0.7456913 -0.0011174792
-0.37488335 -0.20062664 -0.14875299 0.12994717 0.24700838 -0.34461743 0.011357134 -0.11651632
0.25731957 -0.09902411 -0.310336 -0.15493879 0.18540491 -0.22357453 -0.10394919 -0.06251006
-0.21703961 -0.24054055 0.23352364 -0.2835084 -0.070911676 0.047942817 -0.51826525 -0.016001374
-0.27325425 0.06423292 -0.37535813 0.12697968 0.18943952 -0.053260684 0.083614685 -0.08525186
-0.39852396 -0.22306314 -0.12111046 0.3694614 0.19124046 0.109562404 -0.55794907 0.24829274
0.6262438 -0.39926332 -0.4991057 -0.08810261 -0.06945408 -0.67113274 0.50757396 -0.3495758
0.06191439 -0.22549644 0.13965859 -0.06075916 0.11468214 -0.31011832 -0.5283773 0.20717719
-0.49421364 -0.29504588 0.14266154 -0.1527107 -0.2007586 0.25400573 -0.06783391 -0.04823218
-0.066359684 0.17117478 -0.3285357 -0.5170953 0.101457 -0.07233111 -0.4374073 -0.08819792
-0.3136773 -0.33316568 0.0021676198 -0.096823156 -0.078546874 -0.1554397 -0.29315224 -0.5754768
-0.05125719 -0.23428154 -0.12218913 -0.23845486 0.24259946 0.061604653 -0.5431062 0.022869438
-0.21816005 0.056016635 -0.636138 0.20659834 0.2987118 -0.43474796 -0.06310389 -0.0064452235
0.101056606 0.09885504 0.069560334 -0.56745565 0.133452 -0.09503948 0.017094001 -0.17436936
-0.6384431 -0.07898506 -0.26884872 0.08641848 -0.015296305 0.18621714 -0.42496422 0.27832088
0.070115745 -0.1996396 -0.13251542 0.67936885 -0.21287563 0.10741582 -0.04114958 -0.01676312
0.3668729 -0.3159492 -0.26083028 0.14423436 0.2836889 0.3896852 0.13280001 0.2611211
0.19387306 0.21148443 0.11183213 -0.13536984 0.06166804 -0.12555373 -0.21355624 0.06086266
-0.41000095 -0.08641582 -0.12912522 -0.08273536 -0.38453868 0.3018886 -0.18011568 0.3612871
-0.32226545 -0.13787356 -0.18898226 0.5102514 -0.015297502 -0.10327579 0.19554482 -0.10868433
0.191113 -0.2668518 -0.3926874 0.2227931 -0.27858138 -0.4868479 0.28296033 -0.035786673
0.19137734 -0.21091624 -0.037898976 -0.12957136 0.18950981 -0.16964693 -0.0619954 0.11141756
0.42594156 -0.043054756 0.16736622 0.05052489 -0.3929068 0.3116664 -0.01962136 0.01763501
-0.45079798 -0.20320345 -0.068968035 -0.21444617 -0.060734183 -0.29672715 -0.48563305 -0.1372877
0.35278517 -0.4148066 -0.30123702 0.030513614 -0.0737854 -0.1270294 -0.026802357 -0.68047327
0.084428765 0.23290068 0.12687346 0.3171604 -0.05977261 -0.06715233 0.36505216 -0.16285247
-0.16118395 0.47254908 -0.020559551 -0.11409032 0.17094433 0.043426957 -0.17751363 0.009446721

layers.0.projection.bias f4 [32]
00000000: e23c 99bd 9ebb 04be 0ab6 49be e445 29be
00000010: 8eae 3f3d 9da7 e73d 459e 4e3e 1bb2 e3bd
00000020: fb11 50bd 9403 88be 6a51 22be 2115 a0be
00000030: 7e1a 5ebe 7e02 45be 1715 9fbd 8a53 d6be
00000040: 462c 03be bb4e 39bc a123 8ebe afad 8a3c
00000050: 9d7a 3cbe a280 a4be c504 25be 3ec9 3c3d
00000060: 38ff e5be aea3 183e 5d55 653d 4ea2 babd
00000070: 5149 96be 6e8a 82be 997d 86be 1baf 67be
-0.074823156 -0.12962195 -0.19698349 -0.16530567 0.046797328 0.113112666 0.20177563 -0.11117955
-0.050798398 -0.2656523 -0.1585137 -0.3126612 -0.21689793 -0.19239232 -0.077676944 -0.4186061
-0.12809858 -0.011310275 -0.27761558 0.016928522 -0.18406148 -0.3212939 -0.161151 0.046090357
-0.4492128 0.14906189 0.055989612 -0.091129884 -0.2935281 -0.25496238 -0.26267698 -0.22625391

layers.1.mlp_edge_conv.gconv.convs.<stroke___ordered_next___stroke>.nn.0.weight f4 [64, 64]
00000000: 847a 563d 6a58 403f 9cda b03e a721 9a3e
00000010: ad3a 403e 75c1 bc3c 7042 0b3d 36f4 a3be
00000020: dbfa 03be 2de0 0dbf 4712 64bc 6faf a03e
00000030: eb8d f83e cf2d 4a3e 35a6 d13e 8e66 8c3e
00000040: 4316 f63d 73f8 babe faec 4f3f 01da 50be
00000050: 845b 4c3f 70d4 bb3e f720 89be 98c1 28be
00000060: 2095 353e b08e 4d3e 09ec 143f 7e5a e3bd
00000070: 4cf3 3fbe 1722 473e bd79 7fbe 2375 153f
00000080: ea9b 8e3e 9ebc 353f 6ef5 6a3f 1616 d93d
00000090: 0a72 4fbf 1ec2 153e 17cd 65be 3d20 e3bf
000000a0: c1cb 0f3d 9f46 1dbf a74e f5be 05e8 7e3f
000000b0: d10e 493d 9238 bf3e edd6 27bf da46 e73e
000000c0: b9c9 9d3e 48bb 7f3e 1225 753f 1522 76be
000000d0: 16a9 743f 3d27 56bd a03e 9c3e 58a3 a5be
000000e0: 211a 733f f432 f83e 0506 64bf eb9a 713f
000000f0: d4a0 213f 8827 963f 194d 54bf 71ea fb3d
00000100: 315f 143d 2fab 043f ce81 393e 882b e43e
00000110: ba4f 523e 603d 85be c6c2 8f3e 89a2 d93d
00000120: af1b 1e3d 2196 173f a6f0 adbe aadb 243f
00000130: 9771 c4bd 9a4e 893e ed5b 0cbf 8777 b73e
00000140: d452 64be ba6a 833e f2c3 35be 08b8 ce3e
00000150: 024e 573e 9040 b73e 7e20 8e3e c207 c83e
00000160: a3f9 183f ea4c 143d 32c4 ffbe f213 43bd
00000170: fda3 643f ad34 693e 1c66 013f 5443 053f
00000180: 0169 d93f 9071 95bd 8042 b93d 2233 a23f
00000190: 4427 803e 373c 093f 7750 0cbe 11f3 0ebf
000001a0: b090 c4be 94fd a33d 5cc5 6abf e44e 243f
000001b0: 8039 0e3f e131 ea3e 6a43 b13d 9766 1e3e
000001c0: f934 1fbf d43b 273e 4dcc e6bd dcff 123d
000001d0: 8d26 783e d25b ac3e 47b1 333f 5bfd 7e3e
000001e0: 74e7 1f3f 9e18 4c3e 26f9 f33d 573d 30be
000001f0: 4e9e 7d3f e38c 61be 09d5 fe3e 018c 843f
00000200: 72f3 893e 58b8 0a3f dd19 50bc e7fe 993e
00000210: d58e e13e f57c 743f 3bbd ff3e fa44 ed3e
00000220: 3776 95be 9fd3 ef3e 4313 32be 931c 77be
00000230: 2b61 683d 926e 95bd 845b be3e d142 89bd
00000240: 500a 8bbc 97a9 723d 78f1 d03e c93d a13e
00000250: 5c62 843e e568 d23e 7d60 543f 432e ca3e
00000260: 0147 52be 1ab3 3c3e 6eed aabe cd9a 2a3e
00000270: 8bfb ba3e 3adc 593b c82a ad3e c65e d4be
00000280: 4a98 85be c167 bbbd 9346 0b3e 7a3b c2be
00000290: e7f8 223f 7d7b 93be 3a34 75bf b359 663f
000002a0: 643f 3e3f 1cd7 733f 3275 093f ed7c a2bd
000002b0: 1453 05be 05dc b53e d8bb 04bc f597 c2be
000002c0: 1374 373f 46b9 2d3e 1268 d23e f369 563f
000002d0: c745 bf3d ca6a d8bc 4444 353f 10d4 a0bd
000002e0: 46c9 c83c 90c0 b13f b3d5 30bf 026b 6abf
000002f0: 921c 853e 0b2f 903f 56b7 403f bf69 36bf
00000300: d601 d93c f6ac 7a3e 3f09 ba3e 787a 3fbd
00000310: 414c 2e3b 7c38 acbd af8b 9bbe 147b 103f
00000320: 1fb6 4abd e182 083f 6cb3 b33e 8c72 e2bd
00000330: 7a46 77be 912d ebbd a605 d9be ab0f c53e
00000340: d24c 8cbe ab11 423e b269 72be 7c3b cdbc
00000350: 3ec1 c63d 4ffc 0bbd 0a7e e03d e977 0d3d
00000360: b75e a63e 6fa8 cd3c 735a 0bbe 015b 1c3e
00000370: b7c9 9c3d d3c2 0f3e db25 703e 2bac 50be
00000380: b2c1 0c3f 6897 aabd b5d6 1fbf 4268 aabe
00000390: 3d57 2d3f 418d a53c 5e4e af3b 8ca8 8abe
000003a0: 7edd 163f 4917 113d d1af 2a3d 4977 93be
000003b0: ac02 a53e 13b3 37be 2f1b 393e f255 3ebf
000003c0: 9629 adbe 4c28 d13d a0c2 653d aa70 653d
000003d0: 4300 e1be 8fb2 393e 702e edbd d017 cabe
000003e0: 4089 d03c 61bc cd3e fa4e cb3e 8053 12be
000003f0: 7c0c da3e 78f1 a0be c3a1 4e3e 8d4b 6bbe
0.052362934 0.7513491 0.34541786 0.301038 0.18772383 0.023041466 0.033998907 -0.32022256
-0.12888663 -0.5542019 -0.013920373 0.31383845 0.48545775 0.19744037 0.40947118 0.27421993
0.12015965 -0.36517677 0.8122097 -0.20395662 0.7982714 0.36685514 -0.26782963 -0.164801
0.17732668 0.20073962 0.5817266 -0.111012444 -0.18745154 0.19446598 -0.24948783 0.5838186
0.27853328 0.7099093 0.91780746 0.10599916 -0.81033385 0.14624831 -0.22441517 -1.7744213
0.035106424 -0.61435884 -0.4791157 0.99572784 0.049086396 0.37347847 -0.65562326 0.45171243
0.30817965 0.24973786 0.9575969 -0.24036439 0.95570505 -0.052283514 0.3051653 -0.32351184
0.94961745 0.48476374 -0.89071685 0.9437701 0.6313603 1.1730814 -0.8293014 0.123005755
0.036223594 0.51823705 0.18115923 0.44564462 0.20538226 -0.26023388 0.28078288 0.10626704
0.03860062 0.59213454 -0.33972663 0.6439768 -0.09591978 0.2681778 -0.5482777 0.3583338
-0.22297221 0.25667363 -0.17750528 0.4037478 0.21025851 0.35791445 0.27759165 0.3906842
0.59755915 0.036206163 -0.49954373 -0.047626443 0.89312726 0.22774 0.5054643 0.5205586
1.698517 -0.07297051 0.09045887 1.2671854 0.25029957 0.53607506 -0.1370257 -0.5583964
-0.38391638 0.080073506 -0.91707397 0.6418288 0.5555649 0.4574118 0.08655436 0.15468822
-0.62190205 0.16331416 -0.11269436 0.035888538 0.24233456 0.33663803 0.7019238 0.24901335
0.62462544 0.19931266 0.11912756 -0.172109 0.9906968 -0.220264 0.49771908 1.0355226
0.26943547 0.54187536 -0.012701479 0.30077288 0.44054285 0.9550317 0.4994906 0.46341687
-0.29191753 0.46841142 -0.1739016 -0.24131994 0.05673329 -0.0729648 0.37179196 -0.06702197
-0.01697269 0.059243765 0.40809226 0.3149245 0.25856292 0.41095653 0.8295973 0.3948842
-0.20534898 0.18427697 -0.3338427 0.16660614 0.36520037 0.0033242838 0.33821702 -0.41478556
-0.2609275 -0.09150649 0.1360114 -0.37936002 0.63661045 -0.28805152 -0.95782816 0.8998062
0.74315476 0.95250106 0.5369445 -0.07933984 -0.13019973 0.35519424 -0.008101426 -0.3800656
0.7166149 0.16965207 0.41095024 0.83755416 0.09339481 -0.026418108 0.7080729 -0.07852948
0.024510037 1.388689 -0.6907608 -0.9156953 0.2599836 1.1264356 0.7527975 -0.71255106
0.026490133 0.24480042 0.3633518 -0.046747655 0.0026595744 -0.08409211 -0.30380008 0.564378
-0.04949009 0.53324705 0.35097826 -0.11057004 -0.24147978 -0.114833005 -0.42387122 0.38488516
-0.2740236 0.18952052 -0.23673132 -0.025052778 0.09704827 -0.034176167 0.1096154 0.034538183
0.32494137 0.02510473 -0.13608722 0.1526909 0.076556616 0.14039163 0.2345194 -0.20378177
0.54983056 -0.0832966 -0.6243699 -0.33282667 0.6771124 0.020208957 0.0053499183 -0.27081716
0.5893172 0.035422597 0.041671578 -0.28801945 0.322286 -0.17939405 0.18076776 -0.7434989
-0.3382079 0.10212764 0.056093812 0.056015648 -0.43945512 0.18134521 -0.11581123 -0.39471292
0.02545607 0.40182784 0.39708692 -0.14289665 0.4258765 -0.31434226 0.20178895 -0.22978039

layers.1.mlp_edge_conv.gconv.convs.<stroke___ordered_next___stroke>.nn.0.bias f4 [64]
00000000: 7543 7dbe 9b4c e13d 29c1 dc3d 7ac0 3a3e
00000010: 743c 72bf 47a3 143e c137 37be 6040 7d3e
00000020: 2761 69be 6f6b c0be 548e 51be f43b 293e
00000030: f845 5f3d cebb 5dbf 5458 793e b5d2 4fbe
00000040: ebfb 73bf cf6d 10be 4735 47be 6b30 6bbe
00000050: 9529 b43d c0ca 3abe 32ee b1be d1da 9e3d
00000060: 1e66 0fbf 3e36 6ebe f0a4 993e 7cbe a63e
00000070: 5663 7dbf 6885 62be c651 073d 4b32 1c3d
00000080: 2893 37bd 1f7f e8be 0918 af3c b670 8f3e
00000090: b618 ad3e e5b8 3cbf 6963 bf3d 9352 f43d
000000a0: 67d6 eebe 3a82 113f 312f c0be 4ba7 8fbd
000000b0: 7e83 9fbe 27a5 fbbe 67cb 7bbe 62ca 023f
000000c0: 0dc1 7ebe 3a3a 68be 2e6e acbe b632 edbd
000000d0: 5ae8 6abd 8086 c93d b261 a3be 9d57 b93e
000000e0: b114 823e 7326 68bf c56f 593c ce92 67be
000000f0: 7ffb 9dbc 4e6c 333c fc91 0b3c c8c4 f2be
-0.24732764 0.110009395 0.1077903 0.18237486 -0.94623494 0.1451541 -0.17892362 0.24731588
-0.22790967 -0.37581965 -0.2046445 0.16526777 0.054510087 -0.8661469 0.24350101 -0.20295222
-0.9530627 -0.14104389 -0.19453917 -0.22967689 0.08796994 -0.18241405 -0.3475204 0.0775658
-0.56015193 -0.23262879 0.3000865 0.32567203 -0.989797 -0.22121203 0.03303697 0.0381339
-0.044818074 -0.45409486 0.021373766 0.2801568 0.33807915 -0.73719627 0.09345133 0.11929812
-0.4664795 0.56839335 -0.37536004 -0.070143305 -0.31155008 -0.4914944 -0.2458931 0.5109006
-0.2487833 -0.22678462 -0.3367781 -0.11581938 -0.057350494 0.09840107 -0.31910473 0.36199656
0.2540641 -0.9068367 0.013271277 -0.22614595 -0.019284962 0.010951115 0.008518692 -0.47415757

layers.1.mlp_edge_conv.gconv.convs.<stroke___connected_to___stroke>.nn.0.weight f4 [64, 64]
00000000: b02f 60bf bc1d a1be 7e34 e0be 7431 c8be
00000010: 3d6d 03be 8914 c7be e377 fd3e 9b82 f73c
00000020: c260 253f 2cdd e5bd 52fd f53e b6f2 223e
00000030: e68b f73e f73c 82be 0fae 463e 34ac 2bbf
00000040: c05d 95bd 4e5a e2bd dd72 4e3c d234 623e
00000050: a577 38be 3ab8 8fbe 4efe 9abc 62a6 bb3d
00000060: 75ca ddbe f65b 86be f618 9b3e 0438 81be
00000070: 152e 28bf a58a f0be 8a54 49bf 1c7e 13bd
00000080: b800 c93e e6af 02be 10cb d23e 2848 253f
00000090: 9406 c43e a091 edbe d901 99be 14e6 a0bc
000000a0: f5a1 8bbe 7901 6f3d ae85 84bf 7ada 413e
000000b0: 8696 a4bf 1f31 e03e 60f6 2abf 3156 913f
000000c0: 3e16 7d3f 16c2 1ebe 288f 55bf 6c52 f1be
000000d0: f77b 3c3c 017b 3f3e 44c6 4cbf 4d4f acbf
000000e0: e50e 143f 9db9 e8be 878b 9d3d ac56 e03e
000000f0: e4e1 8f3e 44d9 b93e 4e78 823e e5ba 4c3f
00000100: b25c 87be 4ee4 ecbe f092 aebe 6b16 b7be
00000110: e3ff afbe 4dcd 673e 01f3 e7bd 9d94 8cbf
00000120: 21ff 493e 88e6 96bf 07e8 31bd a20a 2cbf
00000130: cd1a 183f 4c93 23be 3c8c 793f 038d 5cbe
00000140: 1762 eb3d b9e2 9fbd 4a73 b1bc f643 cfbe
00000150: 8d94 8fbe 1cac a1bd b588 ab3e 9cf7 663e
00000160: 9012 99be e580 98be 42dc 56be 3c41 a6be
00000170: f501 00bf 2dc6 91bd 8eaf 57bf 4af9 e1be
00000180: 10f6 bbbe df37 8ebe cef7 02bf 07e0 14bf
00000190: 1f07 ff3e 2f9d 043f 2efb c83e 2745 1f3f
000001a0: ea13 963f 7855 8c3d 930b 3c3f 049b 01bf
000001b0: 4067 94bc 3080 04bf 3b8d c5bd 12fa cdbe
000001c0: 379a 293f cc39 413f e988 d2be 7446 8a3f
000001d0: 6279 13bf 1a95 90be c7f4 8ebd d1d7 27bf
000001e0: e3fd 35bf 552d 3a3f 2cf1 083f 62b1 1fbe
000001f0: d86c 61be 4f75 98be 9cfe a5be c9da 47bf
00000200: 003c 85be 497c bbbe 8a6e babe 194e 79be
00000210: 8971 8a3d f7eb 2fbd d956 80bc 261c dd3e
00000220: f6f9 b13e 8e4b 3f3d 9a3d b13d c180 b6be
00000230: f156 543d d7cd 4abe 0fbe a6be 6181 e2bd
00000240: 2453 98bd d7cd 403d 1023 98be c6bd 853e
00000250: a319 02bf 289b b6be 02bf b5bd 17f8 2ebd
00000260: 5e08 2abd c216 0e3c 62df 5f3e 58c0 5a3e
00000270: f084 5dbd cc3b b5be 0e62 babd 2579 4dbe
00000280: f6db 8dbf 4ad5 443c 9e46 5fbf e64d aabd
00000290: 6449 c0bd fc4d 2d3e d024 863d 334d 573c
000002a0: c332 e93e fb64 fe3c d14b 12bf 0a1b dabd
000002b0: 6cfe 56be f9eb 18be 0474 4f3e b95b 26bf
000002c0: 9e42 3d3e 5d16 3f3f 8381 09be 74fd e1be
000002d0: 2395 5cbf 4577 94be c8b1 f9bc 0195 eabe
000002e0: 5061 2bbf 0bc1 6dbe 774d 083f bf93 a0bd
000002f0: fe5d e2be bd59 ebbe 5a73 0cbe c957 aebe
00000300: f247 ff3e 73c5 9e3e a81a 473f 50c5 a7be
00000310: 5bd4 fcbe 22ac 97be 7524 a73d 0ab0 69bf
00000320: cca4 49be 6cc8 9dbe c690 523d 1532 99bd
00000330: c38e b3be 9fd5 b1be 5fd2 0d3f 968a 003f
00000340: 0660 bfbe 2a34 28be b388 2e3e 0bbd b1bc
00000350: 1bb6 8f3f 8ced 02bf 6a1d 8f3d c936 a03e
00000360: 3e3e b8bc 517b fbbc 066c 14bf cea0 2a3f
00000370: 85c1 f93d 4205 9e3e 3733 f6be 0d6f a2bd
00000380: 9b4d 043f 401f 7e3e 52d8 2640 4c5a d83b
00000390: 3ced 043d 16f0 e13e 869a fc3d fc55 a2bf
000003a0: 077c 01bf 2523 b9bc 5c49 27be 7e63 a53e
000003b0: cc1f efbc 601c 21be df17 d83d 1b0f ea3f
000003c0: 2d83 ab3e dc94 82be 909f e83f 4c0a fabd
000003d0: 6a27 e23f 3420 263e 073b 323f bf4c d4be
000003e0: 6886 c53d 39c8 a0be 3113 65bc 3de6 9e3f
000003f0: ae7c e6bc b2cc c43f 62c9 c9be 42cd b5bc
-0.87572765 -0.31467998 -0.43790048 -0.3910023 -0.1283464 -0.38882855 0.4950553 0.030213645
0.64600766 -0.11223826 0.4804483 0.159129 0.48348922 -0.25437137 0.19402336 -0.67059636
-0.07293272 -0.110523805 0.012600628 0.22090462 -0.18014391 -0.2807024 -0.01892009 0.091625944
-0.43318525 -0.26242036 0.3029248 -0.2523805 -0.65695316 -0.46980777 -0.7864462 -0.03600894
0.3925836 -0.12762412 0.4117055 0.64563227 0.3828627 -0.46400166 -0.29884222 -0.01964096
-0.27272 0.058351014 -1.0353296 0.18930998 -1.2858436 0.43787476 -0.6678219 1.1354429
0.98862064 -0.15503725 -0.83421564 -0.47133195 0.011504165 0.18699266 -0.7999003 -1.3461701
0.5783523 -0.45454112 0.07692628 0.43816125 0.28102028 0.36298573 0.2548241 0.7997268
-0.26437908 -0.46267933 -0.3409648 -0.3575929 -0.34374914 0.2263691 -0.11325646 -1.0982853
0.1972623 -1.1789103 -0.04343417 -0.67203724 0.59415895 -0.15974158 0.97479606 -0.21538167
0.114933185 -0.07806916 -0.02166142 -0.40481538 -0.28043023 -0.078941554 0.33502737 0.22555393
-0.29896975 -0.2978584 -0.20982459 -0.32471645 -0.50002986 -0.07117877 -0.8425225 -0.44135505
-0.36711168 -0.27777 -0.5115937 -0.5815434 0.4981012 0.51802343 0.39254135 0.62214893
1.1724827 0.06852239 0.7345516 -0.5062716 -0.01811564 -0.517581 -0.09646078 -0.4022985
0.6625094 0.75478816 -0.4112008 1.080275 -0.5760709 -0.28238755 -0.06980281 -0.65563685
-0.71090525 0.7272542 0.53493 -0.1559501 -0.22014177 -0.29777 -0.32420814 -0.78068215
-0.2602234 -0.3661826 -0.3641246 -0.24346198 0.06759936 -0.042949643 -0.015666412 0.43185538
0.34761018 0.046702914 0.08654328 -0.35645106 0.051840726 -0.19805084 -0.32566878 -0.11059833
-0.07437733 0.047071304 -0.2971425 0.26121348 -0.5082037 -0.3566525 -0.088743225 -0.042717066
-0.041511886 0.008672418 0.21862558 0.21362436 -0.054081857 -0.35397184 -0.09100734 -0.20065744
-1.1082752 0.012013743 -0.8721713 -0.08315639 -0.09388998 0.1692428 0.0654999 0.013140964
0.4554654 0.03105401 -0.57146937 -0.106496885 -0.20995492 -0.14933766 0.202591 -0.6498371
0.18482444 0.746435 -0.13428311 -0.44138682 -0.86165065 -0.28997245 -0.03048028 -0.45816806
-0.6694536 -0.23218171 0.532432 -0.0784068 -0.44212335 -0.45966902 -0.13715878 -0.3405135
0.49859577 0.31010017 0.7777505 -0.32767725 -0.49380764 -0.29623514 0.081612505 -0.9128424
-0.19691771 -0.30816972 0.051407598 -0.074802555 -0.35069856 -0.34733292 0.55399126 0.50211465
-0.37377948 -0.16426149 0.17044334 -0.021696588 1.1227449 -0.5114372 0.06988032 0.31291798
-0.022490617 -0.03069845 -0.5797733 0.6665162 0.12195114 0.30863386 -0.4808595 -0.079313375
0.51680917 0.24816608 2.6069531 0.006602561 0.032452807 0.44128484 0.123341605 -1.268249
-0.50579876 -0.022599766 -0.16336578 0.3230247 -0.029189967 -0.1573348 0.10551428 1.828586
0.33498517 -0.25504196 1.8173695 -0.12208995 1.7668278 0.16223222 0.6962132 -0.41464803
0.096447766 -0.31402758 -0.013981626 1.2414013 -0.028135624 1.5374968 -0.39411455 -0.022192601

layers.1.mlp_edge_conv.gconv.convs.<stroke___connected_to___stroke>.nn.0.bias f4 [64]
00000000: 9e54 3cbe 3513 04bf a916 3c3e 2f06 803e
00000010: 378b 92bf f4f4 c03d 68fb bfbe fdb1 0abe
00000020: 4f0f c63d fccd c33d e5ee 41bf 830a 3cbf
00000030: 6139 e1be 76ea f6be 1f01 7bbe 309f 09bf
00000040: 1279 05bf ed3e a03d 318e be3d ae15 e8be
00000050: 0b3f 0dbf a57f f03e 7a79 4bbf c03a 60bd
00000060: aac0 05bf c375 95bd 0872 f93c 718b 85bf
00000070: c23c 14bf d2d9 82bf 3a7a 84be fefc c33d
00000080: 983b 8f3e 7fb3 9f3e 82f8 103e 7734 8a3c
00000090: 5430 a13e 73b1 3bbf 8972 56bd c228 3e3e
000000a0: 8be5 edbe f73b c6bd c49f 00bf 4591 0abe
000000b0: 89bc a3bd 8b9f 35bf f953 7ebd 6435 bdbe
000000c0: 2c7c 6fbf 6e8b b5be 12f3 24bd 6620 bdbe
000000d0: edb4 6abe 192e 8dbe 9a5f 01bf a175 84bf
000000e0: 0ec3 c2be dd88 38bf 6919 1dbf 4e4d 82be
000000f0: 2e96 bbbe 9825 76be 49ab 9c3d 5b56 383c
-0.18391654 -0.5159181 0.18368019 0.25004718 -1.1448735 0.09421721 -0.37496495 -0.1354446
0.09670889 0.09560773 -0.7575515 -0.7345354 -0.4398909 -0.48225754 -0.24512146 -0.53758526
-0.52137864 0.07824502 0.093044646 -0.4532904 -0.5517432 0.46972385 -0.79482234 -0.05474353
-0.5224711 -0.07297852 0.030449882 -1.0433179 -0.5790521 -1.0222723 -0.258745 0.09569739
0.27975154 0.31191632 0.14157298 0.01687072 0.31482184 -0.7331764 -0.052355323 0.18570235
-0.4646419 -0.09679406 -0.50243783 -0.13531978 -0.079949446 -0.7094657 -0.0620918 -0.36954796
-0.93548846 -0.3545794 -0.040270872 -0.3693878 -0.2292058 -0.27574232 -0.505365 -1.0348397
-0.3803944 -0.72083837 -0.613669 -0.25449604 -0.36638016 -0.24037778 0.076498576 0.0112510575
