checkpoints/reduce_construction/graph_decoder.pth (torch, 44420 bytes, 5 tensors)

decoder.0.weight f4 [128, 64]
-0.5833244 -0.077728525 0.13726 0.1706562 -0.1765784 -0.0108417645 -0.47918928 -0.3725221
0.12331528 -0.40915823 0.66821545 -0.30479652 -0.5039996 -0.73353213 0.036287032 0.20591363
-0.52447957 -0.67325866 -0.11407545 0.9928075 0.36873937 -1.0547479 0.256777 -0.61462605
0.38157684 0.37031984 0.628372 -0.1440295 -0.49346837 0.28151572 0.60705066 -0.3551367
-0.08243953 -0.4903948 0.2283157 0.42276746 0.26277655 0.0065780943 0.118401766 -0.55308485
-0.19139652 0.27231398 1.1643926 0.08382625 0.45511293 0.058935914 -0.54766667 0.3190451
0.022857858 0.4324602 -0.814354 1.7915411 0.6384187 -0.8039977 0.027415443 0.4809013
0.6838643 0.55685985 -0.56885755 0.20110822 0.20670055 -0.5992016 -0.059988696 -1.6288173
-0.25569582 0.013736854 -0.14020903 0.051738385 -0.15093905 -0.29233828 -0.41223052 -1.8044714
-0.8844625 -0.39717504 -0.29976508 -0.57057244 0.15524738 -0.71003866 -0.462805 -0.3444818
-0.7641773 -0.29134476 0.7079834 0.10317327 0.17361248 -0.04528011 -0.40347472 -0.5172878
0.021452332 0.3168523 -0.71826935 -1.0704563 0.052600536 -1.0879555 0.6677667 -0.52625597
-0.15058103 0.35573134 -0.09603152 0.44752976 0.30718148 0.3248507 -0.38898093 0.33296576
0.30636263 0.29778546 -0.09901481 0.5421587 0.06266003 -0.4203386 0.20073126 -0.006422777
0.004306184 0.16125822 0.5242241 0.29754534 -0.2574053 -0.25306618 0.3537218 -0.7987779
-0.22697537 -0.058144238 -0.6623073 0.27023068 -1.0505911 -0.12965386 -0.27383798 0.51901716
-0.45772532 -0.16072915 -0.11930814 -0.41166303 0.79670614 -0.9951849 0.19624238 -0.19060196
-1.1942976 -0.45634508 0.109247714 0.834698 -0.82641 0.29315257 -0.43323278 0.0924344
0.45298567 -0.49049807 0.11449505 0.15537764 0.20389609 0.29011735 0.25432092 -0.07467405
0.013714335 -0.019134922 0.3058041 0.6149575 1.066256 -0.21496457 0.22781481 -0.48193452
-0.17065388 -0.040404133 -0.23759237 -0.7315579 0.030066997 0.4337044 0.21618791 -0.04534377
-0.56147146 -0.4496299 0.34946677 -0.803959 -0.48078498 -0.45320734 -0.40596023 -1.1856651
-0.06893094 0.07820524 0.15572144 0.27087906 0.4216542 -0.058955558 0.32135084 -0.023258302
-0.43827236 0.11324127 0.23525783 0.0117032705 0.5560097 -0.7610279 -0.79285234 0.5437042
-0.044594347 -0.2642524 0.31916937 -0.39857948 -0.058562685 0.6326008 -0.41284847 0.367078
0.35648647 0.41714454 0.37720302 0.4191096 -0.18135789 0.05452334 -0.24854772 0.089349926
-0.26435423 -0.4852087 -0.029234454 1.1797905 -0.8737879 0.48746592 -0.4234736 0.17950158
-0.6581449 -0.25034723 0.32001215 -0.005285943 -0.17566726 0.6104571 -1.1177611 0.1256246
0.31531456 -0.044504713 0.16645604 0.053915963 -0.682049 -0.12815319 -0.62231094 0.083420955
0.3085833 -0.30309826 0.68391186 0.27212736 -0.007829567 -0.11460435 -0.7656724 0.060017925
-0.83279794 -0.8836551 -0.16390876 -0.27557445 0.038660605 0.17125782 -0.0013827636 -0.099338
-0.8416425 0.088863604 -0.122515805 -0.08115843 0.5655671 -0.44908047 -0.11336666 -0.42990288
00000000: bf54 15bf 2230 9fbd e38d 0c3e 80c0 2e3e
00000010: f8d0 34be a8a1 31bc 4c58 f5be 37bb bebe
00000020: b98c fc3d 307d d1be 2b10 2b3f 4a0e 9cbe
00000030: 1e06 01bf c3c8 3bbf b6a1 143d 06db 523e
00000040: 4b44 06bf ae5a 2cbf 64a0 e9bd a228 7e3f
00000050: 68cb bc3e fb01 87bf 4678 833e 2258 1dbf
00000060: 0a5e c33e 909a bd3e fddc 203f 787c 13be
00000070: e3a7 fcbe d422 903e ac67 1b3f 7ad4 b5be
00000080: 0ed6 a8bd 0715 fbbe 97cb 693e fa74 d83e
00000090: a68a 863e 0e8d d73b a07c f23d f896 0dbf
000000a0: 73fd 43be bd6c 8b3e d10a 953f 19ad ab3d
000000b0: 9004 e93e c966 713d e233 0cbf e159 a33e
000000c0: 6740 bb3c 6c6b dd3e 8179 50bf 3851 e53f
000000d0: 686f 233f cbd2 4dbf 5a96 e03c b238 f63e
000000e0: bb11 2f3f 5e8e 0e3f a6a0 11bf 50ef 4d3e
000000f0: 4fa9 533e 4765 19bf b5b6 75bd 167d d0bf
00000100: 90ea 82be 8b10 613c f592 0fbe a1eb 533d
00000110: c48f 1abe 5dad 95be e10f d3be ebf8 e6bf
00000120: 226c 62bf 875a cbbe cf7a 99be 0911 12bf
00000130: 2bf9 1e3e 18c5 35bf c7f4 ecbe eb5f b0be
00000140: 20a1 43bf 242b 95be 663e 353f 824c d33d
00000150: 78c7 313e a377 39bd 3d94 cebe f96c 04bf
00000160: cdbc af3c 773a a23e 80e0 37bf b604 89bf
00000170: a973 573d 2042 8bbf c2f2 2a3f b6b8 06bf
00000180: ea31 1abe 6b22 b63e 2cac c4bd 9f22 e53e
00000190: e446 9d3e d552 a63e 8228 c7be 7d7a aa3e
000001a0: 90db 9c3e 5677 983e 47c8 cabd eaca 0a3f
000001b0: e753 803d 9f36 d7be 7f8c 4d3e 2976 d2bb
000001c0: e41a 8d3b e020 253e 8d33 063f dd57 983e
000001d0: a1ca 83be e491 81be 061b b53e b57c 4cbf
000001e0: 3b6c 68be a728 6ebd f98c 29bf ad5b 8a3e
000001f0: c579 86bf fbc3 04be 7e34 8cbe 4fde 043f
00000200: f95a eabe 2f96 24be d357 f4bd 7fc5 d2be
00000210: eff4 4b3f 70c4 7ebf c3f3 483e 292d 43be
00000220: bede 98bf 10a6 e9be 44bd df3d c5ae 553f
00000230: 9b8f 53bf 1818 963e b0d0 ddbe 3f4e bd3d
00000240: bded e73e 9022 fbbe 617c ea3d 511b 1f3e
00000250: 23ca 503e 438a 943e 5a36 823e b5ee 98bd
00000260: 17b2 603c d7c0 9cbc 5b92 9c3e db6d 1d3f
00000270: 147b 883f ac1f 5cbe 4948 693e 1fc0 f6be
00000280: e4bf 2ebe ce7e 25bd 6a4b 73be 6147 3bbf
00000290: 104f f63c 810e de3e 5d60 5d3e 64ba 39bd
000002a0: 98bc 0fbf e435 e6be 4fed b23e 42d0 4dbf
000002b0: 7329 f6be cb0a e8be 05da cfbe e0c3 97bf
000002c0: aa2b 8dbd 122a a03d 7175 1f3e a9b0 8a3e
000002d0: 0fe3 d73e 627b 71bd 1988 a43e 3288 bebc
000002e0: 3c65 e0be 0aeb e73d 6ee7 703e 13bf 3f3c
000002f0: a756 0e3f b9d2 42bf 5ff8 4abf 3330 0b3f
00000300: 90a8 36bd 174c 87be 2b6a a33e 9c12 ccbe
00000310: 6ddf 6fbd 20f2 213f e060 d3be a6f1 bb3e
00000320: 6585 b63e f893 d53e c120 c13e 8995 d63e
00000330: e2b5 39be de53 5f3d 4b83 7ebe 18fd b63d
00000340: 7059 87be 466d f8be 187d efbc 6003 973f
00000350: 90b0 5fbf 2295 f93e 88d1 d8be 43cf 373e
00000360: 2f7c 28bf 832d 80be a2d8 a33e b435 adbb
00000370: 1ee2 33be eb46 1c3f cc12 8fbf bca3 003e
00000380: e970 a13e 934a 36bd 7473 2a3e fcd6 5c3d
00000390: c39a 2ebf 973a 03be c54f 1fbf 9bd8 aa3d
000003a0: a1fe 9d3e b22f 9bbe d914 2f3f 4754 8b3e
000003b0: 9647 00bc afb5 eabd 1b03 44bf 5bd5 753d
000003c0: 3f32 55bf 3837 62bf b3d7 27be 1818 8dbe
000003d0: 955a 1e3d 365e 2f3e d93d b5ba b971 cbbd
000003e0: e275 57bf 1ffe b53d 91e9 fabd 6436 a6bd
000003f0: 01c9 103f e0ed e5be c82c e8bd 3b1c dcbe

decoder.0.bias f4 [128]
0.41072223 0.08831973 -1.0912309 0.26283798 -0.11953492 0.004763924 0.27266625 -0.87491214
-1.2304542 -1.2056718 -0.0084145805 -0.9260661 -0.15536311 0.23568314 -0.66311425 0.15065558
-0.10192692 -0.6412433 -0.259184 -0.44389594 -1.4526299 -0.413573 -0.3263049 -0.20382263
-0.13062304 0.3590746 0.27281323 0.23577903 0.113339595 0.40232635 -0.17855097 -0.18715653
0.2935963 0.22138324 0.2221314 -0.3642138 0.22771606 -0.17331508 -0.37449443 0.03338016
0.09902749 -0.12562194 -0.11817297 -0.48870713 -0.17074037 0.099150226 -0.065035306 0.12930118
0.1649754 0.4115446 -0.22222254 -0.21274929 -0.10182041 0.13192165 -0.7134088 0.18680564
-1.1381006 -1.2538401 0.013440368 -0.107556984 0.053793076 -0.9271044 -0.1935035 -0.080763966
-0.29373473 -0.031072028 -0.2470302 0.110936135 0.2312512 -0.87612975 -0.8806513 0.31731343
-0.69116217 -0.51113546 -0.473564 0.33907607 0.2562968 0.1504357 -0.6064635 -0.24279006
-0.25648734 0.08252585 -0.29336128 -0.3827723 0.2084477 0.026068177 0.30612403 -0.03515875
0.077063 -0.22778152 -0.27507648 0.07525615 0.4689527 -1.3691438 -0.8866194 -1.1145626
0.14092864 0.06950184 0.32233027 -0.20337826 -1.3219429 -0.14450586 -0.8813962 0.02307718
-0.43596438 0.011686092 -0.35839388 -0.10912828 -1.177779 -0.3251701 -0.5233784 -0.21487193
-0.3315658 -0.092786975 -0.92835605 -0.16250095 0.16748835 -0.38205332 0.31755784 -0.059599247
-0.86662984 -0.16338293 0.27487263 0.07046823 0.16823968 -0.1594043 -0.5320236 0.2723898
00000000: 2f4a d23e f9e0 b43d 74ad 8bbf b392 863e
00000010: b9ce f4bd b11a 9c3b e99a 8b3e 3efa 5fbf
00000020: 867f 9dbf 7453 9abf 4fdd 09bc ab12 6dbf
00000030: 8217 1fbe ec56 713e dbc1 29bf 7545 1a3e
00000040: 10bf d0bd 8528 24bf c4b3 84be 5446 e3be
00000050: c7ef b9bf d7bf d3be 7011 a7be e1b6 50be
00000060: 0cc2 05be a0d8 b73e 2dae 8b3e 0f70 713e
00000070: 971e e83d b8fd cd3e 11d6 36be f6a5 3fbe
00000080: 4152 963e 4ab2 623e 6a76 633e 3b7a babe
00000090: 662e 693e 8279 31be bcbd bfbe a2b9 083d
000000a0: edce ca3d 0aa3 00be ac04 f2bd d237 fabe
000000b0: 90d6 2ebe 460f cb3d 3b31 85bd 8767 043e
000000c0: 50ef 283e f9b5 d23e 4e8e 63be f3da 59be
000000d0: 3887 d0bd 7816 073e f6a1 36bf fa49 3f3e
000000e0: 48ad 91bf d57d a0bf fd34 5c3c d646 dcbd
000000f0: 2156 5c3d b756 6dbf c825 46be 9467 a5bd
00000100: 6664 96be c48a febc 7cf5 7cbe 7c32 e33d
00000110: 1dcd 6c3e 0a4a 60bf 5d72 61bf e876 a23e
00000120: 01f0 30bf c6d9 02bf fb76 f2be 619b ad3e
00000130: 5639 833e d10b 1a3e 3141 1bbf f59d 78be
00000140: 4f52 83be 5003 a93d 7333 96be bbfa c3be
00000150: 5073 553e ee8c d53c 4abc 9c3e 9f02 10bd
00000160: 35d3 9d3d 8f3f 69be d3d6 8cbe e51f 9a3d
00000170: 911a f03e 1b40 afbf 7df9 62bf fda9 8ebf
00000180: 994f 103e fb56 8e3d 7908 a53e 6442 50be
00000190: 6d35 a9bf 58f9 13be 2ea3 61bf 5b0c bd3c
000001a0: b936 dfbe 0677 3f3c 677f b7be a67e dfbd
000001b0: 76c1 96bf b27c a6be 20fc 05bf 6307 5cbe
000001c0: fec2 a9be 1907 bebd bea8 6dbf a666 26be
000001d0: 1182 2b3e 7e9c c3be f196 a23e 571e 74bd
000001e0: 74db 5dbf db4d 27be 1bbc 8c3e a651 903d
000001f0: 0647 2c3e e13a 23be b332 08bf ad76 8b3e

decoder.3.weight f4 [16, 128]
-1.2732372 1.074351 -0.5162978 0.23069747 -0.112799235 -0.3846806 -0.07781753 -0.7254564
-0.19200672 -0.3838904 -1.5161697 -0.5995606 0.4506486 0.06147924 -0.33319917 -1.1172117
0.24806295 -0.39850864 0.620933 0.36593184 0.018729858 1.0133716 -0.5548677 0.019430429
0.10482351 0.21533418 0.2436774 -1.8574022 -0.14552143 -1.1301082 0.0039963806 -0.2562077
-0.80248183 0.8220201 -0.20778726 0.82127106 -0.83409196 -1.033819 -0.15175916 -0.30482233
-0.6966616 -0.1296648 0.06333066 0.0001290509 -0.07396701 0.46211138 -1.4412363 0.71809614
-1.3976349 -1.5070581 -0.11454653 -0.66586643 0.05856854 0.16385998 -0.24208175 0.29472756
-0.5634344 -0.16521232 0.5927656 0.0625427 -0.06041583 -0.067338765 -0.020580318 0.028887618
0.5733698 0.03325379 -0.2784907 -0.71628153 -1.1881434 -0.7185588 -0.39785144 0.20984901
-0.58738285 -0.267958 -0.8359153 0.28812212 -0.21702778 -0.66859794 -0.47968346 0.18538204
-0.57404387 -0.77966547 1.0003198 -1.1337461 0.30560738 0.065118715 0.60334706 0.49375108
0.21591917 0.64405316 -0.17673063 -0.23508276 -0.9377324 -1.002771 -0.41676053 -0.6086021
-0.94270104 0.5639886 0.3791987 0.043389887 -0.60605246 -0.08061164 -1.0871245 -1.3376094
0.49039918 -0.011123793 -0.70784026 0.24718675 -0.08081149 -0.44130433 0.31060645 1.0291383
0.49977028 -0.1078356 -1.1927419 0.01812323 -0.9595478 0.6585226 -0.8777621 0.0028364696
-0.50508523 -0.012885252 0.49395883 -0.8686778 -1.2856243 0.053082503 -0.06042613 -0.121047415
-1.159308 0.7274251 -0.7733527 -0.021010509 0.18900064 -0.0454676 0.6375881 -0.6335352
-0.87780553 -0.6409561 -0.93340296 -0.39318925 0.32764953 0.5504848 -0.32488453 -0.55480564
0.40615818 -0.28896943 0.60736126 0.51438683 -1.4662535 -0.024737725 -0.88801855 0.016653528
-0.050908778 0.058482926 0.59006196 -1.3028163 -1.3375612 -1.0177015 -0.01155292 -0.22778733
-0.8249386 0.50269926 -0.3320834 0.11471696 -0.8464031 -1.3106439 0.34859833 0.25200745
-0.3676519 -0.028657861 0.03575987 -0.121654995 0.010290226 -0.33387968 -0.96425045 0.52636987
-1.6131111 -1.0575768 -0.05939509 -0.24002597 -0.048825663 -0.21999504 1.5814097 -0.19830643
-0.7105201 -0.23563632 -0.025295889 0.07417636 -0.026120583 -0.84493095 -0.79741406 -0.027197346
0.04255878 -0.031155642 0.398541 -0.5280307 -0.78634924 -0.9735685 0.3165184 -0.42549422
0.14010835 -0.5266889 0.16291799 -0.06472871 -0.66281533 -0.8869318 0.1009549 0.27176553
-0.97003853 -1.4190738 0.25894907 -0.18207759 0.14512907 -0.0379275 0.15593539 0.37987033
0.56763834 -0.32944515 -0.81546855 -0.50588715 -1.5563279 -0.37727532 -0.023233678 -0.1645324
-1.1254748 0.24159238 -1.0398536 -0.0851334 0.4291771 -0.052531514 -0.45752406 -1.4111805
-0.5544064 -0.4803619 0.22298229 0.3792497 -0.7006639 0.83184224 0.42073193 -0.46820372
0.27131167 -0.058321826 -0.48484224 -0.07047748 -1.7494869 0.5493363 -0.6768417 -0.0472585
-0.97331977 0.051923778 0.31084684 -1.37519 -1.0128382 -0.011257215 -0.36896288 -0.5238878
00000000: 70f9 a2bf 5584 893f 182c 04bf f53b 6c3e
00000010: 4903 e7bd dbf4 c4be cc5e 9fbd 83b7 39bf
00000020: 699d 44be 488d c4be d911 c2bf ce7c 19bf
00000030: 6abb e63e a8d1 7b3d 1599 aabe cb00 8fbf
00000040: 3704 7e3e 5309 ccbe 77f5 1e3f 6b5b bb3e
00000050: 5c6f 993c 29b6 813f cf0b 0ebf 902c 9f3c
00000060: b5ad d63d 9080 5c3e 9186 793e 5bbf edbf
00000070: 9203 15be 63a7 90bf 12f4 823b a82d 83be
00000080: 736f 4dbf e96f 523f 2fc6 54be d23e 523f
00000090: 0d87 55bf 2e54 84bf c166 1bbe ac11 9cbe
000000a0: 6a58 32bf d9c6 04be 81b3 813d d651 0739
000000b0: 047c 97bd dd99 ec3e 6e7a b8bf 26d5 373f
000000c0: b3e5 b2bf 48e7 c0bf 5f97 eabd 3976 2abf
000000d0: 91e5 6f3d e9ca 273e 47e4 77be 88e6 963e
000000e0: 3d3d 10bf 6b2d 29be 7dbf 173f 6316 803d
000000f0: 9776 77bd e8e8 89bd 0e98 a8bc baa5 ec3c
00000100: 5dc8 123f 2035 083d 5596 8ebe 3a5e 37bf
00000110: 1515 98bf 78f3 37bf 2fb3 cbbe a9e2 563e
00000120: b95e 16bf ca31 89be 8cfe 55bf be84 933e
00000130: 883c 5ebe 3c29 2bbf 1299 f5be cad4 3d3e
00000140: 8af4 12bf 2898 47bf 7b0a 803f 981e 91bf
00000150: 9278 9c3e f65c 853d f474 1a3f f1cc fc3e
00000160: ea19 5d3e abe0 243f e0f8 34be 89b9 70be
00000170: 3b0f 70bf cd5a 80bf a361 d5be 59cd 1bbf
00000180: db54 71bf 8f61 103f 5526 c23e 98b9 313d
00000190: 4126 1bbf b717 a5bd e526 8bbf c936 abbf
000001a0: 9a15 fb3e 9240 36bc 0535 35bf 861e 7d3e
000001b0: 7f80 a5bd a4f2 e1be cf07 9f3e ceba 833f
000001c0: e4e1 ff3e e9d8 dcbd c4ab 98bf 2b77 943c
000001d0: eda4 75bf f094 283f 04b5 60bf 10e4 393b
000001e0: 444d 01bf aa1c 53bc 2ce8 fc3e ab61 5ebf
000001f0: 568f a4bf 0a6d 593d 6481 77bd b5e7 f7bd
00000200: 3464 94bf 8838 3a3f 71fa 45bf 3b1e acbc
00000210: 6289 413e 3c3c 3abd f938 233f 5d2f 22bf
00000220: ddb7 60bf b315 24bf 7ff3 6ebf 1a50 c9be
00000230: aec1 a73e 92ec 0c3f 4457 a6be be07 0ebf
00000240: f7f3 cf3e cdf3 93be 077c 1b3f dbae 033f
00000250: 32ae bbbf c5a6 cabc 2f55 63bf fb6c 883c
00000260: b985 50bd cb8b 6f3d 4d0e 173f afc2 a6bf
00000270: 3535 abbf 0b44 82bf 7548 3dbc 1541 69be
00000280: 2d2f 53bf e6b0 003f d606 aabe baf0 ea3d
00000290: e0ad 58bf 2ec3 a7bf 7b7b b23e 1f07 813e
000002a0: df3c bcbe e4c3 eabc f178 123d 4126 f9bd
000002b0: 5698 283c 47f2 aabe 1ed9 76bf 2dc0 063f
000002c0: 6d7a cebf ad5e 87bf 4448 73bd 5ec9 75be
000002d0: 6bfd 47bd 6146 61be a26b ca3f d710 4bbe
000002e0: a5e4 35bf a64a 71be 5339 cfbc c7e9 973d
000002f0: d5fa d5bc 654d 58bf 5423 4cbf f8cc debc
00000300: 1e52 2e3d 1e3a ffbc 910d cc3e 052d 07bf
00000310: 2f4e 49bf c93b 79bf b30e a23e 61da d9be
00000320: 9078 0f3e 15d5 06bf f9d3 263e 7c90 84bd
00000330: 44ae 29bf f60d 63bf 71c1 ce3d da24 8b3e
00000340: 7254 78bf 36a4 b5bf f994 843e 8c72 3abe
00000350: b79c 143e de59 1bbd 87ad 1f3e 5d7e c23e
00000360: bf50 113f 09ad a8be 8cc2 50bf d281 01bf
00000370: c135 c7bf 3b2a c1be 8e54 bebc 2e7b 28be
00000380: 8f0f 90bf fe63 773e ec19 85bf 6c5a aebd
00000390: 1abd db3e 492b 57bd 9840 eabe 90a1 b4bf
000003a0: 94ed 0dbf fff1 f5be 7855 643e 042d c23e
000003b0: b65e 33bf 9df3 543f 2d6a d73e 66b8 efbe
000003c0: 5de9 8a3e dee2 6ebd 3e3d f8be 7f56 90bd
000003d0: 30ef dfbf 4ea1 0c3f 7f45 2dbf 2192 41bd
000003e0: 7c2b 79bf 07ae 543d 5127 9f3e 3a06 b0bf
000003f0: afa4 81bf 2f70 38bc b4e8 bcbe 831d 06bf

decoder.3.bias f4 [16]
0.6369438 0.048623957 0.7857857 0.44903854 0.0063054767 0.0200585 -1.104415 0.45966506
0.23362167 0.34911662 0.94171643 1.1451515 0.3688845 0.6951336 -0.46073332 0.47811878
00000000: c00e 233f ea29 473d 4029 493f 61e8 e53e
00000010: 2c9e ce3b b951 a43c 795d 8dbf 3859 eb3e
00000020: 853a 6f3e 6abf b23e 5414 713f 5394 923f
00000030: 6ede bc3e 47f4 313f 3de5 ebbe fccb f43e

decoder.5.weight f4 [1, 16]
-1.1888056 -0.5205799 0.9679898 -1.2740711 -0.2934538 0.8521216 0.24275535 -0.84363383
-1.0461582 -1.3378013 0.7338015 0.5205207 -1.0245571 0.407721 -0.5750191 1.1593653
00000000: c82a 98bf b944 05bf 2ece 773f c314 a3bf
00000010: 943f 96be a424 5a3f dc94 783e 63f8 57bf
00000020: 83e8 85bf 133d abbf 6ada 3b3f d840 053f
00000030: b024 83bf cfc0 d03e 7434 13bf 1566 943f
