checkpoints/reduce_construction/graph_decoder.pth (torch, 44420 bytes, 5 tensors)

decoder.0.weight f4 [128, 64]
0.10477784 0.11831373 -0.18689807 0.62650025 -0.012672296 0.2397112 0.37581977 -0.29830608
0.6638812 -0.27238536 -0.037892554 -0.24184458 -0.5887474 0.06683721 -0.018838134 -0.14404568
-0.0027373668 -0.20456155 0.756197 -0.33866745 0.057798546 -0.36366272 0.44718802 -0.053857174
-0.11678591 0.41283453 0.3195628 0.20036773 -1.1607262 0.31174055 0.48845637 0.16783161
0.46801683 -0.38185948 -0.7827087 -0.2319417 -0.1156427 0.036548436 -0.7187237 0.5064737
0.27206177 -0.39200565 0.21489815 -0.4049347 0.39051878 -0.3279061 -0.39216948 -0.006862905
-1.0560516 0.18153064 -0.28258148 -1.152384 0.75470203 -0.23130696 0.5110327 -0.09220389
0.2952567 0.2009046 -0.33740044 0.055187102 -0.48211926 0.54048866 0.5795649 -0.029233485
-0.30111355 -0.51359975 -0.49650094 -0.420779 -1.030177 -0.4661582 -0.23842807 0.3971724
0.5228608 -0.15816033 -0.14173049 0.08138089 0.005393241 -0.31438804 -0.0048584295 0.02664574
0.060158744 0.2858627 -1.2013597 -0.09504955 0.32787502 0.2235759 -0.46544397 -0.08093921
0.53912884 0.05350547 -0.60102445 0.1608389 -0.3135846 0.5640379 -0.13953277 -0.40266043
-0.33375952 -0.11011207 -0.008922504 0.3516148 -0.8744078 0.2602922 -0.61269975 -0.28527272
-0.3565353 -0.2727141 0.34768105 0.2825796 0.0074332827 -0.5895042 -0.11962641 0.93508196
-1.15611 -0.21017504 -0.07715617 0.13519782 0.28851965 -0.0686634 0.45844778 -0.39715263
-0.607864 -1.2789559 0.054496486 0.013212245 -0.43966073 0.21438934 0.49405962 -0.88316023
-0.06359314 -0.26425564 -0.3117699 -0.15115641 0.00088470726 -0.3768592 -0.08664968 -0.25168827
0.0752116 0.23361179 -0.017553953 -0.20895132 0.20361409 -0.06968527 -0.2668945 -0.21397038
0.08994018 -0.33430538 0.029367689 0.056104414 -0.14990479 -0.18838455 0.1133919 -0.31681913
-0.35513544 0.014479109 0.06490824 0.14956056 -0.21160229 -0.4272469 0.080347784 -0.28421587
0.02495976 -0.09017125 0.051350478 -0.10600099 -0.17423838 -0.022001194 -0.0028868886 0.032706186
-0.11625221 -0.30741838 -0.2802237 -0.14256942 -0.079904 -0.25439158 -0.11634677 -0.20180166
-0.32687655 0.080772154 -0.08663954 -0.27306053 -0.031539325 -0.011753097 0.05789851 -0.35580528
-0.23891073 -0.0055910964 -0.0130462805 -0.17310292 -0.09721619 0.3211482 0.034555726 0.27978444
-0.54340065 0.2544013 0.09864919 0.59914476 0.22902969 0.20323665 -0.0629574 -0.40461618
0.677697 -0.85432106 -0.66360044 0.3389794 0.36065298 0.85813683 -0.84220046 -0.20861666
-0.38857093 0.20488614 0.31664073 0.09351308 -0.31415728 -0.097615026 0.30406412 -0.04294224
-0.00874358 0.6135917 0.5484709 -0.31692028 -0.53401524 0.37146747 0.23927975 0.26217476
0.28451943 -1.1983554 -0.45887712 -0.8484478 -0.31686124 0.19434814 -0.04715932 -0.86350745
0.15813564 -0.3264254 0.16052206 0.06302446 0.2664177 -0.52890366 -0.1319887 0.23556258
-0.059434064 0.2770481 0.2880638 -0.22327995 -0.8987681 -1.3638626 -0.562603 0.13801685
0.24571075 0.07367869 -1.004141 -0.14095542 -0.30562523 0.3498866 0.48414508 -0.5869427
00000000: c495 d63d 784e f23d 3562 3fbe 5262 203f
00000010: 769f 4fbc da76 753e 736b c03e 93bb 98be
00000020: 1ef4 293f 1876 8bbe 3935 1bbd 1ba6 77be
00000030: 26b8 16bf f2e1 883d 6e52 9abc b680 13be
00000040: 6565 33bb 9578 51be 2096 413f d265 adbe
00000050: 2bbe 6c3d 0032 babe d4f5 e43e 5799 5cbd
00000060: 742d efbd 0c5f d33e bc9d a33e 332d 4d3e
00000070: ad92 94bf 759c 9f3e f416 fa3e 0ddc 2b3e
00000080: e79f ef3e 1683 c3be 995f 48bf 2082 6dbe
00000090: 14d6 ecbd d0b3 153d 47fe 37bf 43a8 013f
000000a0: ae4b 8b3e f7b4 c8be 430e 5c3e 9a53 cfbe
000000b0: 14f2 c73e 4fe3 a7be 70ca c8be 38e2 e0bb
000000c0: b32c 87bf 2be3 393e 85ae 90be 5281 93bf
000000d0: 2734 413f bbdb 6cbe 0ad3 023f 65d5 bcbd
000000e0: e32b 973e efb9 4d3e c0bf acbe df0b 623d
000000f0: 56d8 f6be 775d 0a3f 5e5e 143f 107b efbc
00000100: 8e2b 9abe 467b 03bf 5f35 febe 5870 d7be
00000110: d7dc 83bf 4aac eebe 7d26 74be 2e5a cb3e
00000120: 35da 053f c8f4 21be cc21 11be 06ab a63d
00000130: c9b9 b03b 78f7 a0be 7633 9fbb 2b48 da3c
00000140: 0469 763d 995c 923e 28c6 99bf 57a9 c2bd
00000150: 3cdf a73e 15f1 643e ac4e eebe 75c3 a5bd
00000160: 5904 0a3f 8d28 5b3d bddc 19bf f4b2 243e
00000170: 298e a0be ca64 103f aee1 0ebe 8229 cebe
00000180: 87e2 aabe 7082 e1bd b22f 12bc db06 b43e
00000190: 31d9 5fbf 0545 853e e4d9 1cbf 440f 92be
000001a0: cb8b b6be 2fa1 8bbe 4003 b23e 46ae 903e
000001b0: e592 f33b bfe9 16bf b1fe f4bd 8861 6f3f
000001c0: 6afb 93bf 2038 57be 0e04 9ebd 4c71 0a3e
000001d0: d9b8 933e 669f 8cbd abb9 ea3e 9757 cbbe
000001e0: fa9c 1bbf d4b4 a3bf b537 5f3d 2c78 583c
000001f0: 361b e1be e188 5b3e 62f5 fc3e ca16 62bf
00000200: 1f3d 82bd 844c 87be 4ea0 9fbe bfc8 1abe
00000210: b3eb 673a b0f3 c0be 6375 b1bd 49dd 80be
00000220: 8a08 9a3d ee37 6f3e 4fcd 8fbc 56f7 55be
00000230: 3680 503e 27b7 8ebd 65a6 88be 0d1b 5bbe
00000240: 8f32 b83d 132a abbe 8294 f03c becd 653d
00000250: a480 19be e1e7 40be 033a e83d 1e36 a2be
00000260: 50d4 b5be c939 6d3c 9dee 843d 6726 193e
00000270: 45ae 58be 1bc0 dabe 618d a43d be84 91be
00000280: 6978 cc3c b4ab b8bd e154 523d 0c17 d9bd
00000290: 8c6b 32be d93b b4bc f431 3dbb ecf6 053d
000002a0: a415 eebd f165 9dbe 7b79 8fbe b8fd 11be
000002b0: b5a4 a3bd 9d3f 82be 3747 eebd 18a5 4ebe
000002c0: 5d5c a7be df6b a53d 1270 b1bd 97ce 8bbe
000002d0: 612f 01bd 1090 40bc fd26 6d3d 1c2c b6be
000002e0: 04a5 74be 8435 b7bb 11c0 55bc e441 31be
000002f0: 4819 c7bd 896d a43e 4e8a 0d3d e83f 8f3e
00000300: 4e1c 0bbf e340 823e 9608 ca3d 8d61 193f
00000310: c286 6a3e 451d 503e cfef 80bd da29 cfbe
00000320: 8d7d 2d3f c9b4 5abf b8e1 29bf b58e ad3e
00000330: 82a7 b83e dbae 5b3f 739a 57bf 9b9f 55be
00000340: c5f2 c6be accd 513e bc1e a23e c983 bf3d
00000350: 39d9 a0be 63ea c7bd 4bae 9b3e 34e4 2fbd
00000360: 3c41 0fbc 5814 1d3f 9768 0c3f 6043 a2be
00000370: 39b5 08bf fc30 be3e c005 753e c53b 863e
00000380: 88ac 913e b663 99bf f1f1 eabe e033 59bf
00000390: a33b a2be 3303 473e 222a 41bd d30e 5dbf
000003a0: 4fee 213e 3b21 a7be e55f 243e f812 813d
000003b0: e767 883e 3b66 07bf 0c28 07be 5137 713e
000003c0: 2271 73bd 40d9 8d3e 197d 933e 80a3 64be
000003d0: ab15 66bf 0d93 aebf c006 10bf 4a54 0d3e
000003e0: 999b 7b3e dae4 963d b187 80bf 9e56 10be
000003f0: e97a 9cbe 5624 b33e dde1 f73e e041 16bf

decoder.0.bias f4 [128]
-1.0480634 0.06232336 -0.605727 0.28431103 -0.9725392 -0.0016857185 -0.20146653 0.0360944
-0.60722923 0.040813312 0.47228947 -1.2117975 0.30623296 -0.17556563 0.26328385 -0.13326113
-1.1160768 0.1568496 -1.5335392 0.20683737 -0.2964876 -0.29724714 -0.03853612 -0.18863918
-0.15538529 -0.63793415 -0.0727062 -0.14656712 -0.63921756 0.42726856 0.11525281 0.10727054
0.110882685 0.19260794 -0.95554763 0.12170595 -0.2197703 -1.0098286 -0.41545424 0.08381239
-0.98671037 0.0465047 -0.17196767 -0.19429629 0.17334522 0.3692181 -0.836577 -0.427859
-0.1831152 -0.39230403 0.33838308 -0.53396904 0.5409303 0.18979238 0.7642371 -0.22768375
-0.42375943 -0.96292484 -1.3271357 0.11637904 0.39462867 -0.6343492 -1.120954 0.07090091
0.26386 -0.18560614 0.30211174 -0.31494743 -0.32446975 -1.231218 -1.1752951 0.05611437
-0.14567102 0.12723401 -0.15099429 -1.1376206 -0.51360524 0.044411264 -0.59901786 -1.2581725
-0.37993848 0.29797637 -0.14795236 -0.9572464 -0.25721943 -0.063260205 -0.35616386 0.20937595
0.22735953 -0.1640067 -0.17099704 -0.23132928 -0.0018636674 -0.4873294 0.05533789 -0.15697981
-0.32239738 -0.23111111 0.162161 0.4689237 -0.373879 -0.18212746 0.3685953 0.043937866
0.5613687 0.04434416 -0.16398494 -1.3706082 -0.16474207 -0.17339669 0.09104591 -0.5515976
-0.2451983 -0.06837991 0.29620773 0.10512752 0.0007907765 -0.43111885 -0.09185786 -0.48618594
0.025953881 -0.67136085 0.31992903 -0.81296086 -0.9527738 -0.13049488 0.15394269 -0.18981507
00000000: f126 86bf c846 7f3d ed10 1bbf 3791 913e
00000010: 54f8 78bf 54f3 dcba 3e4d 4ebe b9d7 133d
00000020: 6073 1bbf dc2b 273d edcf f13e 2e1c 9bbf
00000030: 91ca 9c3e 7ac7 33be 24cd 863e 9b75 08be
00000040: 9bdb 8ebf 2e9d 203e 034b c4bf 2dcd 533e
00000050: 39cd 97be c730 98be 0dd8 1dbd a12a 41be
00000060: 521d 1fbe a74f 23bf fde6 94bd b115 16be
00000070: c3a3 23bf f2c2 da3e aa09 ec3d a8b0 db3d
00000080: 7616 e33d 043b 453e c59e 74bf f840 f93d
00000090: 770b 61be 1042 81bf 6bb6 d4be d5a5 ab3d
000000a0: 0d99 7cbf b67b 3e3d 4b18 30be 9bf5 46be
000000b0: 6981 313e 280a bd3e e929 56bf 5610 dbbe
000000c0: 8d82 3bbe 13dc c8be 8c40 ad3e 32b2 08bf
000000d0: 687a 0a3f ef58 423e 0ba5 433f ee25 69be
000000e0: fff6 d8be 3e82 76bf 95df a9bf 2258 ee3d
000000f0: c50c ca3e b664 22bf 6c7b 8fbf 7f34 913d
00000100: a818 873e 890f 3ebe 64ae 9a3e ca40 a1be
00000110: e620 a6be 8d98 9dbf 1270 96bf 2ed8 653d
00000120: c92a 15be a249 023e 3f9e 1abe 8d9d 91bf
00000130: a27b 03bf 96e8 353d 3c59 19bf cc0b a1bf
00000140: 4c87 c2be 5c90 983e d380 17be 1a0e 75bf
00000150: 44b2 83be 918e 81bd 1c5b b6be a666 563e
00000160: f0d0 683e 5ff1 27be d919 2fbe 95e1 6cbe
00000170: 4d46 f4ba 3d83 f9be fca9 623d 51bf 20be
00000180: 4511 a5be 64a8 6cbe 880d 263e c416 f03e
00000190: 116d bfbe 9f7f 3abe 86b8 bc3e 31f8 333d
000001a0: dcb5 0f3f 39a2 353d abeb 27be 1770 afbf
000001b0: 25b2 28be e78e 31be 4776 ba3d 8035 0dbf
000001c0: 4315 7bbe c40a 8cbd 8aa8 973e 194d d73d
000001d0: 1d4c 4f3a 9cbb dcbe f91f bcbd 5ded f8be
000001e0: 3c9d d43c 4ede 2bbf bdcd a33e 341e 50bf
000001f0: fce8 73bf 73a0 05be 27a3 1d3e e25e 42be

decoder.3.weight f4 [16, 128]
-0.3854631 0.31222844 0.053024147 -0.26956356 -0.51765865 -0.0027230007 0.026767453 0.2601447
-0.3985201 -0.6899468 0.6000675 -0.3240581 1.1226512 -0.045531824 0.14444008 -0.5379936
-0.07802391 -0.37467548 -0.2920403 -0.97936904 -0.0016718222 -0.1495445 0.006126708 -0.047875714
0.045698866 0.07832272 -0.207302 -0.6443196 -0.8180139 0.716814 -0.939946 -1.371782
0.4936081 1.3349688 -0.44895253 -0.41994467 0.48761073 -0.7994982 0.51391476 -0.24739172
-0.84166855 -0.85080594 0.110274166 -0.08762813 0.20419332 0.10159048 -0.53053665 -0.081164375
-0.05722119 0.2059628 -1.3607143 -0.0711857 0.5167154 -0.5041595 0.96218455 1.2887323
-0.13899517 -0.15075763 0.119874604 -0.8372803 0.56991637 -0.8637075 -0.51742893 0.2104687
-0.3081071 -0.061601486 0.9264458 0.6301298 0.20284875 -0.13947889 -0.525224 -0.017134428
0.029953886 -0.88806427 -0.05444114 -0.57745045 0.59390205 -1.3997867 -0.92232 -0.6721338
0.16891652 1.203255 0.01826447 -0.50027573 -0.02168948 -1.3450016 0.6358162 -0.8590416
-0.14949493 0.34350994 -0.020599913 -1.1336055 -1.3245847 -0.26835266 -0.031025596 0.08699962
-0.07370605 0.5697415 -1.3695781 0.47386146 0.29759315 -0.63794476 0.18267652 -0.28163648
0.9825647 -0.9959695 -0.04888924 -0.11803264 -0.92373633 -0.0722475 -1.1105884 -0.53379196
-1.3898445 0.054836217 -0.7256857 -1.2059114 -0.59589434 0.45526224 0.10949931 -0.49293485
0.83491015 -0.22567092 -1.150105 -0.24513453 -0.040968597 -0.59786856 -0.50203437 0.06624129
-0.17011167 0.2349528 -0.15774605 -0.11156195 -0.24848488 -0.024686158 0.07526402 -0.5605007
0.040083308 -0.3530405 -0.007849123 -0.58170146 0.82158446 -0.06250338 -0.117994554 -0.3517074
-0.019692373 -0.28707778 -0.52120304 0.10136006 -0.05485025 -0.49741095 -0.07125595 0.09458032
0.046313383 0.3569848 0.042128682 -0.5687903 -0.2863226 -0.6616816 -1.0109359 -0.32270476
0.641083 0.0577068 0.016389497 -0.30830407 -0.13462846 -0.507386 -0.082334206 0.706055
-0.38290408 -1.1478884 -0.045306377 0.059874862 -0.14052562 0.55877674 -0.15646815 -0.65785015
0.012271982 -0.9179772 -0.87273353 -0.49409315 -0.16208926 -0.037774257 0.7668978 -0.7611847
-0.3480408 -0.74248296 -0.5438876 -0.41973272 0.7129902 -0.12485409 0.031683292 -0.070858
-0.576989 -0.1990321 0.2844347 0.4774673 0.3481681 -0.5913215 -0.52496153 0.066860415
-0.032941725 -0.5260066 0.0106415115 -0.8328611 0.39442343 -0.6208235 -0.49927777 -0.2899982
0.014339602 0.6372475 -0.049770363 -0.79198456 -0.061428607 -0.3548723 -0.9671254 -0.64260644
0.5249579 0.25152585 -0.056429863 -0.8790211 -0.45962533 -0.36243775 -0.26226416 0.048349895
0.17351945 -0.38353133 -0.71327376 0.38128302 0.16991779 -0.0722723 0.21229397 1.0406698
-0.08008288 0.24768588 0.0038984641 -0.3330522 -0.78875697 0.05055889 -0.33086511 -0.5325521
-0.30983478 -0.057651564 -0.1949205 -0.52678174 -0.5024399 -0.65594923 0.23952347 -0.5827298
0.34861842 -0.25764322 -0.8252048 -0.02157131 -0.60973686 -0.48580208 0.3527517 -0.029004725
00000000: 6b5b c5be 68dc 9f3e d92f 593d 3c04 8abe
00000010: 4785 04bf 5f74 32bb 6b47 db3c b031 853e
00000020: d40a ccbe 5aa0 30bf 069e 193f f1ea a5be
00000030: 09b3 8f3f 947f 3abd 1ae8 133e f3b9 09bf
00000040: 00cb 9fbd 77d5 bfbe 4e86 95be eeb7 7abf
00000050: 0b21 dbba 3222 19be 8dc2 c83b 5319 44bd
00000060: bc2e 3b3d aa67 a03d fa46 54be 21f2 24bf
00000070: 5c69 51bf 1f81 373f 4da0 70bf 8d96 afbf
00000080: 33ba fc3e 42e0 aa3f 1bdd e5be fd02 d7be
00000090: 1da8 f93e eaab 4cbf eb8f 033f 4154 7dbe
000000a0: 9777 57bf 6bce 59bf 6cd7 e13d 6176 b3bd
000000b0: 0e18 513e ab0e d03d 40d1 07bf 8239 a6bd
000000c0: c460 6abd eae7 523e e32b aebf cfc9 91bd
000000d0: 7647 043f 9910 01bf ba51 763f 2ef5 a43f
000000e0: c054 0ebe 3560 1abe d180 f53d 0058 56bf
000000f0: 0ae6 113f ef1b 5dbf 3976 04bf 1b85 573e
00000100: 37c0 9dbe d751 7cbd 8d2b 6d3f 3050 213f
00000110: 95b7 4f3e 8ed3 0ebe 1475 06bf 805d 8cbc
00000120: da61 f53c 2e58 63bf acfd 5ebd cbd3 13bf
00000130: f709 183f 362c b3bf 2a1d 6cbf f610 2cbf
00000140: 74f8 2c3e 4304 9a3f 5f9f 953c 1212 00bf
00000150: 23ae b1bc 0329 acbf dac4 223f 26ea 5bbf
00000160: 3315 19be 89e0 af3e 26c1 a8bc fc19 91bf
00000170: fe8b a9bf 8565 89be 6429 febc db2c b23d
00000180: 33f3 96bd 94da 113f 564e afbf f89d f23e
00000190: 215e 983e 5950 23bf 8e0f 3b3e a832 90be
000001a0: 5c89 7b3f dbf7 7ebf 1540 48bd 19bb f1bd
000001b0: fc79 6cbf 7ff6 93bd c327 8ebf 97a6 08bf
000001c0: 6de6 b1bf f19b 603d 8ac6 39bf 4e5b 9abf
000001d0: 888c 18bf 2218 e93e 2d41 e03d f561 fcbe
000001e0: acbc 553f 4716 67be a436 93bf 8c04 7bbe
000001f0: b0ce 27bd ea0d 19bf 5385 00bf 83a9 873d
00000200: c131 2ebe 7897 703e 2e88 21be 977a e4bd
00000210: d272 7ebe a03a cabc 0624 9a3d f97c 0fbf
00000220: 652e 243d b9c1 b4be 9c99 00bc 63ea 14bf
00000230: 5c53 523f c601 80bd 21a7 f1bd fe12 b4be
00000240: e651 a1bc dcfb 92be 906d 05bf dd95 cf3d
00000250: a8aa 60bd a6ac febe a4ee 91bd 54b3 c13d
00000260: 1ab3 3d3d b6c6 b63e 208f 2c3d 3e9c 11bf
00000270: e098 92be f763 29bf 5966 81bf 8f39 a5be
00000280: 041e 243f f75d 6c3d 4443 863c 08da 9dbe
00000290: 0bdc 09be 0de4 01bf d69e a8bd 05c0 343f
000002a0: 010c c4be 02ee 92bf 2e93 39bd 583f 753d
000002b0: f3e5 0fbe fe0b 0f3f 3039 20be de68 28bf
000002c0: 6c10 493c 8e00 6bbf 776b 5fbf c7f9 fcbe
000002d0: bafa 25be 2eb9 1abd 6a53 443f 00dd 42bf
000002e0: 6732 b2be 5d13 3ebf 383c 0bbf 35e7 d6be
000002f0: 8786 363f 80b3 ffbd 57c6 013d 001e 91bd
00000300: 8db5 13bf 12cf 4bbe 6da1 913e 9876 f43e
00000310: 1743 b23e d960 17bf e163 06bf 1dee 883d
00000320: e7ed 06bd 5ea8 06bf bc59 2e3c 6336 55bf
00000330: def1 c93e 4aee 1ebf 56a1 ffbe a57a 94be
00000340: a6f0 6a3c a722 233f 02dc 4bbd 80bf 4abf
00000350: 909c 7bbd d2b1 b5be 8895 77bf db81 24bf
00000360: a463 063f ffc7 803e 0023 67bd 8707 61bf
00000370: 0354 ebbe 7191 b9be 7d47 86be 8a0a 463d
00000380: 15af 313e 385e c4be 1c99 36bf 8737 c33e
00000390: eefe 2d3e 8003 94bd 9763 593e ab34 853f
000003a0: 7e02 a4bd 5ea1 7d3e 607d 7f3b d185 aabe
000003b0: faeb 49bf d716 4f3d 2767 a9be 5655 08bf
000003c0: aaa2 9ebe 0c24 6cbd 3d99 47be 2bdb 06bf
000003d0: e79f 00bf 4aec 27bf a445 753e c82d 15bf
000003e0: 1d7e b23e d0e9 83be 9f40 53bf 51b6 b0bc
000003f0: b717 1cbf 0dbb f8be df9b b43e 519b edbc

decoder.3.bias f4 [16]
0.7383301 0.52061874 0.5181241 -0.35871458 -0.43246087 0.5446797 0.6289783 0.5531613
0.3578077 0.38807985 0.46303254 0.4501723 -0.23253633 -0.08319645 0.7107953 0.35097346
00000000: 3403 3d3f 4547 053f c8a3 043f 70a9 b7be
00000010: 836b ddbe 2170 0b3f b904 213f fb9b 0d3f
00000020: 9232 b73e 67b2 c63e 9a12 ed3e fc7c e63e
00000030: 011e 6ebe e662 aabd aef6 353f cbb2 b33e

decoder.5.weight f4 [1, 16]
-1.2250013 -0.42476663 -0.6410577 -0.49591893 0.5235152 0.37667623 0.39199004 -1.7727367
1.142571 0.68854016 -0.8799403 1.0328302 0.35807586 1.2816428 -1.7793344 0.27807516
00000000: d8cc 9cbf 037b d9be 5c1c 24bf 16e9 fdbe
00000010: 1805 063f b5db c03e ebb2 c83e 09e9 e2bf
00000020: c43f 923f 2b44 303f c443 61bf c833 843f
00000030: b855 b73e df0c a43f 3bc1 e3bf de5f 8e3e
